DRL/bocchi/logs/2024-09-27_19-58/dqn_model_50.pth (torch, 302543 bytes, 8 tensors)

layers.0.weight f4 [128, 54]
0	0xbb3107f5	-0.00270128
1	0xbe741741	-0.23836996
2	0x3c868582	0.016421083
3	0xbc9bd078	-0.019020304
4	0x3c377e5e	0.011199562
5	0xbddc4b6b	-0.10756572
6	0xbcf384ff	-0.029726503
7	0xbe068981	-0.13138391
8	0x3dbfe30d	0.093694784
9	0x3e058853	0.13040285
10	0xbde31508	-0.11087996
11	0x3d88e69b	0.066846095
12	0x3df1dbd3	0.11809506
13	0xbd960445	-0.07325033
14	0x3aaa0654	0.0012971857
15	0x3d20edf8	0.039289445
16	0x3e3fb4b8	0.18721282
17	0x3dd99595	0.10624234
18	0xbdf9cf8e	-0.12197791
19	0xbdc54e37	-0.09634059
20	0x3d8575d1	0.06516612
21	0xbda0ee31	-0.078579314
22	0x3c480149	0.012207338
23	0x3d98bf85	0.074584045
24	0x3cf174e5	0.029474685
25	0xbdee4cd5	-0.11635748
26	0xbd31400c	-0.04327397
27	0x3d236f85	0.039901275
28	0xbdd4e980	-0.10396099
29	0xbe02c7f7	-0.12771593
30	0x3d897d06	0.067132995
31	0xbdab9a79	-0.08379073
32	0xbb76fede	-0.0037688534
33	0x3d0cca56	0.03437265
34	0x3dbdb484	0.09262946
35	0xbcf9c7b8	-0.030490741
36	0x3e0e8f77	0.13921915
37	0xbb66d779	-0.0035223647
38	0x3d193bdc	0.037410602
39	0x3cd0b509	0.02547695
40	0xbd31259e	-0.043248765
41	0xbd66df2b	-0.056365173
42	0xb9d483b2	-0.00040533912
43	0x3d1cf08f	0.038315352
44	0x3a1a3456	0.00058824325
45	0xbd0a75e9	-0.033803854
46	0x3dc6c8ed	0.09706292
47	0x3c46769e	0.0121132415
48	0xbe28e81e	-0.16494796
49	0x3dda7997	0.10667723
50	0x3d958c52	0.073021546
51	0x3d9107d9	0.07081575
52	0xbcbe70d0	-0.023247153
53	0x3d9a2b12	0.07527746
54	0x3d6d5285	0.057940025
55	0xbdb2b8d2	-0.08726658
56	0x3c82e940	0.015980363
57	0xbd2f77ae	-0.042838745
58	0xbae628af	-0.0017559732
59	0x3da7e316	0.0819761
60	0xbb846202	-0.0040400038
61	0xbcfffdba	-0.031248916
62	0x3c5e9e26	0.01358751
63	0x3e040120	0.12891054
64	0x3dc55d57	0.09636944
65	0xbda69368	-0.08133584
66	0xbd9fe2e2	-0.07806946
67	0x3d14e994	0.03635557
68	0x3e0d63f8	0.13807666
69	0xbe286317	-0.1644405
70	0xbd9d879e	-0.076918826
71	0xbe22fa1e	-0.15915725
72	0xbc1b9c80	-0.009497762
73	0x3e14151c	0.14461178
74	0x3d717e96	0.058958612
75	0xbb229a8c	-0.0024811355
76	0xbe0fe349	-0.14051546
77	0xbde9efc4	-0.11422685
78	0xbdad7c82	-0.084710136
79	0xba92a0e4	-0.0011186865
80	0x3d1fd71d	0.039023507
81	0xbe003f5a	-0.12524167
82	0x3dd513a3	0.10404136
83	0xbde9f6ec	-0.1142405
84	0xbe0bf2f2	-0.13666895
85	0x3bd54a0f	0.0065090726
86	0x3d69c37a	0.057071187
87	0xbd91869e	-0.07105754
88	0xbdd1e10a	-0.10248001
89	0xbd8614cd	-0.06546936
90	0x3e013089	0.12616171
91	0xbdffe6ee	-0.12495218
92	0xbd7ae7f8	-0.06125638
93	0xbdab543b	-0.08365675
94	0x3e17c2c4	0.14820391
95	0xbd2f5670	-0.042807043
96	0x3e0d3100	0.13788223
97	0x3d416573	0.04721589
98	0x3dcc37ee	0.09971605
99	0xbd6f800f	-0.058471736
100	0xbdf4ebbc	-0.11959025
101	0xbd963423	-0.07334163
102	0x3d5e0157	0.054200497
103	0x3d701d72	0.05862183
104	0x3dfe7026	0.12423734
105	0xbc823829	-0.01589592
106	0xb996f306	-0.00028791296
107	0x3de559bd	0.11198757
108	0x3d719d42	0.058987863
109	0xbdbbebdd	-0.09175847
110	0x3d1fa290	0.03897339
111	0xbcbe37c7	-0.023219956
112	0xbdc00d31	-0.09377516
113	0x3dedaed7	0.11605614
114	0x3d945e4a	0.07244547
115	0xbe0d5236	-0.13800892
116	0x3e2753c8	0.16340554
117	0x3ca1a6ce	0.019732859
118	0xbe0d5189	-0.13800634
119	0xbde0d168	-0.10977441
120	0xbd8de271	-0.06927956
121	0x3d979d19	0.07403011
122	0x3d2c4e92	0.042067118
123	0x3cd35a33	0.025799846
124	0xbe00c286	-0.12574205
125	0xbd9715ff	-0.07377242
126	0x3b99099f	0.0046703364
127	0xbe2a3d35	-0.16624911
128	0x3e2358b0	0.159518
129	0x3dd75bff	0.10515594
130	0xbe027040	-0.12738132
131	0x3da929f9	0.08259959
132	0x3d4518db	0.048119407
133	0xbdbf214b	-0.09332522
134	0x3d75fc1c	0.060054883
135	0x3daa8b72	0.08327378
136	0xbdc9ae96	-0.09847753
137	0x3d999273	0.07498636
138	0xbda969ec	-0.08272156
139	0x3df89d47	0.12139373
140	0xbd875ac4	-0.06609109
141	0x3d00f79f	0.03148615
142	0xbdd53264	-0.10410002
143	0x3de2e4bc	0.11078784
144	0x3d8da84c	0.06916866
145	0x3df532bd	0.11972568
146	0x3da88e74	0.08230296
147	0x3b8e85aa	0.00434943
148	0x3d020850	0.03174621
149	0x3dc466e0	0.09589934
150	0x3db5d856	0.088791534
151	0xbcc15e8a	-0.02360465
152	0xbcb9db78	-0.022687659
153	0xbdff716a	-0.12472804
154	0x3db2796b	0.08714565
155	0x3e0a238d	0.13490124
156	0xbda7be52	-0.081905976
157	0xbda2cd8c	-0.07949361
158	0x3da30193	0.07959285
159	0xbce5fdf0	-0.028075188
160	0xbbbff07c	-0.0058575254
161	0x3de755a4	0.112956315
162	0xbdf26f50	-0.118376374
163	0x3e14e5d9	0.14540805
164	0x3d11486d	0.03546946
165	0xbbb7e220	-0.005611673
166	0x3c02e767	0.007989741
167	0xbdecd806	-0.11564641
168	0x3dbfd879	0.09367461
169	0xbdbe7743	-0.09300091
170	0xbdb5e841	-0.088821895
171	0xbdc6bf5d	-0.097044684
172	0x3ddeffd4	0.10888639
173	0x3e08d7ab	0.13363521
174	0x3ddaf813	0.10691848
175	0x3db0f838	0.08641094
176	0x3e506919	0.20352592
177	0x3dd18247	0.102299266
178	0xbca2f798	-0.019893453
179	0xbde82a82	-0.11336233
180	0x3d58c725	0.052924294
181	0xbe55246b	-0.20814674
182	0x3db8c6bf	0.09022283
183	0xbe286872	-0.16446093
184	0x3df12790	0.11775124
185	0x3d850cab	0.06496557
186	0xbcccb2fa	-0.024987686
187	0x3d7565c6	0.05991151
188	0x3e01e11e	0.12683532
189	0x3dad0ee6	0.08450107
190	0x3d6dc8aa	0.058052696
191	0xbc296e60	-0.010341257
192	0x3c5eba39	0.013594204
193	0x3d1b0bc5	0.03785302
194	0xbcdc4621	-0.026888909
195	0xbceb729e	-0.028741177
196	0xbdaa1039	-0.083038755
197	0xbd433c0e	-0.047664694
198	0xbdbd1cd4	-0.09234014
199	0x3d071559	0.032979343
200	0xbd40a109	-0.047028575
201	0xbcc6c699	-0.02426462
202	0x3cc30a3b	0.02380859
203	0x3e2a4a4c	0.16629905
204	0xbd9b1af1	-0.07573498
205	0xbdb370d1	-0.087617524
206	0x3dedf2a1	0.116185434
207	0xbd5618d0	-0.052269757
208	0xbc0dd428	-0.008656539
209	0xbde3ac0f	-0.11116802
210	0x3c072496	0.008248469
211	0x3e0712d8	0.13190782
212	0xbcdfc417	-0.027315183
213	0x3e0d7ee4	0.13817936
214	0x3d7f7bc3	0.062373888
215	0xbdd25e56	-0.102718994
216	0xbb4de0a1	-0.0031414407
217	0x3d1205ee	0.035650186
218	0xbc5fe559	-0.013665521
219	0xbbf48f79	-0.0074633923
220	0xbd5ebbda	-0.054378368
221	0xbda490a0	-0.080353975
222	0x3cf1b3de	0.029504713
223	0xbde3088a	-0.11085613
224	0x3e391ee3	0.18078189
225	0x3e023a11	0.12717463
226	0xbd9c7229	-0.07638962
227	0x3de217bd	0.11039684
228	0xbd7139eb	-0.058893126
229	0xbd17e04d	-0.037079144
230	0x3e0b10f7	0.1358069
231	0x3d98aa0f	0.07454311
232	0x3e549cee	0.20762989
233	0xbcee4d6f	-0.029089658
234	0xbd4f306d	-0.05058329
235	0x3ced0961	0.028935136
236	0x3e076d13	0.13225202
237	0xbd35e446	-0.04440715
238	0x3e05df40	0.13073444
239	0x3d97d352	0.07413353
240	0x3e159df4	0.14611036
241	0x3e17a240	0.14807987
242	0xbd557084	-0.052109256
243	0x3b50ee90	0.0031880476
244	0x3de84291	0.113408215
245	0xbda61813	-0.081100605
246	0x3d7c6b36	0.06162568
247	0x3d995734	0.07487336
248	0x3cc2f387	0.023797764
249	0xbd8d19a6	-0.06889658
250	0xbd7b2e05	-0.061323185
251	0x3dddb519	0.10825557
252	0xbd29eee0	-0.041487575
253	0x3c9b6761	0.018970193
254	0x3cc5d8a3	0.024151152
255	0xbdeb8c27	-0.11501341

layers.0.bias f4 [128]
0	0xbd1fe330	-0.039035022
1	0xbc9b773c	-0.018977754
2	0x3cd4708a	0.025932569
3	0xbd8ad31a	-0.06778546
4	0xbda5d2fa	-0.08096881
5	0x3d569712	0.052390166
6	0xbdc6e476	-0.09711544
7	0xbd2b4dce	-0.041822247
8	0x3e2b7da7	0.16747151
9	0x3debb05a	0.11508246
10	0xbd3a676f	-0.0455088
11	0xba7c21b9	-0.0009618062
12	0x3dcc16f2	0.09965314
13	0xbde43bba	-0.111442044
14	0x3dc33663	0.09531858
15	0x3c8ce840	0.01720059
16	0x3dcd8318	0.1003477
17	0x3d62f558	0.05540976
18	0xbdb72c61	-0.089440115
19	0xbd2af7eb	-0.04174034
20	0x3d91b7eb	0.07115158
21	0x3d860aac	0.06545004
22	0x3df8f444	0.12155965
23	0x3cc3b3a7	0.023889376
24	0x3b8a2848	0.0042162277
25	0x3d302af0	0.0430097
26	0x3d3bf65a	0.045889236
27	0xbe19d389	-0.150221
28	0xbdd08bf2	-0.101829425
29	0xbdc07bc7	-0.09398609
30	0xbdc5a1bb	-0.09649988
31	0xbc1847df	-0.009294479
32	0x3d6a0b81	0.057139877
33	0xbd5f6c2e	-0.054546528
34	0xbe140f90	-0.14459062
35	0xbd5e8234	-0.05432339
36	0xbdec9574	-0.115519434
37	0xbdb37459	-0.08762426
38	0x3cc8b367	0.024499608
39	0x3e28338f	0.16425918
40	0xbc4ade9a	-0.012382174
41	0x3dda4fe0	0.10659766
42	0xbdcc84bf	-0.09986257
43	0xbd16f3fb	-0.03685377
44	0xbd5cc655	-0.05390008
45	0xbd2c7dc4	-0.042112127
46	0x3dee1135	0.11624376
47	0xbe0fc9ae	-0.14041778
48	0x3dc8bf50	0.09802115
49	0x3dc5f40a	0.096656874
50	0xbdfbf396	-0.1230232
51	0xbe07c6c6	-0.1325942
52	0xbce1ef9b	-0.027580073
53	0x3e1e60fd	0.15466686
54	0xbd8826aa	-0.066479996
55	0x3ccf57fb	0.025310507
56	0xbd6a4ae2	-0.05720032
57	0x3c9fa35d	0.019487077
58	0x3b1f77b7	0.002433283
59	0x3d53fc2a	0.051754154
60	0x3de000dc	0.10937664
61	0xbd7e3e79	-0.062071297
62	0x3d9a8fd8	0.07546967
63	0xbc8dad87	-0.017294658
64	0x3dd1d88a	0.1024638
65	0xbd272c5c	-0.04081379
66	0xbdb9ca5f	-0.09071802
67	0x3e188fa2	0.14898542
68	0x3d9aa509	0.07551009
69	0x3dda04a9	0.1064542
70	0xbd8ba846	-0.06819205
71	0x3dc2e6f3	0.09516706
72	0xbdd8d7a1	-0.10588003
73	0x3dc34026	0.0953372
74	0x3df66c67	0.12032395
75	0xbe0ede1a	-0.13951913
76	0xbe06f8ec	-0.13180894
77	0xbde70470	-0.11280143
78	0xbdd688c2	-0.10475303
79	0xbdbbbfd9	-0.091674514
80	0xbd87ea43	-0.06636479
81	0xbd4acb1c	-0.049510106
82	0xbda21f5d	-0.07916138
83	0xbdcaddb7	-0.0990557
84	0x3aa90b7e	0.0012897102
85	0x3da1947a	0.07889648
86	0xbe053fc7	-0.1301261
87	0x3da9c401	0.08289338
88	0x3d0cb9ef	0.034357008
89	0xbdb25019	-0.08706684
90	0x3d75417b	0.0598769
91	0xbe07f6d3	-0.1327775
92	0xbdd36ba4	-0.10323265
93	0x3d5d46c4	0.054022565
94	0x3c8ae367	0.016954137
95	0xbdbd9bbd	-0.0925822
96	0xbd0dd62b	-0.034628075
97	0x3d98d759	0.07462949
98	0xbd6e1b3f	-0.058131453
99	0x3db9c53e	0.09070824
100	0xbe0c0298	-0.13672864
101	0xbdd687e0	-0.10475135
102	0x3cff6959	0.031178163
103	0x3dd803fb	0.10547634
104	0x3dc54bdf	0.09633612
105	0xbc75e4d5	-0.015008171
106	0x3cb677f2	0.022273991
107	0xbd217a54	-0.0394233
108	0xbd28300b	-0.041061442
109	0xbe0016bc	-0.12508672
110	0xbcf2b20a	-0.029625911
111	0x3cd57513	0.026056802
112	0x3e1ac151	0.15112807
113	0x3debb5c0	0.115092754
114	0x3dc9d998	0.09855956
115	0x3d5c0356	0.05371412
116	0x3ca4f320	0.020135462
117	0x3dca3c0e	0.09874736
118	0xbd3e3965	-0.046441454
119	0x3d98a81e	0.07453941
120	0xbd402bdc	-0.046916828
121	0x3da23903	0.0792103
122	0xbe06e792	-0.13174275
123	0x3de62f46	0.112394854
124	0x3db65446	0.08902793
125	0xbdc36ac6	-0.0954185
126	0x3d39e535	0.045384604
127	0xbd77b145	-0.06047179

layers.2.weight f4 [256, 128]
0	0x3dae4e32	0.08511008
1	0x3d513d51	0.051083867
2	0xbd807c97	-0.062737636
3	0xbddfa198	-0.109194934
4	0xbd5aff53	-0.053466152
5	0x3df74530	0.12073743
6	0xbcbc5723	-0.022990769
7	0x3de207b0	0.110366225
8	0xbd10d5a2	-0.035359986
9	0xbd101ee1	-0.0351857
10	0x3c4a7e1b	0.012359167
11	0x3d9f06a5	0.07764939
12	0xbd1b38bb	-0.0378959
13	0x3dbedeca	0.093198374
14	0xb7943baa	-1.7670758e-05
15	0x3c829074	0.015938021
16	0xbde476a8	-0.111554444
17	0xbde7cd6f	-0.1131848
18	0xbb908fe8	-0.004411686
19	0x3b8db8ae	0.004324994
20	0xbc867639	-0.016413795
21	0x3c00bf69	0.007858136
22	0x3da8659a	0.08222504
23	0xbcd22a37	-0.025654895
24	0x3d96b73a	0.073591664
25	0x3e0d548c	0.13801783
26	0xbc7d563a	-0.015462453
27	0x3b8a4ab6	0.004220332
28	0x3df8f031	0.12155188
29	0xbcb86553	-0.022509253
30	0x3d8aa490	0.06769669
31	0xbd085a0a	-0.033288993
32	0x3cd71fb2	0.02626023
33	0x3cb18fee	0.021675076
34	0xbcbc33d7	-0.022973938
35	0x3d8adb0a	0.0678006
36	0xbcd92449	-0.02650656
37	0xbe15cbad	-0.14628477
38	0xbdd15614	-0.10221496
39	0x3e8a5094	0.270146
40	0x3d9990f1	0.074983485
41	0xbd16fa7e	-0.03685998
42	0xbc439b4f	-0.011938884
43	0x3c0b7fd4	0.008514363
44	0xbcfef866	-0.031124305
45	0xbdc38f2c	-0.09548792
46	0x3caa0046	0.020752084
47	0xbdd26e02	-0.102748886
48	0x3d7864fd	0.060643185
49	0xbd6d38c8	-0.05791548
50	0xbdd83e32	-0.10558738
51	0xbdcd1ac0	-0.10014868
52	0x3d338665	0.04382934
53	0xbd727d07	-0.059201267
54	0xbd3374e1	-0.043812636
55	0xbdada1b0	-0.08478105
56	0x3d2e977c	0.042624936
57	0xbdb92a5b	-0.09041282
58	0x3d343993	0.04400022
59	0x3de73114	0.11288658
60	0x3e0e29e1	0.13883163
61	0x3d021cf1	0.031765882
62	0x3dd3da0c	0.103443235
63	0xbdad8c53	-0.0847403
64	0x3e000895	0.12503274
65	0xbcbadd7e	-0.022810694
66	0x3cee4ede	0.029090341
67	0xbd974f13	-0.07388129
68	0xbd0dcb91	-0.034617964
69	0x3e42055e	0.1894736
70	0x3d3eb575	0.04655977
71	0x3dae9625	0.085247315
72	0xbd4d2c71	-0.05009121
73	0xbd826303	-0.06366541
74	0x3e24992c	0.16074055
75	0xbca37025	-0.019950936
76	0x3ddcb060	0.10775828
77	0x3e15de6b	0.14635627
78	0x3b84cf56	0.0040530367
79	0xbc5e31d7	-0.013561687
80	0xbd03e7f4	-0.03220363
81	0x3d935bc6	0.07195239
82	0xbdad16bb	-0.08451601
83	0xbe305233	-0.17218857
84	0x3ca453d5	0.020059505
85	0xbc7c1451	-0.015385703
86	0xbcc464b4	-0.0239738
87	0x3ce0f159	0.027458834
88	0x3df2cb2f	0.118551604
89	0x3bce5d55	0.006297747
90	0x3e39be13	0.18138914
91	0xbcbf1c52	-0.023328934
92	0x3de01095	0.10940663
93	0x3d8270eb	0.06369194
94	0xbd09d320	-0.03364861
95	0xbdd34567	-0.10315972
96	0x3d412b8c	0.04716067
97	0xbdcf054d	-0.10108433
98	0x3cc887ba	0.024478782
99	0x3c3034a9	0.010754743
100	0xbced4368	-0.028962806
101	0x3d2423f6	0.040073358
102	0x3d28d8ae	0.041222267
103	0x3d378ef0	0.04481405
104	0x3b17c6f2	0.0023159352
105	0x3cf60d87	0.030035747
106	0xbdcd2324	-0.10016468
107	0xbd11f9ef	-0.035638746
108	0x3c516e94	0.012782712
109	0x3c6fc139	0.01463347
110	0xbdede501	-0.11615945
111	0x3d57e3a9	0.052707348
112	0x3d900eee	0.070340976
113	0xbdd36fcd	-0.10324059
114	0xbd8d39af	-0.06895768
115	0xbdbc13e8	-0.09183484
116	0xbd9ed1af	-0.07754838
117	0xbdc0adf1	-0.09408177
118	0xbd829858	-0.063767135
119	0x3d0ce82b	0.0344011
120	0x3c9ede14	0.019393004
121	0xbd0e95a6	-0.034810685
122	0xbd6b519c	-0.057450876
123	0xbd950f80	-0.07278347
124	0x3dca06eb	0.09864601
125	0xbbc50879	-0.006012973
126	0x3d1092d2	0.03529627
127	0xbd8fb330	-0.07016599
128	0x3d497e62	0.049192794
129	0xbc04ac4a	-0.008097718
130	0xbd6b991b	-0.05751906
131	0x3df0aa3e	0.11751221
132	0x3d7d9bc2	0.06191612
133	0x3e020f54	0.1270116
134	0xbd4fe4f0	-0.05075544
135	0x3cc6a83a	0.024250139
136	0xbca9835c	-0.02069252
137	0x3d843602	0.06455614
138	0x3d1acd11	0.037793223
139	0x3d9a8ba3	0.07546165
140	0x3dc82937	0.09773486
141	0xbd34dc73	-0.04415555
142	0x3c8ce23d	0.017197723
143	0x3dc2f54b	0.09519442
144	0xbd1d5d4e	-0.03841906
145	0x3d02078f	0.03174549
146	0x3d5afa7f	0.053461548
147	0x3cfcdd9b	0.030867388
148	0x3e0397a0	0.12850809
149	0xbe18faa7	-0.14939366
150	0x3ca3be9f	0.019988356
151	0x3d05a6f4	0.032629922
152	0x3e29b8f0	0.16574454
153	0x3dcdf361	0.100561865
154	0xbd83ed6f	-0.06441771
155	0xbc58e3bd	-0.013237891
156	0x3dda8582	0.10669996
157	0x3d721c23	0.059108865
158	0x3d0aedbb	0.033918124
159	0x3de07126	0.10959081
160	0xbdd90d2a	-0.10598214
161	0x3dea5681	0.114422806
162	0x3ddd1b9f	0.10796284
163	0x3b463c95	0.0030248512
164	0x3d1c52ef	0.03816503
165	0xbc4c398b	-0.012464891
166	0x3d25f054	0.040512398
167	0x3e821bbb	0.25411782
168	0xbd1363b5	-0.03598376
169	0xbdade789	-0.084914275
170	0x3d71379f	0.058890935
171	0xbd89961e	-0.06718086
172	0x3ae3e620	0.0017387308
173	0x3d777f9a	0.060424425
174	0xbdab743d	-0.0837178
175	0xbe3f1184	-0.18659025
176	0x3d8c446b	0.06848987
177	0xbccf3278	-0.02529262
178	0xbd1998be	-0.037499182
179	0xbe84aceb	-0.25913176
180	0xbd8a7ae7	-0.06761723
181	0x3c484d62	0.012225481
182	0xbd74d415	-0.05977257
183	0xbe027fd3	-0.12744074
184	0xbdc7e12b	-0.09759744
185	0xbdc741f2	-0.09729375
186	0xbb335892	-0.0027366024
187	0x3d5a9dce	0.05337315
188	0x3d2a06a2	0.04151023
189	0xbe14af22	-0.14519933
190	0x3d91b820	0.07115197
191	0x3e2341c2	0.15943053
192	0x3d096ad5	0.03354915
193	0xbddc9b3a	-0.107717946
194	0x3e104a7e	0.14090917
195	0xbd67e115	-0.05661114
196	0xbd3db844	-0.046318308
197	0x3d020e7b	0.03175209
198	0xbe14b517	-0.14522205
199	0xbd8957fe	-0.06706236
200	0x3d91481c	0.07093832
201	0xbc491be6	-0.012274718
202	0x3db446e6	0.08802585
203	0xbcd9fa74	-0.026608683
204	0xbc93fef8	-0.018065915
205	0xbd8e8091	-0.06958116
206	0xbc26fc06	-0.010191923
207	0x3d855091	0.065095074
208	0xbdea2e1f	-0.11434578
209	0xbccb5faa	-0.02482589
210	0xbce32b4b	-0.027730605
211	0xbce5bf84	-0.028045423
212	0xbdc46343	-0.09589245
213	0xbdc99959	-0.09843702
214	0xba9969e8	-0.0011704536
215	0xbd031d5e	-0.03201043
216	0x3d990401	0.07471467
217	0x3ccf4622	0.025301997
218	0x3e44e3fd	0.19227596
219	0x3d4cba71	0.049982492
220	0x3d613db0	0.05499047
221	0xbb4d1538	-0.0031293165
222	0x3dc46afe	0.0959072
223	0xbc966761	-0.018359842
224	0x3b9aa72b	0.004719635
225	0x3daf0f08	0.08547789
226	0xbd35f6fc	-0.044424996
227	0x3d9bc871	0.076065905
228	0xbd29348b	-0.041309875
229	0x3a5ee58c	0.0008502833
230	0xbcca0329	-0.02465971
231	0x3d84bc5a	0.06481238
232	0xbd741e26	-0.059599064
233	0x3ccda70f	0.025104074
234	0x3d310ad4	0.043223217
235	0x3c3731ec	0.011181336
236	0xbe4e02a7	-0.201182
237	0xbd8dd8a8	-0.069260895
238	0x3c0aa89b	0.00846305
239	0xbc57fad0	-0.013182357
240	0x3e1770b3	0.14789085
241	0xbe3ac100	-0.18237686
242	0xbd4ab170	-0.049485624
243	0x3da5627a	0.080754235
244	0x3ce13700	0.027492046
245	0xbdb7f98a	-0.08983143
246	0xbd848f49	-0.06472642
247	0x3daf58f9	0.08561892
248	0x3dd58082	0.104249015
249	0x3d90930e	0.070592985
250	0x3d3f2dc9	0.046674524
251	0xbbc748e4	-0.0060816873
252	0x3d4de78e	0.050269656
253	0xbe0ec039	-0.13940515
254	0x3ce16ebf	0.027518628
255	0x3d72e777	0.059302773

layers.2.bias f4 [256]
0	0x3c916799	0.017749595
1	0x3d082d92	0.033246584
2	0xbda86c1c	-0.08223745
3	0xbd84fc15	-0.06493393
4	0xbd322961	-0.043496493
5	0x3ad5207f	0.0016260295
6	0x3c52ef0a	0.012874374
7	0x3d4e2d01	0.050335888
8	0x3c16ac4a	0.00919635
9	0x3cad8139	0.021179782
10	0x3d9e8d57	0.07741802
11	0xbc0969b8	-0.008387022
12	0xbd3d8f90	-0.04627949
13	0x3d7a9322	0.061175473
14	0xbd7a9f0f	-0.061186846
15	0x3dc85d76	0.09783451
16	0xbd836596	-0.0641586
17	0xbdc2f8f8	-0.09520143
18	0x3d2a8a68	0.0416359
19	0x3c9f38d7	0.019436283
20	0xbcab4b4f	-0.020909933
21	0xbd81eaf9	-0.063436456
22	0x3ba5fddd	0.0050656633
23	0x3d4030a7	0.0469214
24	0xbb2e4c15	-0.0026595641
25	0xba78d989	-0.00094928645
26	0xbd8a95ca	-0.06766851
27	0x3d868cef	0.0656985
28	0x3c824340	0.015901208
29	0xbcc7b413	-0.024377858
30	0x3d6efb75	0.058345277
31	0x3d2e295b	0.04251991
32	0xbc2f937d	-0.010716316
33	0xbd1e1865	-0.038597483
34	0xbcb4bc34	-0.022062398
35	0x3d8675ac	0.06565413
36	0xbd6a6c67	-0.057232287
37	0xbc2594c5	-0.01010627
38	0xbd7cc1af	-0.06170815
39	0xbd6ca5ba	-0.057775237
40	0x3d4cc0c2	0.049988516
41	0x3c8dbe45	0.017302642
42	0x3daf6a7e	0.08565234
43	0xbda89c40	-0.08232927
44	0xbd8141ae	-0.063113555
45	0x3cca2fa6	0.024680924
46	0x3cdf1459	0.027231382
47	0x3d9314cc	0.07181701
48	0xbcdb9e20	-0.026808798
49	0x3cb0243e	0.021501657
50	0x3d1d6d80	0.038434505
51	0x3d582af6	0.052775346
52	0x3d99558e	0.074870214
53	0x3cfaf131	0.030632587
54	0xbd129ca3	-0.03579391
55	0x3c252996	0.010080716
56	0x3c0f7a91	0.008757249
57	0x3d5d5e28	0.054044873
58	0xbd21be2c	-0.039488003
59	0xbd238a20	-0.03992665
60	0xbcedbcf9	-0.029020773
61	0x3cf94e6a	0.030432899
62	0x3cea16dc	0.028575353
63	0x3ca32275	0.019913891
64	0x3b3038f3	0.0026889413
65	0x3d911937	0.070848875
66	0xbd4ce68c	-0.050024554
67	0xbd832c00	-0.06404877
68	0x3c691b94	0.014227767
69	0xbda1ee5c	-0.079067916
70	0xbbc7112f	-0.0060750465
71	0xbc924cae	-0.01785883
72	0xbdb9b6cb	-0.09068068
73	0xbd3c4334	-0.045962527
74	0xbb1e6f05	-0.002417506
75	0xbca7704c	-0.02043929
76	0xbda55c09	-0.08074195
77	0xbd56d5a5	-0.05244984
78	0x3dd7fd3d	0.10546348
79	0x3db57421	0.088600405
80	0xbd20df3d	-0.039275397
81	0x3daff1c6	0.085910365
82	0x3b8f27d0	0.0043687597
83	0x3a95f11e	0.0011439656
84	0x3c7864e5	0.015160774
85	0x3d06cf3f	0.03291249
86	0xbcda111b	-0.026619485
87	0xbd55e1eb	-0.052217405
88	0xbccbfb1e	-0.024900015
89	0x3da73b30	0.08165586
90	0xbd88cde3	-0.06679895
91	0xbd979f79	-0.07403464
92	0x3d427ac7	0.04748037
93	0xbd8de437	-0.06928294
94	0x3d1f183f	0.038841482
95	0x3d56a4a0	0.052403092
96	0x3dd57bbc	0.10423991
97	0x3cf076d5	0.029353539
98	0x3d39d53b	0.045369368
99	0xba7e352b	-0.00096972537
100	0x3d384894	0.04499109
101	0x3bfd3bab	0.0077280602
102	0x3d9e3604	0.077251464
103	0xbdaa1610	-0.08304989
104	0x3d31f068	0.04344216
105	0xbc93aa17	-0.018025441
106	0x3d31421f	0.04327595
107	0x3c55ca7b	0.013048763
108	0xbd9fbb69	-0.077994175
109	0x3d0abe95	0.03387316
110	0xbdc93e30	-0.098263144
111	0xbda81e49	-0.082089014
112	0xbb8217a9	-0.0039701057
113	0xbd62e005	-0.055389423
114	0xbda761c4	-0.08172944
115	0xbcf801a5	-0.030274222
116	0xbd232c5c	-0.039837226
117	0x3d24f378	0.040271252
118	0x3dadce76	0.08486645
119	0xbd28b85e	-0.04119145
120	0xbdbad0d2	-0.091218606
121	0x3d408cf5	0.047009427
122	0x3d637283	0.05552913
123	0x3d24ec1e	0.04026424
124	0x3dc100a8	0.09423953
125	0x3c8b30f8	0.016991124
126	0xbd791d31	-0.060818855
127	0x3d35bbcd	0.044368554
128	0xbd98c782	-0.07459928
129	0xbccf6028	-0.025314406
130	0x3d00c74c	0.031440064
131	0xbd0ac5a0	-0.033879876
132	0x3cfa5fc7	0.030563248
133	0xbda3a8b1	-0.0799116
134	0x3d64a0b8	0.055817336
135	0xbc242dd4	-0.010020692
136	0xbcc34b91	-0.023839744
137	0xbd165f69	-0.036712084
138	0xbbd880fc	-0.006607173
139	0x3d6249b6	0.055246077
140	0xbc8f810f	-0.017517595
141	0xbb9469d2	-0.0045292163
142	0xbcd12f08	-0.025535122
143	0x3c276b4c	0.010218453
144	0x3d5ed4c9	0.054402146
145	0xbc44adae	-0.012004299
146	0x3d9e335f	0.07724642
147	0x3d8b1f98	0.067931354
148	0x3dc6fb1a	0.097158626
149	0x3d07ed1c	0.03318511
150	0xbca474d3	-0.020075237
151	0x3cdd2563	0.026995366
152	0x3cf7d690	0.030253679
153	0x3d36c8f5	0.04462524
154	0x3d5962a2	0.05307258
155	0x3d6d8821	0.05799115
156	0xbd9c84d8	-0.076425254
157	0xbd52ad02	-0.051434524
158	0xbc8fe16c	-0.017563544
159	0xbd1b2676	-0.037878476
160	0xbcc33eb6	-0.023833614
161	0xbdd9e974	-0.10640231
162	0x3d295e64	0.041349784
163	0x3d24f3ae	0.040271454
164	0xbd5323d5	-0.051547844
165	0x3db1fc5c	0.08690712
166	0xbd5ce4cb	-0.05392913
167	0xbd1d10a0	-0.038345933
168	0x3c769c5e	0.015051929
169	0x3d9f9158	0.07791394
170	0xbdab9265	-0.08377532
171	0xbd2a3acf	-0.04155999
172	0x3dd00fdc	0.10159275
173	0x3d69ae34	0.0570509
174	0x3d6c1f3b	0.05764697
175	0x3d8f3cc7	0.06994014
176	0x3d728d73	0.059216928
177	0x3d44ccb9	0.0480468
178	0xbcb8fbf3	-0.022581076
179	0x3b1704b9	0.0023043586
180	0xbbf15001	-0.0073642735
181	0x3dc46b7a	0.09590812
182	0xbd740ce8	-0.05958262
183	0xbd9dd98c	-0.077075094
184	0xbc9a5457	-0.018839044
185	0x3da1dded	0.07903657
186	0x3d65a2d9	0.056063507
187	0x3c94d475	0.018167714
188	0xbaf1de00	-0.0018453002
189	0x3dc23a60	0.094837904
190	0xbcc1628c	-0.023606561
191	0x3c4768a6	0.012170946
192	0xbdae796b	-0.085192524
193	0x3d1c45bc	0.03815244
194	0x3dd1568b	0.10221585
195	0xbd458b79	-0.048228715
196	0xbd35b765	-0.04436435
197	0x3c81e618	0.015856788
198	0x3c110ce8	0.008853175
199	0x3d8bc20b	0.0682412
200	0x3da51297	0.08060186
201	0xbd6f6a7e	-0.05845117
202	0x3cb67c19	0.022275971
203	0xbcf66f86	-0.030082475
204	0xbd8807b6	-0.06642096
205	0x3c8ff120	0.017571032
206	0x3cceb174	0.0252311
207	0x3c8da3d2	0.01729003
208	0x3c6a541f	0.014302283
209	0xbc4d3dfe	-0.012526987
210	0x3d716ffb	0.058944684
211	0xbd15dc6d	-0.036587168
212	0xbd56a212	-0.052400656
213	0xbd7a5093	-0.061111998
214	0xbd994d96	-0.074855015
215	0x3d9a2259	0.075260825
216	0xbd41fb9a	-0.047359087
217	0x3d1d2f26	0.038375042
218	0xbd49ece5	-0.049298186
219	0xbc91e6c2	-0.01781023
220	0xbcebb610	-0.028773338
221	0x3db5da19	0.088794895
222	0x3d131a07	0.035913493
223	0xbdc47147	-0.095919184
224	0x3d6c5a37	0.057703223
225	0x3d88d260	0.06680751
226	0xbc9ce486	-0.019151937
227	0x3c3984bf	0.011323153
228	0x3d214908	0.03937629
229	0xbd882df9	-0.066493936
230	0x3db9d6aa	0.09074147
231	0x3d20bcf2	0.039242692
232	0xbd95f7fc	-0.0732269
233	0xbd1e3448	-0.038624078
234	0x3d27175b	0.040793758
235	0x3d6e28c2	0.05814434
236	0x3dce7fd6	0.100829765
237	0x3da9e2e1	0.08295227
238	0x3d445666	0.04793396
239	0x3d0225fc	0.031774506
240	0xbd2a7b49	-0.04162148
241	0x3def8568	0.11695367
242	0xbcaab4c8	-0.020838156
243	0x3d036a5c	0.032083854
244	0xbcc1304b	-0.023582598
245	0xbd215007	-0.03938296
246	0x3d057631	0.03258342
247	0x3c329cb0	0.010901615
248	0xbd17b821	-0.037040833
249	0xbc66e418	-0.014092468
250	0x3d72cb51	0.05927593
251	0xbdad1027	-0.084503464
252	0x3d89e7e9	0.067336865
253	0xb8124786	-3.4875724e-05
254	0xbd240781	-0.04004622
255	0xbc1d44bc	-0.009598907

layers.4.weight f4 [128, 256]
0	0x3d5f1965	0.054467577
1	0x3e88db17	0.26729652
2	0x3d0ead27	0.0348331
3	0xbd20ec1e	-0.03928768
4	0xbbb15fee	-0.005413047
5	0x3d329b22	0.043604977
6	0x3d39da1d	0.045374025
7	0x3d82c9ed	0.063861705
8	0xbd8abb62	-0.06774022
9	0x3d009b93	0.031398367
10	0x3d146860	0.036232352
11	0x3e2d5acd	0.16929169
12	0x3e0df172	0.13861635
13	0xbcbdf956	-0.023190182
14	0x3b89d5cf	0.004206396
15	0x3dae8251	0.0852095
16	0x3e42c614	0.19020873
17	0x3d51d510	0.051228583
18	0xbc2cd009	-0.010547646
19	0xbd12093e	-0.035653345
20	0xbcc6831f	-0.024232445
21	0xbded3ddd	-0.11584065
22	0xbc2a4702	-0.010392906
23	0x3cf5a637	0.029986484
24	0xbd6cfb9f	-0.057857152
25	0x3ce2b702	0.027675156
26	0x3cb926b3	0.022601461
27	0xbe32ce76	-0.17461571
28	0xbe0fdcaf	-0.14049028
29	0x3d380ef7	0.044936147
30	0x3b21dc39	0.0024697913
31	0x3af5ee40	0.0018763021
32	0xbc3c8928	-0.01150731
33	0x3d6f6737	0.058448043
34	0x3db1a204	0.0867348
35	0xbd1e903d	-0.038711775
36	0x3d39afa7	0.04533353
37	0x3d29e3fd	0.041477192
38	0xbd668720	-0.05628121
39	0xbcaa7c38	-0.020811185
40	0xbd237398	-0.03990516
41	0x3d67a9f2	0.056558557
42	0x3d9c0d71	0.07619751
43	0xbda51cbc	-0.08062121
44	0x3d501217	0.0507985
45	0xbd92cd87	-0.071681075
46	0xbdcdd60e	-0.10050593
47	0xbb9a4093	-0.004707405
48	0x3e08ad13	0.13347273
49	0xbd3352f3	-0.04378028
50	0x3b96c4a8	0.00460108
51	0xbd2ddf6a	-0.042449392
52	0xbca6be30	-0.02035436
53	0xbd7ddaaf	-0.06197613
54	0xbd62f1ce	-0.055406384
55	0x3db4bbc2	0.088248745
56	0xbdb9b75a	-0.09068175
57	0xbcba12cd	-0.022714043
58	0xbd631955	-0.05544408
59	0x3cc66fb5	0.024223188
60	0x3dc173d3	0.0944592
61	0x3d1fb9ab	0.038995426
62	0xbdb6b54a	-0.08921297
63	0xbd7740d6	-0.060364567
64	0x3e13f0e9	0.14447369
65	0xbcb41c4e	-0.021986153
66	0x3b3380c8	0.0027389992
67	0xbd342d40	-0.043988466
68	0x3d25d236	0.040483676
69	0xbdf9a661	-0.121899374
70	0x3d46d455	0.04854234
71	0xbdcacbef	-0.099021785
72	0x3c56d4c1	0.013112248
73	0xbcb0fdd5	-0.021605412
74	0x3c49703c	0.012294825
75	0xbd2b175b	-0.04177032
76	0x3e241465	0.16023405
77	0xbd1a4cac	-0.037670776
78	0xbc0cc1f1	-0.008591161
79	0xbc18d939	-0.009329134
80	0xbbb962b6	-0.005657519
81	0x3e23c475	0.15992911
82	0xbca2845c	-0.019838504
83	0x3cad55dd	0.021159107
84	0xbc657dfe	-0.01400709
85	0xbd145d46	-0.036221765
86	0x3d067013	0.032821726
87	0x3d261d66	0.04055538
88	0xbc92d529	-0.017923908
89	0xbc9244d0	-0.017855078
90	0xbde8c2e8	-0.113653004
91	0xbd1413e7	-0.036151793
92	0x3d6b50c4	0.05745007
93	0xbc15ac90	-0.00913538
94	0xbd1e318f	-0.03862148
95	0xbc8a9c70	-0.016920298
96	0xbd304af2	-0.043040223
97	0x3d001183	0.0312667
98	0xbd45db7f	-0.04830503
99	0x3d056eb8	0.032576293
100	0x3cc9fcda	0.024656702
101	0xb86ef12c	-5.696823e-05
102	0x3c5baea8	0.0134083405
103	0xbdd813ee	-0.10550676
104	0x3bc1985d	0.0059080557
105	0xbcbac6dd	-0.022799904
106	0xbd1d2068	-0.038360983
107	0x39cdf487	0.00039282834
108	0xbc73e21e	-0.0148854535
109	0xbca19bb7	-0.019727571
110	0xbe518217	-0.20459782
111	0xbd8858b1	-0.066575415
112	0x3bd65c7b	0.0065417862
113	0x3d2a6601	0.041601185
114	0xbdf94106	-0.12170605
115	0x3cb542d5	0.022126595
116	0x3dc1ceb6	0.09463255
117	0xbb48804f	-0.0030594056
118	0x3b1cc17c	0.0023919037
119	0x3c234154	0.009964306
120	0xbd115473	-0.035480928
121	0xbcc866ef	-0.024463145
122	0x3bf3610c	0.0074273404
123	0x3d731eef	0.059355672
124	0x3d5f6818	0.05454263
125	0x3dcc209a	0.09967156
126	0xbd9d8a8e	-0.07692443
127	0xbd07683c	-0.03305839
128	0xbd839ec3	-0.06426766
129	0xbc2d2fe2	-0.010570498
130	0xbd7dcb56	-0.061961494
131	0xbc5fa210	-0.013649479
132	0xbdc7ec8f	-0.09761917
133	0x3d0c8925	0.03431048
134	0xbd2f8acf	-0.042856988
135	0xbdee797b	-0.11644264
136	0x3be5f8c5	0.007018181
137	0x3c82a255	0.015946547
138	0xbcd3129d	-0.025765711
139	0x3d193f60	0.037413955
140	0xbab0d013	-0.0013489745
141	0xbd0d2199	-0.03445587
142	0xbd121863	-0.03566779
143	0x3c5d40a1	0.013504178
144	0x3d8c792d	0.0685905
145	0x3ddcde00	0.10784531
146	0xbc04eac7	-0.008112616
147	0xbe143746	-0.1447421
148	0x3c957e8d	0.01824882
149	0x3d2e500a	0.0425568
150	0x3bf723e2	0.0075421194
151	0x3d9e5b37	0.077322416
152	0xbb2739ad	-0.0025516555
153	0x3c3488c1	0.011018933
154	0xbdd55fcb	-0.10418662
155	0x3de727c5	0.11286882
156	0xbd68d197	-0.056840505
157	0x3d246070	0.040131032
158	0x3d20c391	0.039249007
159	0x3b2c8619	0.0026325046
160	0xbd9a6308	-0.0753842
161	0xbd43a97f	-0.047769066
162	0xbd4cade3	-0.04997052
163	0x3cad32b8	0.021142349
164	0xbddfb6d5	-0.10923544
165	0x3d965ea7	0.07342272
166	0xbdb621f9	-0.088931985
167	0xbd71631f	-0.05893242
168	0xbcce142f	-0.025156109
169	0xbd721f2a	-0.05911175
170	0xba90a145	-0.001103439
171	0x3d8c0638	0.06837124
172	0x3e216478	0.15760982
173	0x3cd626c0	0.026141524
174	0x3ccbaf0b	0.02486374
175	0x3da1b343	0.078955196
176	0x3c3c4cfe	0.011492966
177	0x3c2d0ee0	0.0105626285
178	0xbb67c0db	-0.0035362754
179	0xbd957d41	-0.07299281
180	0x3d0bcdcb	0.034131806
181	0xbc8b38ee	-0.01699492
182	0xbdf554cb	-0.119790636
183	0xbd7cb081	-0.061691765
184	0x3ce3e68c	0.027819894
185	0x3d89bc05	0.06725315
186	0xbe06ac6d	-0.13151713
187	0x3d80eeab	0.06295522
188	0xbddbddd6	-0.10735671
189	0x3c770d47	0.015078849
190	0x3dd139fd	0.102161385
191	0xbc2a86b5	-0.010408093
192	0x3c9e3196	0.019310754
193	0xbd22b9a8	-0.039727837
194	0xbc5dac6c	-0.013529878
195	0xbcfd587c	-0.030925982
196	0xbddbda2f	-0.107349746
197	0x3d341c48	0.043972284
198	0x3e1a609c	0.15075916
199	0x3d5eba18	0.05437669
200	0x3c877d31	0.016539188
201	0xbdc3eedc	-0.09567043
202	0xbd66f9fd	-0.05639075
203	0xbc885ac3	-0.016644841
204	0x3d293cbc	0.041317686
205	0xbc8ce4b3	-0.017198896
206	0xbe163713	-0.14669447
207	0x3db601dd	0.08887074
208	0xbd002f80	-0.0312953
209	0xbce640f9	-0.028107153
210	0x3db2a14c	0.08722171
211	0x3bafea68	0.0053685196
212	0xbc757d5c	-0.014983501
213	0x3cb6662f	0.022265522
214	0xbdfa967e	-0.12235735
215	0xbbe4834c	-0.0069736596
216	0xbd65af80	-0.056075573
217	0x3e01d1fa	0.12677756
218	0x3d0aa5a2	0.033849366
219	0xbd70bac2	-0.058771856
220	0xbcccf815	-0.025020638
221	0xbd568958	-0.052377075
222	0x3d6d40f0	0.057923257
223	0x3d6f78c6	0.058464788
224	0xbcfabcb0	-0.030607551
225	0xbbda21c7	-0.0066568586
226	0x3d131ba4	0.035915032
227	0xbbf39f37	-0.0074347514
228	0xbda35503	-0.07975199
229	0x3d4fd607	0.05074122
230	0xbcf1b36b	-0.029504498
231	0xbc20ec89	-0.009822019
232	0x3c9560ea	0.018234689
233	0xbe209941	-0.15683462
234	0xbc3d6858	-0.011560522
235	0x3e0dbd44	0.1384173
236	0x3d8cba71	0.068714984
237	0xbdb24f48	-0.08706528
238	0xbd6957f9	-0.056968663
239	0x3d12aded	0.0358104
240	0xbd572da6	-0.052533768
241	0xbdbbdbf4	-0.09172812
242	0xbd211f77	-0.039336648
243	0xbd8accd8	-0.06777352
244	0x3c2a5528	0.010396279
245	0xbd2e2e25	-0.042524476
246	0x3cfa642a	0.03056534
247	0xbe32130b	-0.17390077
248	0x3c477770	0.012174472
249	0xbd927ce3	-0.071527265
250	0xbba81abd	-0.0051301406
251	0xbd89f0fc	-0.06735417
252	0xbd55066c	-0.052008078
253	0xbd196cd8	-0.037457317
254	0x3d644c99	0.05573711
255	0x3d198c3a	0.037487246

layers.4.bias f4 [128]
0	0x3d5d39a0	0.054010034
1	0x3d3e3864	0.046440497
2	0x3cf94586	0.03042866
3	0xbda1cd87	-0.07900529
4	0xbd3ebeac	-0.046568558
5	0xbd5c9f5d	-0.05386292
6	0xbd0155fe	-0.03157615
7	0x3c74df51	0.014945821
8	0x3cf57766	0.02996416
9	0xbd971aee	-0.07378183
10	0xbd1fc2ad	-0.039004017
11	0x3d6d66c0	0.05795932
12	0x3d87449c	0.06604883
13	0x3cf46a6a	0.029835898
14	0xbdae3aff	-0.08507346
15	0xbc80e422	-0.015733782
16	0x3d3e26ce	0.046423726
17	0xbd2b73f6	-0.041858636
18	0x3c7d7714	0.015470285
19	0xbd6250a3	-0.055252682
20	0x3b3b0ee3	0.0028542809
21	0x3ccae420	0.024766982
22	0xbd78a3f4	-0.060703233
23	0x3c078305	0.008270984
24	0x3c789969	0.015173295
25	0x3d36797d	0.044549454
26	0x3c2ec623	0.010667357
27	0x3b26b7f1	0.0025439227
28	0xbc052d8f	-0.008128538
29	0xbc46c8e7	-0.01213286
30	0x3cc9572e	0.024577703
31	0x3d63fc43	0.055660497
32	0xbd0d9c89	-0.03457311
33	0x3d9fedf6	0.07809059
34	0x3c977ca7	0.018492056
35	0xbcdcd6a9	-0.026957827
36	0xbd9a1fb4	-0.07525578
37	0xbd855e12	-0.06512083
38	0xbc79f194	-0.015255351
39	0xbd895c63	-0.067070745
40	0x3c658a45	0.014010017
41	0xbd857b56	-0.06517665
42	0xbd022a04	-0.03177835
43	0x3cc5b7b2	0.024135444
44	0x3c5a26d9	0.013314926
45	0xbab98f29	-0.0014157045
46	0xbd2dfaa0	-0.042475343
47	0xbc125ade	-0.008932797
48	0x3d102838	0.035194606
49	0x3cb3acb5	0.021932939
50	0xbced71fd	-0.028985018
51	0x3d9cc691	0.07655061
52	0x3b159965	0.0022827026
53	0xbd0298a1	-0.03188384
54	0xb9e26d86	-0.0004318768
55	0xbd3913d6	-0.045184933
56	0xbcc8bb48	-0.024503365
57	0x3c85482d	0.016269768
58	0xbd05c94e	-0.032662682
59	0xbd0ed0f7	-0.034867253
60	0xbd956a6a	-0.072956875
61	0x3d3fb262	0.04680098
62	0x3c752901	0.014963389
63	0xbde56b7e	-0.11202143
64	0xbd3d4d1a	-0.046216108
65	0xbcfa1519	-0.030527638
66	0xbce78175	-0.028259972
67	0x3d22814b	0.039674085
68	0xbc4a6c10	-0.012354866
69	0xbcabb150	-0.020958573
70	0xbd94911b	-0.07254239
71	0x3b9ebce3	0.0048442944
72	0xbcefdcc9	-0.029280083
73	0x3da5efe5	0.08102397
74	0xbd4ec502	-0.05048085
75	0xbaade1b3	-0.0013266116
76	0xbd14620a	-0.03622631
77	0xbd079c24	-0.03310789
78	0x3c9f1a89	0.019421833
79	0xba71e28d	-0.0009227179
80	0xbd181337	-0.0371277
81	0x3ba474fa	0.0050188275
82	0x3d034afb	0.03205393
83	0x3c926386	0.017869722
84	0xbc8325ad	-0.016009176
85	0xbd8919b0	-0.066943526
86	0xbd7b58cf	-0.06136399
87	0x3cc74e62	0.024329368
88	0xbbb2b2ce	-0.005453444
89	0x3d621134	0.055192187
90	0x3d8e5223	0.0694926
91	0xbc09bdc1	-0.008407057
92	0x3d9e8b5b	0.07741424
93	0x3c8f1a6a	0.01746865
94	0xbca37e45	-0.019957671
95	0xbcc494df	-0.023996769
96	0x3b88d39c	0.0041756164
97	0xbbceb89e	-0.006308629
98	0xbc90830e	-0.017640617
99	0x3c90d23f	0.017678378
100	0x3d8e5500	0.06949806
101	0xbd7b53e5	-0.061359305
102	0xbd2385c8	-0.039922506
103	0xbd1c0ad0	-0.03809625
104	0x3d4fa3eb	0.050693434
105	0x3d2440f0	0.04010099
106	0xbce16a90	-0.027516633
107	0x3d26ff93	0.04077108
108	0x3ca70f64	0.020393081
109	0x3dca2c4d	0.09871731
110	0x3cf689ed	0.030095065
111	0x3d3425dd	0.04398142
112	0xbcd8fee0	-0.026488721
113	0xbd53b8f4	-0.051690057
114	0xbcd55d6a	-0.02604552
115	0xbdd77fe4	-0.1052244
116	0x3c0cc317	0.008591435
117	0x3c4fe372	0.0126885045
118	0xbcad612e	-0.021164503
119	0x3c42adbd	0.011882243
120	0x3d074004	0.033020034
121	0x3d9d94de	0.0769441
122	0xbd55d6a4	-0.05220665
123	0x3c5b0ce9	0.013369777
124	0xbb74e522	-0.003736802
125	0x3ccda96a	0.025105197
126	0x3c3c61b1	0.011497901
127	0x3da72353	0.081610344

layers.6.weight f4 [16, 128]
0	0xbd385d03	-0.045010578
1	0x3dd2e236	0.102970526
2	0xbd0d22bc	-0.034456953
3	0xbcefa680	-0.029254198
4	0x3c817bf1	0.01580617
5	0xbdfdd8f7	-0.123948984
6	0x3cac6ffe	0.021049496
7	0xbd115792	-0.035483904
8	0xbd4afccb	-0.04955749
9	0x3dc9ce32	0.09853782
10	0xbd0d3dff	-0.034482952
11	0xbdb01bff	-0.0859909
12	0xbd4a5801	-0.049400333
13	0x39439682	0.00018652718
14	0x3cfd5d8a	0.030928392
15	0xbd510af4	-0.051035836
16	0x3cfcbe22	0.030852381
17	0xbd0c8d1f	-0.03431427
18	0xbd499382	-0.04921294
19	0xbd0ed181	-0.034867767
20	0x3d091653	0.033468556
21	0xbd1cbfc2	-0.038268812
22	0xbd8fa4ce	-0.07013856
23	0xbd9d531d	-0.07681868
24	0xbc5e9fe2	-0.013587924
25	0xbd76b275	-0.060228784
26	0x3cdd840a	0.0270405
27	0x3c5d72c3	0.013516131
28	0x3ce7cf69	0.028297143
29	0x3de86755	0.11347834
30	0xbd23a64f	-0.039953526
31	0x3cf448ed	0.02981993
32	0xbd2ef184	-0.042710796
33	0x3d410594	0.04712446
34	0x3cc52c5c	0.024069004
35	0x3d6857a6	0.056724213
36	0x3cfd18f3	0.030895686
37	0xbd86b51b	-0.06577512
38	0xbd38408b	-0.044983428
39	0xbd19a5ac	-0.037511513
40	0xbb847569	-0.0040423167
41	0x3cffdb8c	0.031232618
42	0xbddbf475	-0.10739986
43	0x3d9328ca	0.07185514
44	0xbccc9f44	-0.024978288
45	0x3d771f99	0.06033287
46	0xbdf935bb	-0.121684514
47	0x3d84589a	0.06462212
48	0xbcfff1ea	-0.031243283
49	0xbceb0a3d	-0.028691405
50	0xbd2aa1e4	-0.041658297
51	0x3de0160a	0.109417036
52	0xbd175fb8	-0.03695652
53	0xbbf13029	-0.0073604775
54	0xbcc7d1ca	-0.024392027
55	0x3d7cacda	0.06168828
56	0x3cd39515	0.025827924
57	0x3ce8ed5a	0.02843349
58	0xbd6ea3a1	-0.058261517
59	0x3e030c3a	0.12797633
60	0xbdb0f34b	-0.086401545
61	0x3d71c50f	0.05902582
62	0xbdad85c1	-0.08472777
63	0x3ab3c2bd	0.0013714653
64	0xbd657554	-0.056020096
65	0x3db0eb3b	0.08638617
66	0xbdbe02d8	-0.09277886
67	0x3d44b839	0.04802725
68	0x3d43026a	0.047609724
69	0x3cc843cf	0.024446396
70	0xbd7ceaa8	-0.061747223
71	0x3d338496	0.043827616
72	0x3d97ad27	0.07406073
73	0xbb3c432d	-0.0028726563
74	0x3b85fc72	0.0040889317
75	0x3d1f4f43	0.03889395
76	0x3dfd3f56	0.12365596
77	0x3db8b1c3	0.0901828
78	0xbda95a9d	-0.08269236
79	0xbb991881	-0.0046721105
80	0xbdae5c21	-0.08513666
81	0xbd19d212	-0.037553854
82	0xbd2877a3	-0.04112972
83	0x3ddc3325	0.107519425
84	0xbd00e452	-0.031467743
85	0x3b89a5be	0.004200666
86	0xbd112c17	-0.035442438
87	0xbd00d744	-0.031455293
88	0xbd6274a8	-0.055287033
89	0x3da7a547	0.08185821
90	0xbc648928	-0.013948716
91	0xbd2a4435	-0.041568954
92	0x3c9e8679	0.019351231
93	0xbd2fc657	-0.04291376
94	0xbdc85e4e	-0.09783612
95	0xbcb890a6	-0.022529911
96	0xbdda02e3	-0.10645082
97	0x3d9497a1	0.072554834
98	0xbc1d418f	-0.00959815
99	0x3cf9612a	0.03044184
100	0x3db240fd	0.08703802
101	0x3db6ea51	0.08931411
102	0x3ca76181	0.020432236
103	0x3d6d3387	0.05791047
104	0x3c598b62	0.01327786
105	0xbd66373e	-0.056205027
106	0xbbe3aaba	-0.0069478424
107	0x3d3e4338	0.046450824
108	0x3d3b51b8	0.04573223
109	0x3d38365f	0.044973727
110	0x3c80b1ab	0.015709719
111	0x3d0adb79	0.03390071
112	0xbd7af9b3	-0.061273288
113	0xbcfccfb0	-0.030860752
114	0xbd89ae54	-0.067227036
115	0x3d0e91ba	0.034806944
116	0xbd6118db	-0.054955345
117	0x3d1d82c9	0.038454805
118	0x3e2ebb2c	0.17063588
119	0xbc4a7e9e	-0.012359289
120	0x3ca621e7	0.020279838
121	0xbcfeb96b	-0.031094274
122	0xbc3cff6d	-0.011535508
123	0xbd801a0e	-0.062549695
124	0xbda6de77	-0.081479006
125	0x3d9e9bde	0.07744573
126	0x3d57c237	0.052675452
127	0xbd44899f	-0.04798281
128	0xbdac6dcc	-0.084193796
129	0xbdabd952	-0.0839106
130	0x3c6e5d80	0.014548659
131	0xbdea0130	-0.11426008
132	0x3d4c2a7c	0.049845204
133	0x3daa816d	0.08325467
134	0xbd69f046	-0.05711391
135	0x3d9230ec	0.07138237
136	0xbbafd70e	-0.0053662127
137	0xbc060b20	-0.008181363
138	0xbde58b1c	-0.11208174
139	0x3d981344	0.074255496
140	0x3d9d0e09	0.076686926
141	0xbd8e04a7	-0.06934481
142	0xbd0700d6	-0.03295978
143	0xbe07c79b	-0.13259737
144	0xbcbedac9	-0.023297684
145	0xbde97bf8	-0.11400598
146	0xbc14d682	-0.009084346
147	0xbd1ce65a	-0.038305618
148	0x3d8fa611	0.070140965
149	0xbd1c2fa8	-0.038131386
150	0x3dc0a054	0.0940558
151	0x3d412e63	0.04716338
152	0x3d8d930c	0.069128126
153	0xbd47b069	-0.048752222
154	0xbda11794	-0.07865825
155	0x3dc97647	0.09837013
156	0x3cbd093c	0.023075692
157	0x3d10db7b	0.035365563
158	0xbd332ae0	-0.04374206
159	0xbb475034	-0.0030412795
160	0x3dae3be7	0.08507519
161	0x3d1e36a5	0.03862633
162	0x3d07efa2	0.033187516
163	0xbd04f18b	-0.032456916
164	0x3deee2f0	0.11664379
165	0xbdfa1d24	-0.122125894
166	0xbddd42d5	-0.10803763
167	0x3cb97c67	0.022642327
168	0x3d481ed0	0.04885751
169	0x3d946dc5	0.072474994
170	0xbd86e72e	-0.06587063
171	0xbc7b2d4a	-0.015330622
172	0x3d8c58db	0.06852885
173	0xbd95aab1	-0.073079474
174	0xbcd1056e	-0.025515284
175	0xbd58300b	-0.052780192
176	0xbd4895ae	-0.04897087
177	0x3d0b7613	0.03404815
178	0x3dea006d	0.114258625
179	0xbc4e1a3f	-0.0125795
180	0xbcb03f8d	-0.021514678
181	0xbd45d7a3	-0.04830135
182	0xba750c77	-0.00093478657
183	0xbda0b7f2	-0.07847585
184	0xbb83d8bd	-0.00402364
185	0xbbae7e2d	-0.0053251
186	0xbdc02d42	-0.09383632
187	0xbe02f177	-0.12787424
188	0x3c9c3d77	0.019072277
189	0xbdb96ea2	-0.09054305
190	0xbd82462c	-0.063610405
191	0x3c939c6a	0.01801892
192	0x3d363399	0.0444828
193	0x3ca256b2	0.01981673
194	0x3cafed1f	0.021475373
195	0x3df0dcce	0.11760865
196	0x3da61675	0.08109752
197	0x3d2fe915	0.042946894
198	0x3dce54e6	0.10074787
199	0xbb851fde	-0.0040626368
200	0xbcb69f95	-0.022292892
201	0x3ddad794	0.106856495
202	0xbd971e22	-0.07378794
203	0x3d9e7ea2	0.07738997
204	0x3d9a560d	0.07535944
205	0x3d5681f1	0.052370016
206	0xbcdd81c3	-0.027039414
207	0xbd8d90ac	-0.069123596
208	0xbdc7d75c	-0.097578734
209	0xbdae986b	-0.08525165
210	0xbdd951a7	-0.10611277
211	0x3d8a22e9	0.0674494
212	0xba641c1e	-0.00087016996
213	0x3ccf663f	0.02531731
214	0x3ccde75e	0.025134739
215	0x3db1c53b	0.08680197
216	0xbc1c1a02	-0.009527685
217	0x3ce6a1c0	0.0281533
218	0x3d57ca84	0.05268337
219	0xbd28e16e	-0.04123061
220	0x3d9cdced	0.07659326
221	0x3dafb26e	0.08578955
222	0xbdcf253f	-0.10114526
223	0xbd98b82e	-0.074570045
224	0x3cee12e2	0.029061738
225	0xbddd6adc	-0.108113974
226	0x3cc35af5	0.023847083
227	0xbd0fddda	-0.035123684
228	0xbd1741a6	-0.03692784
229	0xbd11e1fc	-0.035615906
230	0xbda732e8	-0.081640065
231	0x3d92d342	0.071692005
232	0x3d6bccc3	0.057568323
233	0xbcb2386f	-0.021755425
234	0x3d12dbc1	0.035854105
235	0x3dbc740c	0.09201822
236	0xbdc32e4c	-0.09530315
237	0x3d801cc3	0.06255486
238	0xbca5b18b	-0.02022626
239	0xbdaeb634	-0.08530846
240	0x3d67c3bb	0.056583147
241	0xbdbc5677	-0.09196179
242	0xbd72e48c	-0.05929999
243	0xbce9438c	-0.028474592
244	0xbd5481a8	-0.051881462
245	0x3d08aa76	0.03336569
246	0x3d51576e	0.05110877
247	0xbd360caa	-0.04444567
248	0x3c5ef2b7	0.013607672
249	0xbdaa6d34	-0.0832161
250	0x3d26126f	0.040544923
251	0x3d4284d9	0.047489975
252	0xbc220899	-0.009889745
253	0x3c8ee0ca	0.017441172
254	0xbc85475d	-0.01626938
255	0x3d46dd0e	0.048550658

layers.6.bias f4 [16]
0	0x3da14a5f	0.07875513
1	0xbb9ad0d4	-0.0047246013
2	0x3ddbe404	0.1073685
3	0xbd2cf60d	-0.04222684
4	0x3c6a091a	0.014284397
5	0xbd257faf	-0.04040497
6	0x3c96748d	0.018366123
7	0x3da32018	0.07965106
8	0x3de5ff8f	0.112303846
9	0x3cc19a26	0.023633074
10	0xbc792e08	-0.015208729
11	0x3d921fc7	0.07134967
12	0xbd37e82e	-0.04489916
13	0x3c932dbb	0.017966142
14	0x3d66daee	0.05636113
15	0x3d9281fb	0.07153698
