DRL/bocchi/result/double dqn_model.pth (torch, 281999 bytes, 8 tensors)

layers.0.weight f4 [128, 24]
00000000: a01b 823e 354d 363c 2d7c e53e b378 013f
00000010: 50a7 37be 160c 2dbf 689b 94bf 307f b23e
00000020: 9a3c a4bc 5216 c63e 0aa4 8e3d 6853 593e
00000030: 14b7 6bbe 224d e63d a424 4fbe 77e0 0a3f
00000040: e68c d2be 8723 3bbf f829 033f ab08 023e
00000050: 5c99 84bd 196c 41be e282 2cbd d905 633e
00000060: 9d5f 8ebe beb8 d03f 83a6 133e fb7d 6abd
00000070: 30ba e5b9 d959 3d3e ea34 89bd bf93 7abe
00000080: f380 133e 454c 49be f1e2 92be a6fb 65be
00000090: dc7e d33e 33b2 fe3e fa5c 65be 4130 993e
000000a0: 74ab 62be 8eca 1bbe 2986 aa39 486b 263e
000000b0: 4e13 92be bf49 7c3e 95f5 c73e 3324 a23e
000000c0: b90d 5dbe 5aae 1140 baed ff3d 3e4b 02be
000000d0: c935 8dbd 42ff 103f 046b bbbe dddf 49be
000000e0: 07aa fd3d 67c3 42be 05c5 aabd 731e 83bf
000000f0: 04d3 663e 239d ed3e 1eaf 7e3e ebdd 82be
00000100: df9b 1cbf 3f5a abbe b6e3 61bd 661f 7f3e
00000110: 40b7 b3be f926 81be 56bf 59bd e384 943e
00000120: d1a4 cb3d 3c37 2e40 ead3 a83d 34b5 4c3e
00000130: c73d 2cbf 3878 16be 1a85 fcbc 3bf1 05bc
00000140: 71c2 d2be 74de 24bf 40ef d8be 3221 5e3e
00000150: 20b6 1a3e 0c30 863d 362d 98be 91b8 c8bd
00000160: 5021 003e fd20 823e 58eb db3b 2551 483e
00000170: fc03 ff3e 1bd5 e13e d6b7 08bd 60f3 0bbe
00000180: 331c c03e 24c8 313f 377a 873d f759 1f3d
00000190: a321 30bf 4cd7 d13e 48c9 0e3e 5f4a 91be
000001a0: 9947 6d3e 6e07 803d 639c 0ebd 979f 55c0
000001b0: 98e3 413d b56e 073f 3187 9cbe 51eb 993d
000001c0: 0ccf 31be f119 e2be af47 febe e733 98be
000001d0: c659 8abd a8b1 9f3c d088 023c 6130 a73e
000001e0: 9637 dcbe 6c6f 0ec0 156d 14be 00e1 02bd
000001f0: 79f5 203f 03d0 48bf dbcc d33c e68b 20be
00000200: ae77 2d3e 8b15 a83e 9845 36be 598f 29be
00000210: 5343 623e 26dd 4abe 67b7 7e3e 637d ed3e
00000220: 7780 c03e f69e 6bbe 205d aebc 491c be3e
00000230: 21ae c0bd d770 d6bb f7d7 a13d 525e 0c3e
00000240: e23e 993e ff31 acbe 4e0c 00bf 15ab d8be
00000250: fc58 cb3e 83a3 c53e 827b f9be 787c 42bd
00000260: 35fd 2c3f bb81 9fbd 1d9d 2bbf c581 8b3d
00000270: 172d d0bd fa2f 803c b34f 31be 538c 56be
00000280: 2a44 00bf 042b 3a3c 4cf9 c13d 78ac a2be
00000290: 265b cbbe 480b 5c3e 027f 983e f029 d8be
000002a0: 176f 0d3f 3f62 583d b997 af3e eea0 a63e
000002b0: 84d9 2ebf 44a0 0bbf 6675 acbc 123a 373e
000002c0: ea09 b03d d298 07bd 84f7 2bbf 0e60 42bf
000002d0: 22bb bb3e cc8c d0be e144 1dbf a634 6c3e
000002e0: fd57 06bf e332 5ebf 5300 8fbe 507c f7be
000002f0: be9b b1be 6361 03be bf7c ab3e 272c 8c3e
00000300: ceb6 9c3e 2d72 4ebc 359d 23be 92e6 0dbe
00000310: 1079 0ebe e116 9b3e 02bf 603f e245 12bf
00000320: c99e 5d3e 4f10 5dbe 18c0 fe3d 906c 21bf
00000330: 09e8 253d 62e4 8a3d 35b4 56be a520 0dbe
00000340: a80f 70be d2e1 bc3e d6ea 98bd 3b93 123f
00000350: ae3b 77bd 4ffa 2a3e e740 823e 74cf 683e
00000360: 0979 fbbe 3b45 0e3e 6fb9 19be 85fd 6d3e
00000370: 925a 513e bc66 a5be 01ad 933d 59b5 16bf
00000380: fbca a83e 7ebf dd3d 97ce aebf c7b4 f73e
00000390: 94d7 453f f1eb 6abd 8026 03bf b526 13bc
000003a0: 434b 44be a80c 723d 2c99 c1bd b08b ddbc
000003b0: 9ec9 16bd 0139 37bd f8a5 d63e 6dce 3b3e
000003c0: 5983 2a3e 66a6 d73f efab 553e 06c9 393e
000003d0: dc9c 9ebf f404 173e ce42 b33e 853e 253d
000003e0: 986c 263f 8f5c 24bd 78dc 493e 187d b9be
000003f0: a1d8 4cbe f363 3f3e bc70 b53e 2982 9abe
0.254117 0.011126806 0.448213 0.505748 -0.17934918 -0.67596567 -1.1609926 0.3486266
-0.020048428 0.38688904 0.06964882 0.21223223 -0.23019058 0.11245181 -0.20228821 0.54248756
-0.41123122 -0.73101085 0.51235914 0.12698619 -0.064745635 -0.18888892 -0.042117007 0.221702
-0.27807322 1.6306379 0.14418988 -0.05724905 -0.00043817004 0.18491305 -0.06699546 -0.24470423
0.14404659 -0.19658001 -0.28688768 -0.22459278 0.41307724 0.4974533 -0.22398749 0.29919627
-0.22135717 -0.15213987 0.00032524884 0.16251862 -0.28530353 0.24637507 0.39054552 0.31668243
-0.21587266 2.2762666 0.124965146 -0.12724015 -0.06895024 0.5663949 -0.36605084 -0.19714303
0.12385946 -0.19019853 -0.0833836 -1.0243667 0.22541434 0.46408948 0.2487149 -0.25559935
-0.6117534 -0.3346729 -0.055148803 0.24914321 -0.35100746 -0.25225046 -0.053160988 0.29007635
0.099435456 2.7221212 0.082435444 0.19990999 -0.67281765 -0.14694297 -0.030825187 -0.00817519
-0.41163972 -0.64401937 -0.42370033 0.2169235 0.15108538 0.06552133 -0.29721993 -0.09800828
0.12512708 0.25415793 0.006711405 0.19562204 0.49807727 0.441079 -0.033378445 -0.13667059
0.37521514 0.69446015 0.066151075 0.038904157 -0.68801326 0.4098457 0.1394397 -0.28377053
0.23171844 0.06251417 -0.03481711 -3.3378656 0.04733619 0.529033 -0.30571893 0.07515586
-0.17364138 -0.44160417 -0.49664065 -0.29727098 -0.06755404 0.019493893 0.007967189 0.32654098
-0.4301116 -2.2255507 -0.14494736 -0.031952858 0.6287456 -0.784424 0.025854519 -0.15678367
0.16940185 0.32828936 -0.17799985 -0.16558589 0.22095995 -0.19810924 0.2487465 0.46384725
0.3759801 -0.23009858 -0.02128464 0.37130955 -0.094082125 -0.0065442133 0.0790252 0.13707855
0.29930788 -0.33631894 -0.50018775 -0.42318025 0.39716327 0.38601312 -0.4872704 -0.047481984
0.67573863 -0.07788416 -0.6703661 0.06811861 -0.1016485 0.015647877 -0.17315559 -0.20951967
-0.5010401 0.011362795 0.09471378 -0.31772208 -0.39717978 0.21488678 0.297844 -0.42219496
0.55247635 0.05282807 0.34295443 0.32544655 -0.6830065 -0.5454142 -0.021052074 0.17893246
0.08595641 -0.033104725 -0.67174554 -0.7592782 0.36666209 -0.4073242 -0.61433226 0.23066959
-0.5247801 -0.86796397 -0.27929935 -0.4833703 -0.34689134 -0.12830119 0.3349361 0.27377436
0.3060822 -0.012600464 -0.15977938 -0.13857487 -0.13913369 0.30290893 0.87791455 -0.5713788
0.21642603 -0.21588252 0.12438983 -0.6305628 0.04050449 0.06781842 -0.20967181 -0.13781984
-0.23443472 0.36891037 -0.074666664 0.57255906 -0.06035965 0.16697048 0.25440142 0.22735387
-0.4911578 0.13893597 -0.15012144 0.23241241 0.20444706 -0.32304943 0.07210732 -0.58870465
0.32967362 0.1082754 -1.3656796 0.4838011 0.7728207 -0.057353918 -0.5123062 -0.008981396
-0.19169335 0.0590941 -0.09453043 -0.027044147 -0.03681337 -0.044732098 0.419235 0.18340464
0.16651668 1.6847656 0.20866369 0.1814309 -1.239162 0.14747983 0.35011905 0.040342826
0.6500945 -0.040127333 0.19713008 -0.3622825 -0.20004512 0.18690471 0.35437572 -0.3017743

layers.0.bias f4 [128]
00000000: 2960 76be b070 8cbe 9a4f 4fbe 4fea 8ebe
00000010: 5c24 7cbd c11a d63d c27d f73d f481 4d3e
00000020: d0ca 64bd 854a 78bb 8ddf cabd 3d66 0ebe
00000030: 8d05 66be 4377 003e 853b 1d3e b077 963e
00000040: 0f62 673e 0d5e 143e eab7 683e e1e5 27be
00000050: dc70 bd3d ff64 90be 791a 4c3c cc38 a83d
00000060: 4bec ba3d d0b6 77be be8c b7bd 26c4 513e
00000070: 840b 8c3e 9539 d13c 4cff 4fbe 50c7 d9be
00000080: 5188 a73d c1fe 3dbd c8d1 863d 32ef 8b3e
00000090: a329 cebe 20b4 f73d 2b86 afbc e0a1 2e3e
000000a0: 25f5 18be 0caa cbbd 8df8 133e b537 b9be
000000b0: 33f2 613e 7f9e b43e 8ec2 273d 32c5 7c3e
000000c0: 5714 2ebd 9f22 b03e 8c1b bdbe 78ac 843c
000000d0: 21e4 66bd 9b22 c2bd dd45 38bd 0356 cebe
000000e0: 8f31 94bc 894e 24bd 180c 1d3e 70f4 87be
000000f0: d625 c73e 6b3a debd 048b 933d 5061 553e
00000100: 7e07 093f a032 383e 4638 67be bc31 15be
00000110: d3da 91bd 085f bbbb fbf8 01bf 1686 90bd
00000120: 15ca 8d3e a0ef 2abe 103a a4bd 21d1 21bb
00000130: fbf8 a9bd 812c 28be cd28 59be e670 203e
00000140: 9201 8f3c bafc 033e dcf4 7f3e bb1a c03c
00000150: 727a fc3b bbee 08bd be28 5cbd 8acf 2d3e
00000160: 8b5a 6c3e 0b25 2dbe dd44 0dbc 1141 98be
00000170: 429d 283c 0e25 623d ca66 23bd 4b00 03bd
00000180: 3437 f9bd 78af 833e 07ef a93e 4311 7bbe
00000190: ba5d 033e 9fd7 15bd bfe8 c5bc cf92 e1bc
000001a0: 14de 483e a820 d3be 15ee 7b3d 52fd 7b3d
000001b0: 5fae f63d 84cf 47be 5798 763b d471 dabd
000001c0: df35 0b3d 6ada b1be 5605 7a3d 8adc 2c3e
000001d0: de69 243c 2b97 3f3d 0cf8 cb3e c1fa bd3d
000001e0: 3c29 2b3d 10ed 723d 94af e73d ffb1 6bbe
000001f0: 5b3d 96bd c9a4 9c3e e66d a33d b871 8fbe
-0.2406012 -0.27429724 -0.2024521 -0.27913138 -0.061558113 0.10454322 0.12084533 0.20069104
-0.05585748 -0.0037886214 -0.0990592 -0.13906188 -0.22463055 0.12545495 0.15354736 0.2938819
0.22596 0.14489003 0.22726408 -0.16396286 0.09250042 -0.28202054 0.012457483 0.08213958
0.091271006 -0.24190831 -0.08962391 0.20484981 0.27352536 0.025540153 -0.20312232 -0.42534876
0.08180297 -0.04638553 0.06582981 0.2733093 -0.4026614 0.12094903 -0.021426281 0.17053938
-0.14937265 -0.09944543 0.14450283 -0.36175314 0.22065048 0.35277173 0.040957026 0.24684599
-0.042499866 0.34401414 -0.3693508 0.01619552 -0.056369904 -0.09479257 -0.0449885 -0.40299997
-0.018090038 -0.04011396 0.15336645 -0.2655368 0.38896054 -0.10850986 0.072042495 0.20837903
0.5352706 0.17988062 -0.2258006 -0.14569753 -0.071218155 -0.0057181157 -0.5077054 -0.07056825
0.2769324 -0.16692972 -0.08018887 -0.00246913 -0.082994424 -0.16423227 -0.2120697 0.15668067
0.017456803 0.12889376 0.2499575 0.023450246 0.0077050263 -0.033430796 -0.053749792 0.16973701
0.23081414 -0.16908662 -0.008622375 -0.29737142 0.010291399 0.05521112 -0.03989295 -0.0319827
-0.12168732 0.2571981 0.33190176 -0.24518304 0.12828723 -0.036582585 -0.024158834 -0.027535824
0.19615966 -0.41235852 0.06150635 0.061520882 0.120449774 -0.19512755 0.0037627423 -0.10666242
0.033986922 -0.3473695 0.061040245 0.16881004 0.010035006 0.046775024 0.39837682 0.09276343
0.04178737 0.05930811 0.11312786 -0.23017119 -0.073359214 0.3059447 0.07979946 -0.28016448

layers.2.weight f4 [256, 128]
00000000: 909c 49be 99c8 37be 0e4d 913e 1395 16bf
00000010: 052d 953f c527 3abe fbf0 513e 2ed8 86bd
00000020: 6161 9bbe 93c8 01be e3fb 4cbf e7c4 05be
00000030: 9de4 b2be e95d a13e 84f3 163e 5ac2 213f
00000040: 17b5 2abe 4721 00be 5961 023f 6b6a 15bf
00000050: c01a 2c3f 5138 0c3f ce20 1d3e 3c62 5ebf
00000060: 469a 913e 41aa 413f d507 a1be ee02 323e
00000070: 09e6 c9bd 605e c5be 1886 07bf e54c 8abe
00000080: dd79 d83d bc68 a7be 2657 cebe 9dc8 80be
00000090: bc6c d83d eded 2e3e cd48 e5be b281 a23d
000000a0: de29 083f d033 e23e 314f 9cbe 88de 36be
000000b0: 5f1f 01bd adb9 73be a89f f8bc c08a 04bf
000000c0: 3d1d 3dbe 3dfa 483e 7012 22bf 1c3a 1ebc
000000d0: 0d3c 2bbf e463 4dbe e905 58bf 2a4a 9cbe
000000e0: 5adc 3e3f e02e b5be cd83 f2bd 4096 bd3f
000000f0: bc9b 1fbf 3a91 14bd edea 943e 236d 13be
00000100: dbcd 9abd 745a d53e b698 f2bd fada 323f
00000110: 6cad f2bd 02cf 933e e086 5f3e 8a85 2b3d
00000120: 31b0 153f 5174 483e 3df5 533d fba4 a13e
00000130: 0fa3 c4be fd5a df3e ee98 f8be de02 78be
00000140: 6994 63bf 7383 5cbf c534 ce3e bf2b cc3e
00000150: d908 16be 0e3e 033f a0e4 bc3f ff53 8dbe
00000160: f4a8 5fbe 07ff 2dbf 664d 6ebf 6220 373e
00000170: 54db 973e 63a9 24bf e6cf 873f 1dc2 dc3e
00000180: 7b95 573f e63e 92be 53c2 c93d 4fd3 8b3f
00000190: a4f3 803e 1714 d6bd 246d 44be ed0e e43e
000001a0: 39bc 29be 9008 a53e b323 643f 8f96 4abf
000001b0: aec6 82bf 9a07 b63d be17 833e c69e 043f
000001c0: 76b4 6a3f 02d2 23bf da2a 93bf d738 00bf
000001d0: 1031 623f f0bc 13bf ce1e aebe 1fac b1be
000001e0: 1139 a6be dc43 363f 66cc 62be 04b3 81bd
000001f0: 6f28 85bf 1366 acbf d67b 073f 177c 1fbc
00000200: edc9 843e 0f9b 4d3f 1f79 773e d192 de3e
00000210: 5298 013f 4a02 f6be 8908 d03e 93cb 003f
00000220: 01f7 5a3f 9046 1dbf b705 7d3f 304b b93e
00000230: 8e63 663f 26d0 01be bf5c 97be db48 02bf
00000240: 3937 f83e a5f9 03bc 999d 663e b68d a1bd
00000250: 1b82 91be 302b 1e3e b081 123f 2abb b23e
00000260: cb73 08bf 46af cbbe dd25 2a3f 3f5d 2fbd
00000270: ac2f 95bf 52d0 12bf 2d57 5bbe f444 6d3f
00000280: ed67 06bf bf83 333e 9995 59bf e624 993e
00000290: ede0 a33e 265e 4abe ee27 763e 9178 85be
000002a0: 263a 953c f7e6 6fbe 7121 433f db70 773e
000002b0: 4256 bebd de57 e5be 2329 d73e 74f4 d9be
000002c0: afab d2be c681 c0be 7c56 203f 87c9 043e
000002d0: c995 cc3d c052 433f 5d17 1b3f 418c 273f
000002e0: 8fd1 3cbf 8e87 2f3f 8144 6bbd 113c a6be
000002f0: e906 77be 0c43 62be 9357 07be 3af1 85be
00000300: e37e 59be c109 01bf 7eb0 de3e 6c91 eb3e
00000310: 972e 2d3f c0b6 8a3f a230 0bbd 8d14 a83e
00000320: 09d9 b63e ce9c 7ebf 0e91 c43e 497f 8bbe
00000330: a536 453f b7f1 a0bd ae0d 40be 89c9 f83d
00000340: ae83 423f b1f7 203f f0f8 29bf 6870 99bd
00000350: 2f91 fcbd ee80 e7be eb2f 9ebd 3d1f 14bf
00000360: 109d 1dbf a98f ab3e 4388 0e3f 4a7f 773f
00000370: b3e2 3cbe 13fe b2be f3cf 2a3e 5e37 273f
00000380: 197e 12bf fdcf 46be 14f0 03bd 88ff 5ebe
00000390: 1171 46bf 9e92 443e 6efc 6abe b042 0a3f
000003a0: e866 ddbe 496a 08bd 5f66 e53d 3522 933e
000003b0: e3f3 873d bedc 743f 2986 f23d 1c2e 66bf
000003c0: c056 3bbe 65a3 a73f 96bf 9c3d f178 e9be
000003d0: a2c7 98bf ce4b 053e 8449 0ebf 7b00 f6bd
000003e0: 6c5b b73c 74a2 3bbf b99d 963e fa48 433e
000003f0: 991f 7cbd facd 033f d030 f9be 20d8 1dbe
-0.1968863 -0.17947616 0.283791 -0.5882122 1.1654364 -0.18179233 0.20502083 -0.06584202
-0.30347732 -0.12674169 -0.8007185 -0.13063394 -0.34940043 0.3151696 0.14741331 0.6318718
-0.16670643 -0.12512694 0.5092979 -0.58365506 0.6722832 0.5477343 0.15344545 -0.86868644
0.28438014 0.7565041 -0.31451288 0.1738393 -0.09858329 -0.38548565 -0.52938986 -0.2701179
0.105701186 -0.32697093 -0.40300864 -0.25153056 0.105676144 0.17082949 -0.44782105 0.07934894
0.53188884 0.44180155 -0.30529168 -0.17858326 -0.03152406 -0.23801298 -0.030349568 -0.51774216
-0.18468185 0.19626708 -0.63309383 -0.009657409 -0.66888505 -0.20057636 -0.8438402 -0.30525333
0.7455498 -0.35387325 -0.11841545 1.4811478 -0.62347007 -0.03627131 0.29085484 -0.14397101
-0.07558795 0.41670573 -0.118455335 0.6986538 -0.11849484 0.28868872 0.21828794 0.0418754
0.5847197 0.19575621 0.05174755 0.31571183 -0.38405654 0.43624106 -0.48554176 -0.24219844
-0.8889833 -0.86138076 0.40274635 0.39877126 -0.14651813 0.5126656 1.4757271 -0.27603146
-0.21841794 -0.67967266 -0.9308685 0.17883447 0.29659522 -0.64320964 1.061032 0.43116847
0.84212464 -0.28563613 0.098515175 1.0923861 0.25185883 -0.104530506 -0.19182259 0.44542637
-0.16575707 0.32233095 0.8911697 -0.79135984 -1.0216882 0.08888169 0.2560405 0.5180477
0.9168161 -0.6399232 -1.1497452 -0.5008673 0.88356113 -0.5771017 -0.34007877 -0.3470163
-0.32465413 0.71197295 -0.22148284 -0.06332973 -1.0402964 -1.346865 0.52923334 -0.009734175
0.25935307 0.80314726 0.24167298 0.43471387 0.5062305 -0.4804862 0.40631512 0.5031063
0.8553315 -0.61435795 0.98836845 0.36190176 0.8999566 -0.12677059 -0.29562947 -0.5089242
0.48479632 -0.008055125 0.22521056 -0.07888357 -0.28419575 0.15446162 0.5722914 0.3490842
-0.53301686 -0.3978216 0.66464025 -0.042813536 -1.1655173 -0.5734912 -0.21419974 0.9268334
-0.5250233 0.17530726 -0.8499389 0.29910964 0.32007542 -0.19762477 0.2403867 -0.26068547
0.018216204 -0.2342795 0.762229 0.24164145 -0.09293796 -0.447936 0.42023572 -0.42569315
-0.4114661 -0.3759901 0.62631965 0.12967502 0.09989507 0.7629814 0.60582525 0.65448385
-0.7375726 0.68566215 -0.057438377 -0.32467702 -0.2412373 -0.22095889 -0.13217 -0.26160604
-0.2123981 -0.5040551 0.43494028 0.46009386 0.67649215 1.0837021 -0.033981927 0.3282818
0.3571246 -0.99458015 0.38391918 -0.27245548 0.77036506 -0.078586034 -0.18755218 0.12147815
0.7598218 0.6287795 -0.66395473 -0.07492143 -0.12332379 -0.45215553 -0.077239834 -0.57860166
-0.61567783 0.33508042 0.5567667 0.966786 -0.18445854 -0.34959468 0.16680889 0.6531886
-0.5722366 -0.19415279 -0.03221138 -0.21777165 -0.77516276 0.19196555 -0.22947857 0.5400801
-0.43242574 -0.033304486 0.11201166 0.28737035 0.066383146 0.95649326 0.11841995 -0.8991411
-0.18294811 1.3096739 0.076537296 -0.45600083 -1.1935923 0.13017198 -0.55580926 -0.120118104
0.02238246 -0.7329476 0.29417208 0.19070807 -0.06155357 0.5148617 -0.48670053 -0.15414476

layers.2.bias f4 [256]
00000000: 6a4a ddbe 1f32 b43e d9d1 9f3b a037 b93e
00000010: e258 abbc 07c9 a23e 939c 243d 997c 1ebe
00000020: 203e 913e 102e 123d 6ff1 debe ed4b 8c3e
00000030: 3a2d 083e 1aba 663e 7216 df3d a0ee 143e
00000040: 3123 403e c88b 8e3d d1ab b9be d142 253f
00000050: b765 fdbd 6da4 d13e 3ce0 96be 92b5 67be
00000060: b79e 58be 3216 243f 0d2c fb3e 4e59 bebd
00000070: c9de b93e f12d fcbe 005d 89be d13e 84be
00000080: 8772 25be a2d5 023e 2e71 1a3e 8edd 713e
00000090: f6b7 59be fe41 1f3f 6184 31bf ff7e 23bd
000000a0: 92af 833e cbd1 213f 6ef3 bebe 861e 03be
000000b0: 826c d6be cce8 4abf c8a3 843e 980a 17bf
000000c0: a2e6 16be fd20 97be a809 a63c e8f4 a5be
000000d0: 560a eb3d 2e74 063f 2c25 5b3e 68e0 5e3e
000000e0: b394 173f 61b8 6c3e fab6 d0be 1a2d 90bc
000000f0: 2239 173b b60a d03e b162 bb3e 6943 543c
00000100: 6a5c 4bbe d3e9 adbd 6f11 45be 315a 3b3d
00000110: 7687 89be 8594 973e fdc3 a3be a82d 1d3e
00000120: 864d 57bd 2567 3cbc ee4d 783e e9eb a93e
00000130: f202 e3be 764b 913e ef11 403f d787 233f
00000140: a9ca 2abf 6bdf 883d 989d fa3d b51c 29bf
00000150: 988a 183e 446b dfbc e2e7 b73e 0f2a 93be
00000160: 7945 12bd 3d51 73be 937d 293e 244a 48bd
00000170: 34c4 6a3e 3caf 923e 668a a03e 9140 5ebb
00000180: 4492 fb3e f199 ec3d 19b7 c3bd 201d fd3e
00000190: e585 673b a2b1 c73d dc94 86bd ab91 9f3e
000001a0: 4a20 4abe 8c4f 98be 3ac6 9d3e c61c b93e
000001b0: 4553 cabe 57f6 05be d198 df3e b63a c53e
000001c0: 1388 8bbe d8b6 fc3e 1b3c af3e 4cf7 383e
000001d0: a59a 4d3d 8ce6 a8be 96f7 343f 874b 3f3d
000001e0: 350c 613e 43c3 0a3f edf3 1c3f cb56 30bf
000001f0: 4bf5 5c3e 722e 4e3e 50d8 023f b7ef 743e
00000200: ff55 fabe a3fd b0be 7a59 a5be 35cd 433f
00000210: dbd7 16be 8b63 bbbe 3346 253f bf6f 0b3f
00000220: 0a3e 43be a02f 703e 9346 223e 0342 323e
00000230: 6075 ed3e 7eef 7bbf 1d30 00bf dd09 573e
00000240: 9952 ad3e caef 643e 5e7d 0f3d 9fcf babd
00000250: 0c72 3d3e 8cc2 1a3f 1be2 733e 0b65 92be
00000260: 00b2 0ebe 3f9c 053e fe75 0bbf 2c9f ee3d
00000270: 451b 323e 8fb4 bd3c 5f4b a6be a1f0 243f
00000280: 8f38 1ebe a583 c4be 1c82 5bbd 3d8b ecbd
00000290: 71a6 0c3c a06f 013f 63b0 983d cf22 a13e
000002a0: 4661 27bf b63f afbe 9696 473e f928 a43d
000002b0: 6010 3cbe 0fd7 2b3e 4d06 18bf dc82 d6bd
000002c0: a2ed 59be 44e8 7dbd 5394 0f3f 78fb d4bd
000002d0: 1dca 0ebe a004 e73c aad1 5ebe 281e 533f
000002e0: 9980 fb3d 875c 613e a0fb a73e 8b02 39bd
000002f0: 6c5b 99be 0efd e0bd 6866 30be 3fa8 66be
00000300: 0857 b53e 1e25 8abe 1fba 0bbf 876b 16bf
00000310: 5b1d 62bd baa5 0fbd 468e 2dbf 846f 02bf
00000320: 6b7f 783e aa70 353f 45c4 18be da82 5a3e
00000330: d3a4 48bf 7009 84be 4695 a93c d50f 8e3e
00000340: 05d5 54bd 28e5 bd3e 726e ba3e 6119 17bc
00000350: b340 b0bd 7107 c03e 4003 c5be 1e2b 293f
00000360: 405a fcbc 2407 233e 6294 f63e c6af eebd
00000370: 5dc0 343e fae4 b63d fa0b 55bd 86d2 ef3e
00000380: 9d2a 513e 82ac 763e 021e 913e d181 813e
00000390: 742f 123e f613 bd3c 4fe9 b8bd 6154 aebe
000003a0: b556 9b3d e3f2 583e 68fd c6be fca9 a03e
000003b0: 9e9f 073f 9cc4 9cbe 25ae bbbd df44 35be
000003c0: e3fa a3be 51d5 a7be 22fe 923e 2edd efbc
000003d0: c6ee f63d f61c 653f 6d42 893d b6a7 0e3e
000003e0: 0648 94be f047 30be 6f27 9c3e f8e9 30bf
000003f0: 572a 9fbe 1f95 e73d 8c30 febd a80e 013e
-0.43220836 0.3519449 0.0048773107 0.3617525 -0.020916406 0.31793997 0.040188383 -0.15477218
0.2836771 0.03568846 -0.43543574 0.27401677 0.13298503 0.2253193 0.10892953 0.14544153
0.18763424 0.06960255 -0.36263898 0.6455508 -0.12372916 0.4094576 -0.29467952 -0.22627857
-0.21154295 0.6409637 0.49057046 -0.09294377 0.36302784 -0.492538 -0.26828766 -0.25829175
-0.1615697 0.12776807 0.15082237 0.23619673 -0.21261582 0.6221007 -0.6934262 -0.039916035
0.25719887 0.63210744 -0.37295097 -0.12804613 -0.4187966 -0.7926147 0.25906205 -0.5900054
-0.14736417 -0.29517356 0.020268276 -0.3241341 0.11476581 0.52521026 0.21400899 0.21765292
0.5921127 0.2311721 -0.407646 -0.017599631 0.0023074825 0.40633172 0.36598733 0.012955525
-0.19859472 -0.08491864 -0.19244932 0.04574031 -0.2686116 0.296055 -0.31985465 0.15349448
-0.052564166 -0.011499201 0.24248478 0.33187798 -0.44338185 0.28377885 0.75027364 0.6387915
-0.66715485 0.066832386 0.1223709 -0.6605943 0.1489662 -0.027272828 0.359191 -0.28743026
-0.035710786 -0.23761459 0.16551809 -0.04889883 0.22926408 0.28649318 0.3135559 -0.0033912996
0.4913503 0.115527995 -0.095564075 0.49436283 0.003532761 0.09750678 -0.065713614 0.31165823
-0.1973888 -0.2974819 0.30815297 0.36154765 -0.39516655 -0.13082252 0.43671277 0.38521355
-0.27252254 0.4935825 0.34225544 0.18063086 0.05019631 -0.32988393 0.70690286 0.046702888
0.21977313 0.54204196 0.613097 -0.68882436 0.21577947 0.20134905 0.51111317 0.23919569
-0.48893735 -0.3456851 -0.32294828 0.76484996 -0.1473078 -0.36599383 0.6456024 0.54467386
-0.19066635 0.23455667 0.15847234 0.17407994 0.46378613 -0.9841231 -0.50073415 0.20999856
0.3385208 0.22357097 0.03503167 -0.09121632 0.18500537 0.60453105 0.23816721 -0.28592715
-0.13935089 0.13047884 -0.54476917 0.116514534 0.17393215 0.023157386 -0.3247938 0.6442967
-0.15451263 -0.38381687 -0.05359088 -0.11549995 0.008584605 0.5056095 0.07455518 0.3147187
-0.653828 -0.34228295 0.19491038 0.080156274 -0.18365622 0.16781257 -0.59384614 -0.10474178
-0.21282056 -0.061989084 0.560857 -0.10399526 -0.13944288 0.028200448 -0.21759668 0.8246789
0.122803874 0.22007953 0.32809162 -0.04516844 -0.29952562 -0.10985766 -0.17226565 -0.22525118
0.35417962 -0.26981443 -0.54580873 -0.58757824 -0.055203777 -0.03507016 -0.6779522 -0.5095141
0.24267356 0.70875037 -0.14918621 0.21338978 -0.783765 -0.2578845 0.020701062 0.27746454
-0.051960964 0.37088895 0.36412388 -0.009222359 -0.086060904 0.37505677 -0.38479042 0.66081417
-0.030804753 0.15920693 0.48160082 -0.1165462 0.17651506 0.089303926 -0.052013375 0.46840304
0.20426412 0.24089244 0.28343207 0.25294355 0.14275914 0.023080807 -0.09028875 -0.3404875
0.075848974 0.21186404 -0.3886521 0.31379688 0.5297793 -0.3061875 -0.09164075 -0.17702053
-0.3202735 -0.32779935 0.28709513 -0.029280271 0.12057261 0.89497316 0.06702123 0.13931164
-0.289612 -0.17214942 0.30498835 -0.6910701 -0.3108699 0.113077395 -0.12411603 0.12603247

layers.4.weight f4 [128, 256]
00000000: 3cae 263e 05a1 693b 70ef cb3e 3cca 81bd
00000010: d7c0 a9be 4a76 32be e18f 65bf e3c2 b7be
00000020: 458f 533e ebc5 b1be a197 b43e f610 1fbf
00000030: 9ff1 66bd 8ee5 a13e 7104 c4be d07b ae3e
00000040: 51a9 793e 53c6 6dbe 320f e3bd 505c 1e3f
00000050: 5f03 ab3d 97dc 2f3f ab6e 1abf d9cf a6be
00000060: 3638 35bf 87d0 9bbe c0ee f9bd 4d18 09be
00000070: 3041 b63f 1075 57be 5851 6f3d 2be9 ca3e
00000080: d4b9 49bf 2bbc 66be 3053 11bf ed5e 953e
00000090: 1717 89bd 6759 92be 32aa 32be a5b2 bdbd
000000a0: 14ba 47bf 480f cf3e 1e7b c63e 22b1 2b3e
000000b0: 6d5d 993e 25ec 5c3e cef4 6cbe aa95 a4be
000000c0: 70db ca3e 063d 053f 51a3 0e3e be79 c5be
000000d0: 05ec 9b3d dc64 e63d 9fea b83e 098f 593c
000000e0: 0b91 953e f601 bcbe edaf 48be d25e 7fbf
000000f0: daf9 5c3e 0a0d bf3d 156d 8d3e 2282 65bd
00000100: 3b2b df3e 6aff 093f cb87 5bbe 2c4e e93e
00000110: 2cb5 813e a8c4 273f a71d 89bf 8254 ba3d
00000120: 7dd9 803f 1e7d dcbd 696f 3ebf 13a2 18bd
00000130: 57bb c83d 7b44 63bf eb59 bdbe b521 3b3e
00000140: 1d2f 843e 99f0 3d3b 08cd 533f a3f6 9a3e
00000150: 0d76 cd3d 93c0 e4be 99da 353f 45f8 b9be
00000160: 1b55 33bf 1f47 55bd b151 7ebf 4b78 023f
00000170: 2215 1ebf 1d25 6dbd 44c9 db3d aad3 ca3d
00000180: 131e fc3e 9a38 bd3e c899 e0bd 6215 953e
00000190: 2c84 43bf ee12 f73e 7926 a2be 5e93 eabe
000001a0: 5951 14bf 6a86 78bf 5a34 5d3e e491 873f
000001b0: fa7e 853e bee3 5ebe 0ce6 27bb 8716 2fbe
000001c0: 4a91 1c3e 5b3a 6d3e 1f27 093f cf6d 753e
000001d0: d8cf a43e a830 1abf 6bfa 41be 3d8f 36bf
000001e0: 9f49 ae3e 6cbc db3d 1ef0 873c 512a 0d3c
000001f0: 9b5f fbbe 349c 7dbe abbb 233e b6eb 1dbf
00000200: faf2 44bd 4f8b 2e3f 2095 023f 31e2 06bf
00000210: a4ab 5ebd 2bfe d03e 5ba7 f3bd ec75 053f
00000220: 3862 4abe 4016 61bd 53ab 0d3e 4391 b6be
00000230: 03bf edbe 9431 01bf 20ae e6be a57b a6be
00000240: e6d7 b83e 51ec 53bf 6a1a 50be 1c0c 3f3e
00000250: fcc1 eebd 7ded b6bc 286a 5dbe edb2 6cbe
00000260: 8bca ccbe bcc0 40bf 62ee e43e 0da8 35be
00000270: ae63 ddbe f50f 773d c0c4 febe 7de1 b5bd
00000280: 8729 e43b ced2 2cbf 4870 8c3d 714f 59bf
00000290: ad79 383e 811b a0be b138 49bf 4635 75be
000002a0: 5a8d aebe 12b2 00bf 9549 503f ff11 7fbe
000002b0: 403b da3e 1a3d 17bf df09 4ebd 3fcc a33e
000002c0: 697f 2dbf 2b50 2a3f a835 733e c8af f53e
000002d0: 80e9 1ebf 2f10 a53e fbf4 3b3f 10df c53e
000002e0: 4dc1 753e 8f39 f43e 78bd bbbe bc8f 9fbe
000002f0: 4b8a bbbd fbbe a63b 3be0 253e 889a 853b
00000300: 14ee 3bbe aca4 2d3e 9140 d63d 1947 8cbd
00000310: 0e09 81bd e4c6 353f bbab fd3e 250e f6be
00000320: 42f4 1dbd 24b7 08be 5a00 a03e 5a8a 593d
00000330: 7c4b 0bbf aa2a aebe edd2 4d3e b830 ca3e
00000340: 3611 8a3c 57e2 29be 5554 7f3e c035 043e
00000350: d6c9 2ebe 2f15 273e faee 7dbe 00e4 1bbe
00000360: fee7 533f 6287 0ebe 58c5 8b3d 74ec dd3d
00000370: 0120 0dbf 387a b0bf 068f 823d 8616 283f
00000380: 34f2 e1be c81a 8b3e a071 5d3b 4a6b 3c3f
00000390: 5b6a 79bb d42c bb3e 57e9 d43e 6544 343f
000003a0: bcfc 923f 9afd 303f cc8e 90be 205c c6be
000003b0: beee dd3e 9bbf bd3e d0c1 233e 744a 3fbd
000003c0: 2b06 023f 6e3d 7cbe 0e53 233c 15a2 f63e
000003d0: 6a47 4dbc 9683 f93d f1bc b6be 3efa 4cbf
000003e0: 1577 5d3f 806c 97be 7c7f b7be 9fbd 5a3e
000003f0: c188 2a3f 315b 373f 8662 5c3d 8939 8ebe
0.16277403 0.0035648954 0.39831114 -0.06337401 -0.33154938 -0.17427936 -0.89672667 -0.35890874
0.20660122 -0.34721312 0.35271934 -0.62135255 -0.05638277 0.3162045 -0.3828464 0.34078836
0.24380995 -0.23220186 -0.11086883 0.6185961 0.08350252 0.6869597 -0.60325116 -0.3258045
-0.70788896 -0.3043253 -0.12203741 -0.13388176 1.4238644 -0.2104075 0.058427185 0.39631018
-0.78799176 -0.22532718 -0.5676756 0.29173985 -0.06693857 -0.28583834 -0.17447737 -0.09262589
-0.7801831 0.40441346 0.38765806 0.1676679 0.2995409 0.21574457 -0.2314026 -0.32145435
0.39620543 0.5204624 0.13929488 -0.38569444 0.076133765 0.11249706 0.36116502 0.013278731
0.29212222 -0.36720246 -0.1959836 -0.9975406 0.21579686 0.09328659 0.27622285 -0.056032307
0.4358767 0.53905356 -0.2143852 0.45567453 0.25333536 0.6553445 -1.0712174 0.0909815
1.0066372 -0.10766052 -0.7438875 -0.03726394 0.09801357 -0.8877637 -0.36982664 0.18274577
0.25817195 0.0028982519 0.8273473 0.30266294 0.10032282 -0.44678172 0.7103668 -0.36322227
-0.70051736 -0.05206978 -0.993434 0.509648 -0.61750996 -0.057896722 0.10731748 0.09903653
0.49241695 0.36957246 -0.109668314 0.29117876 -0.76373553 0.4825663 -0.31669977 -0.45815557
-0.57936627 -0.970801 0.21602002 1.0591397 0.26073438 -0.21766564 -0.0025619296 -0.17098437
0.15289798 0.23166792 0.5357532 0.2396767 0.32189822 -0.60230494 -0.18943183 -0.71312314
0.34040543 0.10729298 0.016593989 0.008616046 -0.4909638 -0.24766618 0.15989558 -0.6168779
-0.048083283 0.6818132 0.51008797 -0.5268889 -0.054362908 0.40818915 -0.11897155 0.5213306
-0.1976403 -0.05495286 0.13834886 -0.356577 -0.46434793 -0.50466275 -0.45054722 -0.32516208
0.36102217 -0.82782465 -0.20322576 0.18656963 -0.11658093 -0.02233004 -0.21622527 -0.2311513
-0.39998278 -0.7529409 0.44713122 -0.17739888 -0.43240112 0.060317952 -0.49759483 -0.08880899
0.0069629583 -0.6750916 0.068573534 -0.8488684 0.18015166 -0.31270984 -0.7860213 -0.23946103
-0.34092218 -0.50271714 0.8136228 -0.24909209 0.4262333 -0.5907761 -0.050302383 0.31991765
-0.6777254 0.66528577 0.23750937 0.47985673 -0.6207504 0.3223891 0.73420686 0.38646746
0.2399952 0.47700164 -0.3666799 -0.31164348 -0.09157237 0.0050886846 0.16198818 0.0040772595
-0.18352538 0.16957349 0.10461534 -0.06849498 -0.06300555 0.7100661 0.49545082 -0.48057666
-0.03856302 -0.13351113 0.31250268 0.053110458 -0.54412055 -0.34016925 0.20099993 0.39490294
0.01685391 -0.16590248 0.24934514 0.12911129 -0.17069182 0.16316675 -0.24798194 -0.15223694
0.82775867 -0.13918832 0.0682475 0.108361155 -0.5512696 -1.3787298 0.06374936 0.6565937
-0.441301 0.2716887 0.003378965 0.7360121 -0.0038057778 0.3655764 0.41584274 0.7041686
1.1483378 0.69136965 -0.28233945 -0.3874216 0.43346208 0.37060246 0.15991902 -0.046701863
0.5079066 -0.24632809 0.009968532 0.48170534 -0.0125292335 0.12183301 -0.35691026 -0.8006934
0.8650983 -0.29574966 -0.3583945 0.21361397 0.6661492 0.7162352 0.053804897 -0.2777827

layers.4.bias f4 [128]
00000000: 82d1 bebc ed5b 55be 54ef 99be 98ad 683e
00000010: f785 1bbe fa0b af3e 8ef3 eabd 6108 de3d
00000020: bc1f 853d 628d efbe 1e69 903d 33dd ba3e
00000030: 0167 60bd 9b7b 1ebd 8977 033c 72a0 b5be
00000040: 9e9d a93e 5c83 f4be ad3f 7d3e 5b06 9a3d
00000050: bfbf 71be 148e ddbd 285f 03be 383e b93e
00000060: 7be4 41be 7ae1 33be f47e 8c3e c792 843e
00000070: 25db 1ebc c92e 54be f87f aabe 79ec b93e
00000080: 8d2b 21be 5ffd 423e da58 08bd f2ec 3f3e
00000090: 5615 1d3d 8ca9 363d 31c1 74be de35 88bd
000000a0: 5384 f83e 817d 303d 5e30 c3bd 6cf2 983d
000000b0: 3a14 abbe 1d6f b2bd a821 9d3d f494 0e3d
000000c0: 2b7e c13c 975b 053e 597b 863d 1326 5c3e
000000d0: eb0e 83be 46d3 9ebe ae75 ee3d 53f8 1dbf
000000e0: 3552 343f 62da 13bc 212e 17bd bf49 78bd
000000f0: 6be6 053f 9b6f e83c 460d 493f cbe9 343f
00000100: aec9 fc3c 2b90 b5bd 0497 bc3e 0609 753e
00000110: 9d06 f7bc 40af aebc f647 8bbf 2d73 2ebf
00000120: 6b50 19bf f644 e2be c782 4abc 9a02 8c3e
00000130: f5ae 3cbd 3f59 f33e dae9 cabe ed6a 0fbe
00000140: 59b0 28bf a8ed b83e 2109 06bf 5ace 47bf
00000150: 4105 cf3d 1eef 60be 3965 21bf fe43 0dbf
00000160: 5e62 0cbf 0360 f7bc b20e 18be 40ff 8bbe
00000170: eb14 283e 6e7c 10bd a232 223e f8ed 003e
00000180: 4ed5 a43e 5a9e 4c3e e99b 04bf 0a1a d3be
00000190: affe 953e 7ffc 373f ebd7 693e ab6e fcbe
000001a0: 388a 23be 0fc9 ce3e cdae ef3e 3bb4 33bf
000001b0: f383 943e 0cec ce3e 1079 a93d a33e 98be
000001c0: dca2 96bd 47eb 6e3b 34bc 573d 888d 253e
000001d0: 4083 1b3c 685f d73e 7cfd 47be 1ad5 263f
000001e0: 593f 063d d491 f23d a27c c7bb 359a fe3d
000001f0: 62ca 673e 2918 e43e 1e45 2fbe 98f1 c23d
-0.02329326 -0.20835848 -0.30065405 0.22722471 -0.15187822 0.34188825 -0.114722356 0.10841442
0.065001935 -0.46787554 0.070512995 0.36496887 -0.054785732 -0.038692098 0.008024105 -0.35473973
0.33128065 -0.4775647 0.24731322 0.075207435 -0.23608302 -0.10818115 -0.12829268 0.36180282
-0.18934815 -0.17566481 0.27440608 0.25893232 -0.009695803 -0.20720972 -0.33300757 0.36313227
-0.1573927 0.19041966 -0.03328786 0.18742731 0.038350426 0.044595286 -0.23901822 -0.06650899
0.48538455 0.04308844 -0.0953071 0.07468113 -0.3341387 -0.087125994 0.07672435 0.03481002
0.023619732 0.1302322 0.065664954 0.21498899 -0.2559732 -0.31020564 0.11643539 -0.6170704
0.7043794 -0.0090242345 -0.036909226 -0.060617205 0.52304715 0.02837353 0.7853588 0.7066924
0.030857887 -0.088653885 0.36833966 0.23929223 -0.03015452 -0.0213238 -1.0881336 -0.68144494
-0.59888333 -0.44193238 -0.012360281 0.27345735 -0.04606529 0.47529027 -0.3963154 -0.14005633
-0.65894085 0.36118817 -0.5235768 -0.7804924 0.10108424 -0.21966216 -0.6304508 -0.5518187
-0.54837596 -0.03019715 -0.14849356 -0.27343178 0.1641423 -0.035274915 0.15839627 0.12590778
0.3219399 0.19982281 -0.518004 -0.41230804 0.2929587 0.71869653 0.22836272 -0.49303183
-0.15970695 0.4038777 0.4681305 -0.70196885 0.2900692 0.40414464 0.08275044 -0.29735288
-0.07355282 0.0036456154 0.05266972 0.16167271 0.009491742 0.42064977 -0.1953029 0.6516892
0.032775257 0.11844221 -0.0060878554 0.124317564 0.22635797 0.44549683 -0.1711621 0.095187366

layers.6.weight f4 [6, 128]
00000000: d95e 263c d032 c63c 492c e3bc 2eda 86bc
00000010: 4363 1abd 1005 5f3d 2ff8 223d 0151 a73c
00000020: c596 693d 45bc be3c e062 27bd 26e8 b73d
00000030: 5803 61bd 7a50 3c3d 75cc 483d 41b4 4cbd
00000040: 3935 8d3d f068 8b3d d4a6 083d 3f63 993d
00000050: 5973 00bd a437 28bd 43ff a7bd ca95 19bc
00000060: cbc4 723d 8adf dbbc a94c 4e3d ef9c 963d
00000070: cf80 3c3d 2512 aabd 281b a5bb 2898 5abd
00000080: 2bc5 0d3d 35e9 3e3d 429c 993d b8d9 babd
00000090: 2f58 973d bfe9 42bd bffc 32bd 9046 dc3d
000000a0: af20 d5bc c2ff 573d fd23 a43c 6341 3d3b
000000b0: 3d77 8a3b 307e 773d 0b6c bb3c 9e4b cebc
000000c0: c088 bcbb b30c 803c 9856 303d 0cd9 c5bd
000000d0: 2c37 f5bc 9359 503d ab3c 103d 80ae cc3c
000000e0: a737 913c 64be 3e3c 9205 933d bd6b f0bc
000000f0: ec7d 88bc 6ccd 86bd ebf5 e9bb ebd9 43b9
00000100: 6462 5fbd be34 d9bc fe71 9c3d 016b aabc
00000110: 801c 533d 5307 6abd c303 423d 5186 1c3d
00000120: d352 bd3d 7a23 163d 303a 833d 0c6c 1ebd
00000130: dbf1 82bd 316a b2bc 514e bc3b 5aa1 b63c
00000140: be92 603d ea0a ccbd 69ec 2cbd d6ec 19bd
00000150: 7f84 68bc 4248 db3b afde 873d adc2 16bd
00000160: 07ac cb3c 7a31 71bd 0ab9 713c 9031 823d
00000170: dbb9 0c3e bb70 163d bd19 41bd 37fe d9bd
00000180: 6554 c23d 0a39 22bd 7dc5 9bbd 4548 a83d
00000190: b893 88bd c584 a13c 6ee3 953e dfc1 edbc
000001a0: 8588 6b3d cc7d 9fbd ae4d 873d 13d5 e3bc
000001b0: fcf8 73ba c337 39bd c0e9 973c bed0 8d3d
000001c0: a2a1 96bd d991 3d3d a320 d0bc 6241 fe3c
000001d0: 379c 343d 8e43 2a3d 7693 abbd b14a 893d
000001e0: 9584 e7bc 2e4c a2bd f178 a43d f309 fb3b
000001f0: 127e 813d d967 243b 656e 693d 5d83 e83c
00000200: 899a 4fbd f681 cc3c f2b1 20bd c7d7 1dbd
00000210: e468 883c 50e7 3f3c 21ce 9abd ff20 9f3c
00000220: 68b4 7d3d d604 32bd 81d8 6e3d a971 8b3c
00000230: 8054 9fbd 35cc 683d 1837 033d b4ef cf3d
00000240: a2ae 313c cd23 993a 7213 5c3d 7d91 fa3a
00000250: 6b31 713d 2453 14bd 6dcc 7a3d 6316 93bd
00000260: 5f85 323c 1987 ebbc 28f4 69bd 630b e13c
00000270: dd3c 893d 6a8c 213d b670 4dbd 3d8f 75bd
00000280: 4921 873c c35a 19bd 64e7 6f3c 1a13 763d
00000290: 171c bd3c 5c07 eebc f45e 2abd b641 453d
000002a0: 6c1a 66bd b53f 7ebd 2aad 58ba f471 553d
000002b0: 555a 6e3d 17f6 9f3a d9c1 f0bc 176e b1bd
000002c0: 96bf 78bc 4582 31bd 0f72 b8bc d185 1dbd
000002d0: b7ea 05bd 11ed 993c d270 7bbd 6db7 453d
000002e0: 27c0 b6bc 0e2e 503b f13a e03c 5bfc 023d
000002f0: acd3 aebc 9a20 423d 75b8 e53c fa72 8e3c
00000300: 8332 9e3c fa76 333c 1f3f a13d ae99 ac3d
00000310: 9a13 523d 642e e23d 81ed 5f3c 7c8e f7bb
00000320: 0508 46bc 610d 123d cb3e c5bc 8488 d53d
00000330: 3301 963d 967a 4f3c 1aa5 69bc 891f 4ebd
00000340: f149 393d fb7b 193d 4305 7bbd 8bc0 483d
00000350: d989 803d 4245 89bb 4736 013d 0100 683d
00000360: 91f2 7fbc 3778 a1bb 31cc abbd ce46 88bd
00000370: 689c abbd fd30 cdbb e898 77bd 07b8 ce3c
00000380: d2da a8bd 673a 143d 1a95 763c b30f 853c
00000390: 49da 8fbd 5e5d 283d ed7b 283e 04fc 363c
000003a0: e23d ac3d 5aa8 1d3d 769a 9e3c d524 00bb
000003b0: 065c dcbd 71b1 3a3d 3f7a bebc cae0 8ebd
000003c0: 9e86 cfbc cc88 053d 6312 943d dc4c 7c3d
000003d0: da05 003d 51fc a5bd 66c9 09bd fcf8 34bd
000003e0: 1437 e9bd 5311 2bbd 4e7c ce3c bdec 7dbd
000003f0: 22de e7bc a7cf 2d3d c0d1 483d 8f37 0c3d
0.010154449 0.024194151 -0.027731078 -0.016461458 -0.03769232 0.054448187 0.039787468 0.020424368
0.05702855 0.023283133 -0.04086578 0.08979826 -0.05493483 0.045975186 0.04902311 -0.04997659
0.06894917 0.068071246 0.033362225 0.07489633 -0.031360004 -0.041068688 -0.08202984 -0.009374091
0.059269708 -0.02683999 0.050366078 0.073541515 0.04602128 -0.08304242 -0.0050386377 -0.053367764
0.034611862 0.046609122 0.07500507 -0.09123558 0.073898666 -0.0475862 -0.04369807 0.10755646
-0.026016561 0.052734144 0.020036692 0.0028878085 0.00422564 0.060423076 0.022878667 -0.025182541
-0.0057536066 0.015631055 0.043051332 -0.09660539 -0.029933535 0.050866675 0.035214107 0.024985552
0.017726732 0.011642072 0.07178797 -0.029348249 -0.016661607 -0.0658215 -0.0071399114 -0.0001867783
-0.054537192 -0.026514407 0.0763893 -0.020802977 0.05154085 -0.05713589 0.04736687 0.03821403
0.09244313 0.036654927 0.06407583 -0.03867726 -0.063937865 -0.021779152 0.0057466407 0.022293735
0.054827444 -0.09963019 -0.042217646 -0.03757938 -0.014191746 0.0066919634 0.066342704 -0.03680675
0.024862302 -0.058885075 0.014753589 0.063571095 0.13742773 0.036728602 -0.047143687 -0.10644191
0.09488753 -0.039605178 -0.07606027 0.08216909 -0.066688 0.01971663 0.29275078 -0.029023109
0.057503242 -0.07787666 0.06606613 -0.027811563 -0.0009306816 -0.045219194 0.018544078 0.0692458
-0.07355048 0.04628167 -0.025406187 0.031037036 0.04409429 0.04156833 -0.08377735 0.067036994
-0.028261462 -0.07924686 0.0803088 0.007661098 0.06322874 0.0025086312 0.056990046 0.028382951
-0.050684486 0.024964314 -0.039232202 -0.03853586 0.016651578 0.011712864 -0.07558847 0.019424913
0.061939627 -0.043461643 0.058311943 0.01702197 -0.07779789 0.056835372 0.032034963 0.101531416
0.010844858 0.0011683643 0.053729482 0.0019116845 0.05888502 -0.0362121 0.061230112 -0.07182004
0.010896056 -0.028750943 -0.05711761 0.02747125 0.06701062 0.03944055 -0.050156318 -0.059951056
0.016495364 -0.037440073 0.01464257 0.06007681 0.023084683 -0.029056244 -0.04159446 0.04815837
-0.05617754 -0.062072475 -0.00082655495 0.052110627 0.058191616 0.0012204078 -0.029389309 -0.08663576
-0.015182396 -0.043337125 -0.022515325 -0.038457695 -0.032694545 0.0187898 -0.06138689 0.04827063
-0.022308422 0.0031765732 0.027371855 0.031978946 -0.021341167 0.047394373 0.028042058 0.01738881
0.019311195 0.010953659 0.078733675 0.084277496 0.051288225 0.110440046 0.013667465 -0.0075548273
-0.012086873 0.03565729 -0.024077794 0.10426429 0.073244475 0.012663504 -0.014260555 -0.050323043
0.04523653 0.037471753 -0.061284315 0.04901175 0.06276292 -0.0041891644 0.031545904 0.05664063
-0.015621797 -0.004927661 -0.08388556 -0.0665413 -0.083794415 -0.0062619434 -0.060448557 0.025234235
-0.08244862 0.03618851 0.015050197 0.016242838 -0.070240565 0.041104667 0.16453524 0.011168484
0.08410241 0.03849063 0.019360762 -0.0019553204 -0.107597396 0.045579378 -0.02325165 -0.06976469
-0.025332745 0.032601163 0.072300695 0.061596736 0.03125558 -0.08104766 -0.033639334 -0.044182763
-0.113874584 -0.04176457 0.025205757 -0.06199335 -0.028304163 0.04243436 0.04902816 0.034232672

layers.6.bias f4 [6]
00000000: d452 4e3d a7dc 883d c446 423e 5b24 083e
00000010: ab36 f33d bfba 053e
0.05037196 0.06682711 0.18972307 0.13295119 0.118756615 0.13059519
