DRL/bocchi/result/dqn_model.pth (torch, 302543 bytes, 8 tensors)

layers.0.weight f4 [128, 54]
00000000: 5831 fbbe 92a5 3c3e 4214 de3d 84de 8c3d
00000010: b563 c0be c22b c6bb 9ec5 68bd 4f6c a43d
00000020: a356 9d3d 20f3 61bc abd2 2f3c 0f74 a0bc
00000030: 618e f5bd 69b1 0fbd 4fab 213b b64c b1bd
00000040: 918c dc3d 7fde fe3c 13ea f4bd 4520 cbbd
00000050: 5dfe 363b a894 d83d b109 38bd b431 b33d
00000060: 99b5 9bbd 7934 bb3d db0f 9f3d 2244 d5bc
00000070: eeeb 3b3d cb59 b8bd 268e 463c ab81 6abc
00000080: 6fa2 debb d075 d5bd 6238 8b3d c5a6 d83b
00000090: 1246 d23c 6443 a43d a28c c63d 1c5f e63d
000000a0: bd6a 233e 75bd a1bd 3da4 4e3d a88c cbbd
000000b0: d61b 8ebd 365a 08bd 43cd e93c 7e97 fa3d
000000c0: b72b 193e 6243 64bd 2ab1 0f3e 2408 4e3d
000000d0: 1778 98bd 00e2 cfbd 36c7 2f3f ef65 5d3e
000000e0: e515 4abd a8fe 473d 7016 d8be 3fff 1abe
000000f0: 5641 c93d 4a9c 4f3d c689 5dbd ce99 143d
00000100: b5f4 e43d ca2e b7bd dcf1 183e 1f79 8dbd
00000110: 838b 063e 705b 063e f592 e43d 775c c4bd
00000120: ed55 cb3d dc1d 7e3d 4c53 1a3e 0d0a 3a3d
00000130: 7525 1ebc a874 e23c 00fa 353d ebc5 6d3d
00000140: 6225 03bc 360e c8bd c45d 19be 669b 423d
00000150: 2a8c 843d 917d dfbd 0640 02be f3a5 17bd
00000160: c3cf 493c 3f56 2abe 98cb 3abe 9e5d 083d
00000170: 5254 ca3d 9178 99bd ebc0 ed3c b1cf 113e
00000180: 608e 7bbd f3ce c9bc 65ec d73d 6fb0 0a3e
00000190: a1d6 9bbd c7bd 34bd 2b0c 213e 9467 83bd
000001a0: 385b e53d 4aee 11bd 6575 ab3d 0694 d33d
000001b0: a412 08bf 35b4 f6be ff69 5bbd d929 d23d
000001c0: a881 9ebd 0549 80be 09e8 d2bd 9e6b 383d
000001d0: d491 d8bd ce87 9abb c952 b2bd e619 e83b
000001e0: 3f7d 08bd b18f 583d c87a 8d3d 81a3 aabd
000001f0: 9059 053b 19f4 eabd 3323 f23d 1e45 8b3c
00000200: e361 a83d db9c cc3d 4aff 12bd 39ff e13d
00000210: 9387 fe3d 4d01 083e bccc b63d 3369 263e
00000220: d2f2 f93d 0105 483e 2b1a 283e ed84 35bd
00000230: e24a 3b3c 2b99 16bc 8238 e33d ad42 463e
00000240: f7a5 e93b 1c75 82bc 17cc eebb a971 543d
00000250: d00d 003e cba1 e9bc 6078 1abd e538 163c
00000260: 3d01 17bd fcae 783c 3e7a c03d 9cd2 2d3d
00000270: 51f1 a1bc 7eb2 5d3e 3bc7 463e 9fbe f8bc
00000280: 9d38 f53c e3d5 d83d 8690 ff3d 1a3c c13e
00000290: cba4 fdbd 9b93 bcbc ac13 babe 2576 cbbe
000002a0: 88a4 af3d ff4f 70bd e988 c2bd 4645 e1bd
000002b0: 0eed a8bd 8989 063e e760 56bd b408 063e
000002c0: 85b3 e73c ac74 343c 3293 863d 9b2a 8cbc
000002d0: 6550 083e b0b0 4abd 74ef e13d bbf1 b9bd
000002e0: 8c7d cabd 16cb a33d c02f 16be 82c5 97bd
000002f0: 528c 28bd 8374 853d 71d5 3c3d 03dc a73d
00000300: 1fa1 c9bd e4eb 05bd 6cef a3bc bbe3 02be
00000310: 2bfd 8c3d a9cc 2dbe 8110 833d c306 b4bb
00000320: c7ef be3e d1dc 7b3e bbca ab3e 71e0 9f3e
00000330: 942b 683e 38cc 953e 5f6e bd3e a5c7 ce3e
00000340: 1668 9a3e ff57 cb3e 5035 7f3e 92d6 7a3e
00000350: d261 a73e 1303 ca3e 6055 ba3e 770e a23e
00000360: 3192 153f ba12 a53d 56f7 19bc 0754 24be
00000370: 994a 0b3e 089f 713e 03e7 41be f867 f6bd
00000380: 0cc4 44bd feb1 363c e57e 16be 67a1 1e3d
00000390: f7e0 1bbb 5a69 febd 5687 aabb ee0d 833d
000003a0: 3220 15bd 6233 06be 7aba 88bd 2fc2 64bd
000003b0: a5cd a8bb fbc6 a13d 9085 5bbe ceab 68be
000003c0: 767d 74be 1de3 66be 8558 95be c286 efbd
000003d0: d386 c0bd ca92 ffbd 2591 33be e131 12be
000003e0: f3e1 19be 244b 4bbe 91ec b8bd f13e 7fbe
000003f0: 6411 75be efbe 89be 1a03 86bb 2101 203d
-0.49061084 0.18422535 0.108437076 0.06878379 -0.3757607 -0.006047697 -0.056829087 0.08028471
0.0768254 -0.013790876 0.0107313795 -0.019586591 -0.11990047 -0.0350813 0.0024668758 -0.086572096
0.107689984 0.031111954 -0.119587086 -0.09918264 0.0027922608 0.10575229 -0.044931117 0.087497145
-0.076029964 0.09140868 0.07766696 -0.026033465 0.045879297 -0.09001502 0.012118852 -0.014313142
-0.006794266 -0.104228616 0.067978635 0.0066116774 0.025668178 0.08020666 0.09694792 0.112486094
0.15958686 -0.07897464 0.0504496 -0.099389374 -0.06938903 -0.033289157 0.02854026 0.12235926
0.14958082 -0.055728324 0.14032426 0.050300732 -0.0744478 -0.10150528 0.68663347 0.21620916
-0.049337287 0.048826844 -0.42204618 -0.15136431 0.09826915 0.05068616 -0.05408647 0.036279492
0.11179487 -0.08944471 0.14936012 -0.06907868 0.13139157 0.13120818 0.11160842 -0.09587949
0.099284984 0.062040195 0.15070838 0.04541974 -0.009652485 0.027643517 0.04442787 0.058050077
-0.008004518 -0.097683355 -0.14977175 0.04751148 0.06472047 -0.10912622 -0.12719736 -0.037023496
0.012317601 -0.16634463 -0.18241727 0.033292405 0.09879364 -0.07493699 0.029022655 0.14239384
-0.061415076 -0.024634814 0.105431356 0.13543867 -0.076092966 -0.0441263 0.15727298 -0.0641624
0.11199039 -0.03562764 0.083720006 0.103309676 -0.53153443 -0.48184362 -0.053567883 0.10261888
-0.07739574 -0.2505571 -0.102981634 0.045024507 -0.105746895 -0.004715896 -0.08707196 0.0070831655
-0.03332257 0.05287141 0.06908184 -0.08331967 0.0020347573 -0.11472339 0.1182312 0.017000731
0.082217954 0.09990855 -0.035887994 0.11035008 0.124282025 0.13281746 0.08925769 0.16251068
0.122045174 0.19533159 0.16416232 -0.04431622 0.011431428 -0.0091917915 0.110947624 0.19361372
0.0071303803 -0.015924983 -0.007287513 0.051866207 0.12505269 -0.028519532 -0.037712455 0.009168838
-0.036866415 0.015178438 0.09398316 0.04243718 -0.019768389 0.2165012 0.19411938 -0.030364333
0.029934222 0.10587671 0.124787375 0.37741166 -0.123849474 -0.023019603 -0.36343133 -0.39738575
0.08576304 -0.05867004 -0.0949877 -0.10999541 -0.082483396 0.13138403 -0.052338507 0.13089257
0.028283844 0.011014145 0.06571044 -0.01711016 0.13311918 -0.04948491 0.11032 -0.090793096
-0.098872274 0.0799772 -0.14666653 -0.074107185 -0.041149445 0.065163635 0.04610199 0.08196261
-0.098451845 -0.032695666 -0.020011626 -0.12782185 0.068842255 -0.16972603 0.06399632 -0.00549397
0.3729231 0.24595954 0.3355311 0.31225923 0.22672874 0.2925737 0.3699827 0.40386692
0.30157536 0.39715573 0.24922681 0.24495915 0.32691818 0.3945547 0.3639326 0.3165166
0.58426195 0.080602124 -0.009397348 -0.16047679 0.13602675 0.23595822 -0.1893578 -0.12031549
-0.048038527 0.011150835 -0.14696844 0.038728144 -0.0023785213 -0.12422438 -0.0052041216 0.06399141
-0.036407657 -0.13105538 -0.066761926 -0.05584925 -0.005151468 0.07899281 -0.21437669 -0.22721788
-0.23875985 -0.22547574 -0.29169098 -0.11695625 -0.09400716 -0.1247917 -0.17535837 -0.1427684
-0.15027599 -0.19852883 -0.090294965 -0.24926354 -0.23932415 -0.26903483 -0.004089725 0.039063577

layers.0.bias f4 [128]
00000000: d9a2 06bd 3d54 8ebc 7ecf 41be 275e 373c
00000010: 5951 0b3e 813a 55bc e16a 763d 3254 f73d
00000020: 6b53 743d 78c5 523e 5732 6b3d 8d18 05be
00000030: 9e8c 5cbe 911c 9e3d 9c39 173e d486 33bc
00000040: 7ce7 3d3e 52cb 82be 8085 8bbe 343b 3e3e
00000050: 9ff9 58bd a37a 143e 1ab9 41be 2217 7f3d
00000060: 902e 1bbe 6a41 debd 6c3b 213e f3ef f0bd
00000070: 2221 ac3d 58d3 5bbd 1c69 48be e36f ea3c
00000080: c352 0cbd 85af 863e c1be 09bd ce94 6cbd
00000090: ffc4 13be 1622 543d 6c33 d8bd b74d 3c3e
000000a0: fe78 933c ff44 9d3d 42b6 c2bd 0046 383e
000000b0: 3b09 c8bd be4d 86bd 4f89 863d 9ac0 963b
000000c0: 27d6 6bbe d27a 0abe d958 223c ab8d 3d3e
000000d0: f1a1 67be 43dd a2be 4718 6cbe c5ff 3fbd
000000e0: 86c5 ab3d 19f3 e93d b07e 6b3e ab9a d13a
000000f0: 55d3 a73d d901 003e 6950 8a3b dd5d 3d3d
00000100: 7070 12be c714 f83d a287 863e d492 053e
00000110: d75c 53bd fc4c 8abe b267 5fbd 23d8 9f3b
00000120: 5845 b3bd e703 2ebe d9d1 843e 54d4 ed3d
00000130: b454 4b3e 8208 f13b c2fe 4e3e 234e 963e
00000140: 84c6 e5bd 54da 38be db48 863d 76f2 1c3e
00000150: e373 52bc 5b95 1abd 6e7b 67be 0590 663e
00000160: bf78 bcbd 57d9 383b 72e1 f4bc 9e74 92bd
00000170: f141 82bd bea6 d43c 9d75 bbbd 9edd 363e
00000180: 0bae 68be 08d0 ddbd 3182 e33d 0d7a e33c
00000190: 32f2 adbd e56a 833d 3cd3 61be 1cca 2ebe
000001a0: fef0 4d3e eb8b e93d 54f1 aa3a 2da0 533d
000001b0: 8990 6f3d d8e7 9f3d d3db 543c 39ba 283e
000001c0: 13ba 05be 9aee 1bbe 7ae5 afbd e19c 87bd
000001d0: f032 b43c 9fab 0f3e 3e9c ecbd 598b 363e
000001e0: ae9f 6dbe 6e5d 973d 07a6 043e 0cd2 ac3d
000001f0: d0d9 95bd 31ad 31be cb77 6a3e e372 773d
-0.032870147 -0.017374152 -0.18926808 0.011191881 0.1360525 -0.013014437 0.06016052 0.12076606
0.059649866 0.20583141 0.057421055 -0.12997647 -0.21538016 0.07720292 0.1476807 -0.0109574385
0.18545336 -0.25545746 -0.2725029 0.18577272 -0.052972432 0.14499907 -0.18918267 0.06227792
-0.15154481 -0.108523205 0.15745324 -0.11764517 0.08404757 -0.05366835 -0.19571346 0.028617805
-0.034258615 0.26305786 -0.033629183 -0.0577591 -0.14430617 0.05179032 -0.10556683 0.18389021
0.01800203 0.076791756 -0.09507419 0.17995453 -0.097673856 -0.06557797 0.06569158 0.0046005966
-0.23030911 -0.13523415 0.009908878 0.18511073 -0.2262037 -0.31809434 -0.23056136 -0.04687478
0.08387284 0.1142332 0.22997546 0.0015991529 0.08194605 0.12500705 0.0042210114 0.046232093
-0.14300704 0.12113338 0.26275355 0.13044292 -0.05160221 -0.2701186 -0.05454225 0.0048780604
-0.08753461 -0.16993676 0.2594135 0.11612764 0.1985653 0.0073557505 0.2021437 0.2935649
-0.112195045 -0.18052036 0.06556865 0.15326867 -0.012845012 -0.037740093 -0.22605678 0.22515877
-0.09202718 0.0028205717 -0.029892657 -0.07151149 -0.063602336 0.025958415 -0.09153292 0.17857978
-0.22722642 -0.108306944 0.111088164 0.02776816 -0.08493461 0.06416873 -0.22053236 -0.17069286
0.20111462 0.1140364 0.0013041892 0.051666427 0.05848745 0.078078926 0.012991863 0.16477288
-0.13059263 -0.15227738 -0.08588691 -0.06621719 0.021996945 0.14030312 -0.11553238 0.17826594
-0.23205444 0.07390867 0.1295396 0.08438501 -0.07316935 -0.17351224 0.2289726 0.0604123

layers.2.weight f4 [256, 128]
00000000: c66d c3bc 349a 983e e93c 74be 7c8e 743e
00000010: 30c2 54bd 822f 0e3e 25a1 733e 6809 383d
00000020: c81f efbb 68d5 ed3d dec1 00be 5936 33be
00000030: b347 58be 19c5 a93d 388d efbc f1e3 273d
00000040: 4742 18bc 3712 d9be 9a5c 34bf 783f 293f
00000050: 68b0 abbd fb6c ed3d 56e0 e9bd 93b0 9e3e
00000060: 2ae1 2cbe a95f 673c 623e 063e 9534 73be
00000070: d921 a6bd b874 b83b a705 57be badb 703e
00000080: 687c 833e f79a 993e 5df4 013f 2f34 e53c
00000090: 6351 2ebe 6698 80bd 1e30 ec3d 2113 bb3e
000000a0: 70a6 6bbe 4238 c2bd 2e1b 18be 3a6a 2e3e
000000b0: 03e5 3cbe e5ac 393d b766 2a3f 6f51 fdbd
000000c0: 7970 55be 80a3 e0be 7b1c bcbe 9e15 353c
000000d0: 170f fabe 2b64 6cbd 5318 9cbe 5ae3 6e3d
000000e0: 9393 99bd 73aa 093d 80dc 893e cf24 ea3d
000000f0: ff89 d2bd 02b3 9d3d 0c83 0c3e 3f37 943e
00000100: 3d26 163d e9a4 2f3f e5dc eb3d 3ea3 303e
00000110: a7d9 5bbf 5afc 353e 15cf fb3a df8f 413d
00000120: 6adc f13e 709d 86bc 8558 2e3e 11db 843e
00000130: e142 db3e 1f24 c8be c830 163e e568 023d
00000140: 1e20 7bbe c08b e0be adaf 9c3d 12d8 4e3f
00000150: 0610 0a3d 91ef fabd 51b4 43be b792 7f3d
00000160: 4ecc 26be deb8 c53c fe56 17be b0c1 23be
00000170: 3441 82be c4ee 1d3f 5dab 2bbe 041c a63e
00000180: 84fd 11bf b948 3ebe 1aab c83c 3cfe 63bd
00000190: 9760 e6be 5e71 db3c 64a4 a7bd bc0b ab3d
000001a0: d0b0 1c3c eb06 fd3d 6ce7 ddbc cd6f b03d
000001b0: f6af 013f 9ee6 6a3e b17f 12bd c3da 273e
000001c0: 0fac 123d 4138 d6bd 9645 07be 24fc 5a3c
000001d0: 8ad0 003c 9c49 60bd 2107 4b3e a039 0e3f
000001e0: 3932 b1bd 6e9c 99be 2dd1 803e 3da3 d53d
000001f0: 9702 80be 4eed 3cbe e546 583e 6de2 58bd
00000200: 8018 7bbd a899 733d aae7 d6bb 4a18 153e
00000210: ee4a 6d3d bb12 693e 98b3 483e 4eec 17be
00000220: 86b3 75bd 9781 873c b3dd 0fbe a6ad b7bd
00000230: b9c1 47bd 0e1f 1f3d 4ee7 16be b281 b3be
00000240: 547c b4bd 23e2 28bf c068 e4be 7cb6 3d3f
00000250: 504a e1bc 75e6 bf3d 4e10 39be 68df a03c
00000260: 4552 15be 16db b43d 0efb b13c 1552 01bd
00000270: 7acb cebd 2b02 943d e40e e0bd ca36 15be
00000280: a6b2 bc3b 37e0 0b3f 06da e93d 991b f33c
00000290: 05d0 a2be 48cc e8bc 20c8 813d 2ae3 b63e
000002a0: f41b cd3d 6d9f c4bd dd05 12be 44bb 923d
000002b0: 4982 57bc 8a31 afbc dafe ef3e a9d5 0e3d
000002c0: cc9a 53be cf31 65be c03d 5abe 9b15 453e
000002d0: 2ab9 f5be 1907 3bbe 3d14 09be 6a60 68bd
000002e0: 9bf2 323e f8d6 553d bf29 bd3e bc7b cc3c
000002f0: 125c 64be fe21 a33c 4294 c03d 43b6 8c3e
00000300: fd15 24be 124b bf3e bdae 4d3d 574f bf3d
00000310: 4004 0ebf 4d9e ec3c 3707 b83d f9af 463e
00000320: dfa7 2f3e 760c 4c3c d70e ca3d b1b4 2b3e
00000330: a32e 283e 2cba 86bd 1a70 2d3e af2e 10bd
00000340: 023a bdbe c0e4 ddbe 2291 c53c 24e8 0f3f
00000350: d90c 83bc 1285 e23c 51a5 e9bc 74ad 0abc
00000360: 6c05 58be 5816 4e3b 807b 9abc a891 66bd
00000370: 187e a5be 92e8 143f 2643 dabd c0e5 e53e
00000380: 2fef e0be f8af 7d3b 8cf1 47bd f2ab eabd
00000390: a95a 79be 7eea 6e3d c024 12be 57a5 10bd
000003a0: 90f9 873c 78db 3a3e 71e5 3fbd 08d6 043e
000003b0: b2f1 1b3e 5c97 cabd 523b 84bd 4460 fe3d
000003c0: 1aad abbd 82de d73c 3445 683d 9ede 0fbd
000003d0: d9f0 843c 0736 513d 16cc debc 1c09 c23e
000003e0: 81f8 4ebe a661 ceba c6a7 1bbd 50b8 833e
000003f0: 31cb c9bd 17a2 93bd 9c5f 653d 67fb f1bd
-0.023856055 0.29805148 -0.2385136 0.23882478 -0.051943004 0.1388531 0.2379194 0.044930845
-0.00729749 0.1161297 -0.12573954 -0.175012 -0.21121101 0.082895465 -0.029242143 0.040988866
-0.0092931455 -0.4239671 -0.704538 0.6611247 -0.08383256 0.11593052 -0.11419742 0.3099409
-0.16882768 0.014121928 0.13109735 -0.23750527 -0.08111925 0.0056291483 -0.2099825 0.23521319
0.25680852 0.3000104 0.50763494 0.027978985 -0.17023234 -0.06279068 0.11532615 0.36538032
-0.2301271 -0.094833866 -0.14854118 0.1703271 -0.18446736 0.0453309 0.6656298 -0.12369048
-0.20843686 -0.4387474 -0.3674048 0.011052517 -0.48839638 -0.057712715 -0.30487308 0.058322288
-0.07498851 0.03360982 0.2692604 0.11432802 -0.10280227 0.07700159 0.13721865 0.289484
0.03665756 0.6861101 0.11516742 0.17249772 -0.85878986 0.17772046 0.0019211496 0.047256347
0.47238475 -0.016432494 0.17025955 0.25948384 0.42824462 -0.39090058 0.14667046 0.031838316
-0.2452397 -0.4385662 0.07650695 0.8079845 0.033706687 -0.12252725 -0.19111754 0.062395778
-0.16288874 0.024136003 -0.14779279 -0.15991855 -0.2544037 0.6169245 -0.16764589 0.3244325
-0.5702746 -0.18582429 0.02449565 -0.05566238 -0.44995567 0.026787456 -0.08185652 0.083518475
0.00956364 0.12354835 -0.02708789 0.08615074 0.5065912 0.22939536 -0.035766307 0.16392045
0.03580862 -0.10459948 -0.13210139 0.013365779 0.00786222 -0.0547577 0.19826938 0.5555668
-0.08652157 -0.3000216 0.25159588 0.10431526 -0.25001976 -0.184499 0.21120794 -0.05295031
-0.061302662 0.05947271 -0.006558378 0.14560047 0.057932787 0.22761051 0.1959976 -0.14836237
-0.05998566 0.016541285 -0.14049415 -0.08968668 -0.048768733 0.038847975 -0.14736673 -0.35059887
-0.08812776 -0.6597006 -0.44611168 0.74106574 -0.027501255 0.09370128 -0.18072626 0.019637778
-0.14582165 0.0883085 0.021726158 -0.03157242 -0.10097404 0.07226976 -0.1094034 -0.14571682
0.0057586012 0.54639 0.11418538 0.029676246 -0.3179933 -0.028417721 0.06336999 0.35720187
0.10015097 -0.096007206 -0.14260049 0.07164624 -0.013153621 -0.021385927 0.46874124 0.03487173
-0.20664519 -0.22382282 -0.21312618 0.19246523 -0.4799283 -0.18264426 -0.13386627 -0.056732573
0.17475359 0.052206963 0.36945912 0.024961345 -0.22300747 0.01991367 0.09403278 0.27482805
-0.16024013 0.37361962 0.05021547 0.09341305 -0.55475235 0.028884077 0.08985751 0.19403066
0.17153881 0.012454143 0.09866112 0.16768147 0.1642404 -0.06578478 0.16937295 -0.03520077
-0.3695832 -0.43338585 0.024117056 0.56213593 -0.015997337 0.027651343 -0.028521212 -0.008464206
-0.21095818 0.0031446423 -0.018857718 -0.056291252 -0.32322764 0.58167374 -0.10657339 0.44901848
-0.43932483 0.0038709622 -0.04881434 -0.11458577 -0.2435099 0.058329098 -0.14271832 -0.03531393
0.016598493 0.18247783 -0.04684967 0.12972271 0.15228918 -0.09892151 -0.06456627 0.12420705
-0.08382626 0.026351217 0.056706622 -0.035124414 0.016228126 0.051076915 -0.027196925 0.37897575
-0.20211984 -0.0015745654 -0.038001798 0.25726557 -0.09853209 -0.072086506 0.055999383 -0.11815529

layers.2.bias f4 [256]
00000000: 442c 773e 2926 d63d 96e8 46bd 89e9 aabd
00000010: a1b7 973c 9d05 a93d 2cb4 163b b4e3 043c
00000020: 32b8 fd3d 7b01 843d f32a eabd 06f8 983d
00000030: df1d ffbd 7a20 8ebe ce86 603e 9c69 783d
00000040: d6bf bd3b 66ec f0bd b314 3c3c 7552 be3d
00000050: abd5 19bd 0b16 093b befd aebd 957c ab3d
00000060: c7a4 f9bc 8808 9cbd 3c3a b63d 96e4 cebd
00000070: 5e00 d93d e9a3 bdbe 8bc6 893d 8716 353d
00000080: dd46 25be db35 4b3d 7048 413d 17eb 37be
00000090: 704b 05be de23 6f3e c6d5 c63d 1054 083d
000000a0: e105 8b3d c481 75be dd34 f63d 4144 e2bc
000000b0: bf12 09bc 712f 9e3c 2d5d 71bd 141a 703e
000000c0: 65c1 073d 5a68 fe3d 0e1e 873c 01ca 2f3e
000000d0: 8175 b13c bf03 ccbd bc2b 76bc 1b11 60bd
000000e0: 2d1b 89bc fa33 fe3c 59e1 8f3d 471e 243d
000000f0: 5413 8c3d b70e c7bb 02c6 10be f151 f1bb
00000100: af4f 083d fc23 523e f60d 77bd 3f70 00be
00000110: 948b 54bd f425 f73d 84d2 09bd bf65 b53d
00000120: 1688 2b3e a7c3 9dbd 1328 07bd 2ea7 13be
00000130: 5ce5 66be cb2d 253e 0cbc 9cbd 095d e3bd
00000140: 604d ad3c f257 94be 37bc 673e 4ec8 c1bd
00000150: b4b3 8c3c 9a28 cf3d a6d0 bcbd 96cf cd3d
00000160: 1717 133d a3e9 a63e 0a25 163c 84cf 19be
00000170: 2db8 4fbd 594d 123e 8921 17be c4e7 c33d
00000180: 340b adbd 1f26 8e3d eca1 6abd cf08 883d
00000190: e829 08be 1acf 2dbe 3b8a 4b3e ecb3 453a
000001a0: 67af d73d 541c 083d 17ea 00bd bff7 4e3e
000001b0: 5acc 88bd 8587 373e ed15 1bbd a819 703d
000001c0: 5910 823d 8309 b3bd 1fae 87bd 1b41 883e
000001d0: eaed 203d eb86 b0bd 1679 1d3e 0c25 b23d
000001e0: 355e f0bd c249 303e a80a cebd b26c db3d
000001f0: d1d7 eb3c 6673 613c dfbe acbd 0a87 7e3e
00000200: c8ae a1bd 6d20 d23d c519 873d 8e64 f13d
00000210: c02c 24be 91b1 1d3e 1cd8 07bd 6182 f13d
00000220: bf4f 13bd 2781 e4bd 9d52 f7bc 6ea5 78bd
00000230: 51bf 15bd 8dc0 40bc a080 15bd 74ca f7bd
00000240: 329a b3bd 06b9 113e 34ae 093e 8dec 2c3e
00000250: 7023 06be 2b3a 4ebe bb47 10be 969a 82bd
00000260: 2db9 103e 30dd 703d 1fb4 173e a828 6fbe
00000270: 118b b4bc 61ae 413e 5f77 9bbc 8a09 04be
00000280: a25d 3f3e 3435 0fbd 00e5 fbbd af7c e43d
00000290: 292f 563c 8283 153d c6d7 e2bd 8e69 b6bd
000002a0: 8bd4 e23d 3fb7 acbd 47db a43d 9d2e 16be
000002b0: c480 87bd a8be 38bd b0b9 6abe 53a9 063e
000002c0: 7e7c 6ebd 9e8f 983d 2628 32bd 0994 06bd
000002d0: fb32 fe3c 3f80 f83d 07a2 dc3d 7d4f 653d
000002e0: d99d 0abe a267 7f3d 9b9a f0bc f07f ac3d
000002f0: 8caf d13e e8dc 98bd dfb9 a6be 04e2 1f3e
00000300: 5d4f 063d 52bc fc3d 208f eabe a234 8bbd
00000310: bca5 85bd 9d2c a6bc ae74 113e cc67 50bd
00000320: a62f 16be d97b 273e d117 12be bfb9 17bd
00000330: de06 15bd 255e 2ebe cc81 803d 6c2a 04be
00000340: 2a73 9fbd af54 bbbd 46c6 5a3a 8e11 233e
00000350: 96a4 a4bd 0792 b83d f125 ebbd d69f d8bd
00000360: b23b 253c 295a 10be c160 3bbf e8f3 e3bd
00000370: 3449 ebba 4e4e e53e cc79 cfbd ba32 35bc
00000380: 9ce2 a1bd b41c 2bbc 857c 9c3d 90c7 1bbd
00000390: d8b9 b2bd bddc eabd 9e3a 8ebd 3722 263a
000003a0: 99ad 87be 0b50 0abd 5e8c 3ebd 5160 0c3d
000003b0: a71d 89bd 4981 bfbd 8943 c3bc 1ad4 373e
000003c0: e837 c83d 8d4d 143d 262e 4dbe 06cd 29bd
000003d0: c615 63be 7ea9 9a3e 3cc5 80bd 1749 993e
000003e0: 771f 963d 5229 613d a3e6 8fbc f44b dc3d
000003f0: 4f14 343d 263b d7bd c40c abbc b956 2abe
0.2413798 0.10456497 -0.048561655 -0.083453245 0.018520178 0.08253024 0.0022995574 0.008110929
0.12388648 0.06445595 -0.11433973 0.07469182 -0.12456869 -0.27759153 0.21926424 0.060647592
0.005790691 -0.117638394 0.011479544 0.09293071 -0.037557285 0.002091768 -0.08544491 0.083733715
-0.03047408 -0.07618815 0.08897826 -0.10102193 0.10595773 -0.37039116 0.06727322 0.044210937
-0.16140313 0.049611907 0.047188222 -0.17960773 -0.13017058 0.23353526 0.09708743 0.033283293
0.06788231 -0.23975283 0.120218016 -0.027620437 -0.008366286 0.019309731 -0.05892675 0.23447448
0.03314342 0.12422247 0.016493823 0.17166902 0.021662476 -0.09961652 -0.0150250755 -0.054703813
-0.016736591 0.031030644 0.070254035 0.040067937 0.06839624 -0.006074752 -0.14138034 -0.0073645045
0.033279117 0.2052154 -0.06031605 -0.12542818 -0.051890925 0.12067786 -0.03364803 0.08857297
0.16751131 -0.07703333 -0.032997202 -0.14419243 -0.22548431 0.1613075 -0.076530546 -0.111017294
0.02115506 -0.28973347 0.22630392 -0.09462033 0.017175533 0.10115166 -0.09219484 0.100493595
0.035910692 0.32600126 0.009164104 -0.15020567 -0.050712753 0.14287318 -0.14758886 0.0956569
-0.084494025 0.06940865 -0.057283327 0.06642305 -0.13297236 -0.16973534 0.1987695 0.0007541764
0.10531502 0.03323014 -0.031473245 0.20211695 -0.06679602 0.1792279 -0.037862707 0.058618218
0.06350774 -0.087420486 -0.06625008 0.26612172 0.039289393 -0.086194836 0.15378222 0.086984724
-0.117367186 0.17215636 -0.10060626 0.10714091 0.028789433 0.013760423 -0.08434843 0.24856201
-0.07894665 0.10260091 0.06596712 0.117867574 -0.16032696 0.15399767 -0.033165082 0.11792446
-0.035964724 -0.11157446 -0.03019076 -0.06070464 -0.036559407 -0.011764658 -0.03649962 -0.12099162
-0.08769645 0.14230737 0.1344536 0.16887112 -0.13099456 -0.20139377 -0.14089863 -0.06377141
0.14133139 0.05880469 0.14814804 -0.23355353 -0.022038968 0.18914177 -0.018977819 -0.12894264
0.18688062 -0.034962848 -0.12299538 0.11156594 0.013072767 0.03650237 -0.11076312 -0.08906852
0.110756956 -0.08433389 0.08049636 -0.14666219 -0.06616357 -0.0451037 -0.22922397 0.1315053
-0.058224194 0.07449268 -0.04349532 -0.03285602 0.031030169 0.12133836 0.10773092 0.05598401
-0.13536777 0.06235469 -0.029370597 0.0842284 0.40954244 -0.074640095 -0.32563683 0.15613562
0.03279053 0.12340607 -0.4581232 -0.06797148 -0.06525752 -0.020284945 0.14204666 -0.05088024
-0.14666614 0.16355838 -0.14266898 -0.037042376 -0.036383502 -0.17028101 0.06274757 -0.12906808
-0.07785638 -0.091470115 0.0008345585 0.15924665 -0.08039205 0.090122275 -0.11481846 -0.10577361
0.010085033 -0.14096893 -0.7319451 -0.11130506 -0.0017950893 0.44786304 -0.10130653 -0.011059457
-0.079045504 -0.010443855 0.07640938 -0.038032115 -0.08726853 -0.11467884 -0.06944774 0.0006337496
-0.26499632 -0.03376774 -0.046520583 0.034271542 -0.06695109 -0.09350831 -0.023835914 0.17952004
0.09776288 0.03620677 -0.20037135 -0.04145529 -0.22176275 0.30207437 -0.062876195 0.29938576
0.0733022 0.054971047 -0.01756603 0.107566744 0.04396468 -0.105093285 -0.02088011 -0.16634645

layers.4.weight f4 [128, 256]
00000000: cdba 1cbf d29b 9fbe e66b b93d d2b9 b3bd
00000010: f335 c4be 87e2 0abf 0b83 9bbe e4ad 573e
00000020: 1321 a6be 139e 043e 6bc6 5bbe de7a a7be
00000030: 0a96 ccbd 1cde bdbe 69ff 083e a467 19be
00000040: b9d4 9dbd d154 e93d fada 59be c7e8 40bd
00000050: 0363 953d 0ed9 6abe 6a86 5fbd aaf8 09be
00000060: 098f 273d 7477 8dbc 42d9 e8be 9d78 073e
00000070: 48e3 8d3d 08cb 92bc 2fdf 30be 1bf1 953d
00000080: 6514 ab3e f446 81be daeb 6cbd fec2 623e
00000090: 1f8f 1f3f 9eae 84be ae5c bfbe 15b7 9abd
000000a0: 24b5 e1bc 39dd af3e 8648 d9bd 4f3e 063e
000000b0: bc7e 593e b62e 20bb 1d90 d83c 6a45 d6bd
000000c0: 015a edbc 32d6 dc3c f6d3 eb3c d3fd 15be
000000d0: 5210 1abe 48db 0a3d 5601 223e 1b38 47be
000000e0: dd13 333c aa4d 87be a16e c7bd 7e3c 5dbe
000000f0: cd73 0dbe b350 df3d 583e 393e 18c0 10bd
00000100: 8817 5a3e bce6 13be 765e 38be 9d73 7a3e
00000110: 84f7 e8bd 6551 2abe 5c52 403e 5615 1dbd
00000120: fc16 dfbd ce64 14be 3e34 683e 9230 bf3c
00000130: 7159 07be 71e0 bcbd 14a5 333d fc6a 00bd
00000140: a006 89bd 9e6c 1cbc ae7b febd 3e1f 143e
00000150: 39b6 e9bd cd6b abbd 03ef 8a3d 4d51 00be
00000160: 7b89 78be da93 cf3a 6c3e 1d3e cc19 7f3e
00000170: 06c9 223e d516 c23e 8678 3f3e 18a9 54bd
00000180: a332 8e3e 9ab5 893e 349a 56be 7823 07be
00000190: efb4 f0bd 2956 6d3e 8e25 c2bb 01a9 45bd
000001a0: 91dd 90be 87b6 1dbe 747e 9f3d 919d 0ebe
000001b0: 75cc e13d dc12 1fbe 3b0f a2bd 1f70 a5be
000001c0: 2bd7 8bbc f055 c4bd 0d72 9c3e 432b 7c3e
000001d0: 6afd 9ebb 1454 ed3d ab4f 12be a4d7 bfbd
000001e0: b07d ff3c 1925 6bbe 7152 9d3e 23f9 83be
000001f0: 3cfb 99bc 8c6e 023e 3c77 663e ae9a 403e
00000200: 80a3 843d 1abf 38be 1d17 023e c084 a5bc
00000210: da24 e93d d53d f93d 157d 84be 3ff2 debd
00000220: a004 903e 8824 f93e 9736 7fbe 0c7e 0d3e
00000230: b833 a13e 72ae 073f 7519 33bc 4bc2 3fbd
00000240: d1e2 d93d 8423 8dbe adc5 813d eff7 67be
00000250: 3696 873e 98ba 0a3f 866b 6d3d 67a3 b93d
00000260: 4a35 92be 1c81 d73d 0f38 6bbe 6f96 1a3f
00000270: 67a6 a53e 85c8 bf3e 4dba a4bd f7ff 34be
00000280: 0289 7abe 9c9c 63bd 6865 61be 37b7 763d
00000290: 0720 d3bd 7457 e9bd 9aad 993d 356c b5bc
000002a0: 50fa 8abe d452 05be 5971 38be bb70 c23e
000002b0: f749 c7bb c47a 8f3e 6087 463e b510 27be
000002c0: 7d0d a93e ae0d 8bbe 4458 59be 0ffe bb3d
000002d0: 771f cd3d 4a60 6d3c f3c6 a2bd 02a9 e43d
000002e0: a954 28be 048a efbd 289b 80bd a5bc c5bd
000002f0: 72bf 97bd eea8 723e 0452 883d 8144 5dbc
00000300: fba4 2bbe 469d 21bf d773 bbbd dee0 5b3e
00000310: 286d a03e 49b8 f0bd b31d a0bb 92ac 8e3d
00000320: c4d7 5abd a810 c6bd 383b 003f 602c 443c
00000330: 9517 e83d 153f f23d cf27 10be 6258 f0bd
00000340: 71c4 c4be f13a 1a3c 3698 753d 551c 08be
00000350: ff8f a5bd 44b4 413e ab7f 603e 1d0e 503e
00000360: 7e45 8dbb 078a cd3d 529e 9a3d fcab 7e3e
00000370: 66ee 42be e5d1 e0bd b5e0 0abd c8f0 813d
00000380: 624b 9b3e cfc8 96bc a179 0cbd 5b32 b33c
00000390: 3822 56be 8435 c23d b99c b5bd 07e0 babd
000003a0: e9ed 10bd e1e7 493e 7770 34bc 4ba6 563c
000003b0: 26ac cf3d 2a13 c03d 7816 72bd 6354 91be
000003c0: de47 36bb f57d cb3d 6f46 053e 3aa5 023e
000003d0: 5016 1d3e 51b4 edbd 43fd 90bc 660e 173c
000003e0: a6f6 27bd 7154 42be 1c0b be3d 735e ca3c
000003f0: 7493 11be 7379 633d b255 aebe 5841 d43d
-0.61222535 -0.3117357 0.09053783 -0.08775677 -0.3832241 -0.54251903 -0.30373415 0.21062428
-0.3244711 0.12950926 -0.21462409 -0.32710928 -0.09989555 -0.37083519 0.13378681 -0.14980942
-0.07706589 0.113931306 -0.21274939 -0.047096994 0.072942756 -0.22934362 -0.054571547 -0.13473764
0.040907893 -0.017268874 -0.45478255 0.13229604 0.06928116 -0.017919078 -0.17272638 0.07321378
0.33413997 -0.25249445 -0.057842113 0.22144696 0.6232776 -0.25914472 -0.37375396 -0.075544514
-0.027552195 0.34348467 -0.10609536 0.13109706 0.21239752 -0.0024441904 0.026435906 -0.104624584
-0.028973581 0.026957605 0.028787594 -0.14647608 -0.15045288 0.03390053 0.15820822 -0.19454996
0.010930029 -0.2642644 -0.09737898 -0.21605107 -0.13813706 0.10904064 0.18090189 -0.035339445
0.21298039 -0.14443487 -0.18004784 0.24458165 -0.11375335 -0.16632612 0.18781418 -0.038350426
-0.10893056 -0.14491579 0.22676179 0.02333859 -0.13217713 -0.09222496 0.043858603 -0.03135203
-0.06690717 -0.009547381 -0.12425934 0.14465043 -0.11411709 -0.08370171 0.06783869 -0.12531014
-0.24271195 0.001583691 0.15355843 0.24912184 0.15896997 0.37908044 0.1869832 -0.051919073
0.27773008 0.26896363 -0.20957261 -0.13197124 -0.1175326 0.23177399 -0.005924887 -0.048256878
-0.28294042 -0.1540166 0.07787791 -0.13927294 0.11025325 -0.15534538 -0.07913061 -0.32312104
-0.017070374 -0.09586704 0.30555764 0.24625878 -0.0048519867 0.11588302 -0.14288203 -0.09367302
0.031187862 -0.2296337 0.3072696 -0.25776014 -0.018796556 0.12737483 0.22506422 0.18809006
0.06476498 -0.1804165 0.1270413 -0.020204902 0.11383982 0.12169997 -0.2587668 -0.108860485
0.2812853 0.48660684 -0.24923168 0.13817614 0.3148477 0.5300056 -0.010931362 -0.04681615
0.10638965 -0.2756616 0.06336532 -0.22653173 0.2648179 0.5419097 0.05796387 0.0906437
-0.2855628 0.105226725 -0.22970603 0.60385793 0.32353517 0.37457672 -0.080433466 -0.17675768
-0.24466327 -0.055569276 -0.2201134 0.06023332 -0.10308843 -0.113936335 0.07503815 -0.022146324
-0.27144098 -0.13019878 -0.18011989 0.37976632 -0.0060818153 0.2802335 0.19387579 -0.16314967
0.33018103 -0.27158874 -0.21225077 0.09179317 0.10015767 0.014488289 -0.07948103 0.11165048
-0.16438545 -0.11696246 -0.06279594 -0.09655122 -0.07409562 0.23697254 0.06656268 -0.013505102
-0.16762154 -0.63130605 -0.09152954 0.21472499 0.3133328 -0.117538996 -0.004886353 0.06966509
-0.053428426 -0.09671146 0.5009036 0.01197347 0.11332623 0.11828438 -0.14077686 -0.11735608
-0.38431123 0.009413467 0.059959613 -0.13292058 -0.08084106 0.18916422 0.21923701 0.20317884
-0.0043112626 0.10036092 0.075497285 0.24870294 -0.19036254 -0.10977534 -0.033905704 0.063447535
0.3033095 -0.0184063 -0.034295682 0.021874597 -0.20911491 0.094828635 -0.08867783 -0.09124761
-0.03538314 0.19717361 -0.011013142 0.013101171 0.101402566 0.09378655 -0.05910346 -0.28384694
-0.0027813832 0.09936134 0.1301515 0.12758341 0.15340543 -0.11606658 -0.01769889 0.009219741
-0.041006707 -0.18977524 0.09279463 0.02470324 -0.14216405 0.055535745 -0.34049755 0.10364026

layers.4.bias f4 [128]
00000000: aa9b 0abe d72a 1fbe ef98 eb3c 7b2e 8fbe
00000010: 1b82 3fbd e082 293d d0de c5bd ad1d f5bd
00000020: 6099 01bd 556a 773e a080 3fbe d8af 18be
00000030: 9fc4 9cbd 1efe cb3d 4d5d c43c 30dc 0a3e
00000040: c63f 34be 9716 18bd 52b8 0bbe 5c32 aabc
00000050: 95ac 07ba a16e bdbc 36a2 c6bd 1d24 763c
00000060: d62c c5bd 3d45 c03d 8803 18be c350 1abd
00000070: fd77 1cbe 35fa 1a3d a683 16be 1a91 ffbd
00000080: 496c 383e b9c8 27be c42a e33b f600 d1bd
00000090: 37f8 203e 62a9 7ebe e6d8 cd3c 384e 3fbe
000000a0: 2bbd 7fbe 63a9 c9bd f591 64bd 45bc 08be
000000b0: c788 343e ba05 ba3d 14c2 a6bd b720 d93d
000000c0: ab80 38bd b52c 243c 61b8 913e 7270 393e
000000d0: 4fed 8a3c 16ac 1fbd 65b2 e8bc 4760 e8bd
000000e0: 3f12 793c 830c d03d 1300 18bd a84b f4bd
000000f0: ab88 22bd aee7 7abe 08c6 42be c405 59be
00000100: 980c c5bd 9da7 473d 3785 cb3d 6a3a d9bd
00000110: 1a11 073e 3da7 6fbb aad8 f43d 690b 5bbd
00000120: cdaf a5bd 8157 503d 1f0b 89bc 285d 8cbe
00000130: cd7f 70be 90e7 53bd 6c88 52be 264b 7f3e
00000140: e801 b9be 644d 273e 25f3 1dbe c856 803d
00000150: 94d5 b6bc bd6f 0ebe af36 72bd e698 db3d
00000160: 9d76 313e 1d74 bf3d 67be fe3d 790d 95bd
00000170: 1fa9 423e e388 03be 2217 8bbf 700d a8bc
00000180: 713e eebd 93a1 7a3d 0309 dd3d 660f 573d
00000190: d529 073e 2869 15be fd35 013e 265e e2bc
000001a0: 9f01 733e 6e45 c3bd 07c0 86bd 3b72 58bb
000001b0: 6eaa 5ebd bc2b 193e 628e 313d 2688 7fbd
000001c0: 4456 b1bc 6a3e 62be b758 44be b5b0 f23d
000001d0: e8dd 21be 8465 103c e0bf 9ebe 4b4f 1a3e
000001e0: bb6b 253e 7b2f d4bc 05ad 283e ff86 6abc
000001f0: b340 8a3e 189b 4cbe 6db9 653e 6e2a 223e
-0.13535944 -0.15543686 0.028759448 -0.2796515 -0.046754938 0.041384578 -0.09661639 -0.11968551
-0.03164041 0.24161656 -0.1870141 -0.14910829 -0.0765469 0.099605784 0.02397027 0.13560557
-0.17602453 -0.03713092 -0.13644531 -0.020775966 -0.0005175558 -0.023124041 -0.09698908 0.0150232585
-0.096276924 0.09388206 -0.14845097 -0.037674677 -0.15280147 0.037836272 -0.14698657 -0.12478848
0.18010058 -0.16385163 0.0069325883 -0.102052614 0.15719686 -0.24869302 0.02512784 -0.18682182
-0.24974506 -0.09846761 -0.055803258 -0.13353069 0.17630301 0.090831235 -0.08142486 0.10601943
-0.045044582 0.010020425 0.28460982 0.181093 0.01695886 -0.038982473 -0.028405378 -0.113464884
0.015202104 0.101586364 -0.037109446 -0.11928493 -0.039681118 -0.24502441 -0.19020855 -0.21193606
-0.09621543 0.048743833 0.09937518 -0.10606845 0.13190117 -0.0036568188 0.11955388 -0.05347768
-0.08090172 0.0508647 -0.016728936 -0.27414823 -0.23486252 -0.051734507 -0.20559853 0.2493101
-0.36134267 0.16338116 -0.15424784 0.06266552 -0.022318639 -0.13909812 -0.05913418 0.107225224
0.17330404 0.09348319 0.1243866 -0.0727796 0.19009827 -0.12845187 -1.0866435 -0.02051422
-0.116330035 0.061189245 0.107927345 0.05250492 0.13199551 -0.14590895 0.12618251 -0.027632784
0.23731087 -0.09534727 -0.06579595 -0.003302707 -0.054361753 0.1495809 0.043348677 -0.0623857
-0.02164758 -0.22094122 -0.19174467 0.118501104 -0.15807307 0.008813266 -0.31005764 0.1506931
0.16154377 -0.025901547 0.16472252 -0.014314412 0.27002487 -0.19981039 0.22434016 0.15836498

layers.6.weight f4 [16, 128]
00000000: 4f9c acbd 921d 2cbb 0aa4 72bc f456 cc3d
00000010: 9793 a0bc 2423 23bd 2c9e a43e c4fd bcbd
00000020: 1733 043d 4751 9bbd 06dc 533d 2145 543c
00000030: 6d12 53bc cb72 703d 4ce9 3abd f6d0 b43c
00000040: 7b59 a03c af0e 553d d0f8 f8bb f7dc 193c
00000050: f28e b93c 32b9 8bbd 8b98 cc3d b027 df3c
00000060: 1cbd e5bc 699d 7b3c 3d5d 42bd 62c6 633d
00000070: 52dc 52bd 89e6 363d cd33 08bc 71a3 4a3d
00000080: 0bd9 18bd e6de 543c 64bc c63b eeab 17bd
00000090: a86a 7ebd 7501 aebd 6b84 c8ba 328c 00bb
000000a0: b47d 2bbd f79c c03d 233e 81bd a052 98bd
000000b0: 7b56 663c ec78 ff3c 9290 753d 0e27 323d
000000c0: 2ae4 dd3c 196f f63c f81e f6bd b1d2 b63b
000000d0: d444 b2bc 54b8 92bd 22f1 49bd 8c62 8ebc
000000e0: 2385 06be b028 8a3d c5f3 b43c 4433 133e
000000f0: 44d7 b1bd ea3b b1bd 8662 113c 18b8 c9bd
00000100: b935 f03c 02e1 8b3d 7bf1 71bc e33c 3bbc
00000110: 4275 a5bd 0b50 98bd 71e7 683d dd68 92bd
00000120: 05ae 70bd 1d57 d23c 70ce 043d 8dea 38bc
00000130: 3046 9a3c 9cb3 763d d802 b53c 29e4 813d
00000140: 49f8 e1bd 793d e53b ffc3 57bd d315 95bd
00000150: 1248 433e 0106 debb cea2 673d 45d1 a5bb
00000160: b177 a5bc ae22 9fbd 4f25 85bd 6fa8 7e3c
00000170: 56b4 77bd da05 d53a 7e79 2abd d55b e9bc
00000180: d4fb dfbb 26f5 abbc 500a d83b e3f0 d23b
00000190: 14cb 20bd 4da4 1c3c 87b5 90bb baba c0bc
000001a0: 664e 38be 6abe 333d 2c9a 2fbd e1e2 b8bc
000001b0: d62c 403d 1b9e d6bd b036 babd 67f2 cabb
000001c0: 6fdf 5abd 39c9 6dbd 5bb1 e33d e4d1 73bd
000001d0: c992 febc 9dd4 87bc f56d e73c 7117 2dbd
000001e0: b8a4 0a3d 2608 9b3d 60b0 4cbd f4be 78bd
000001f0: 10a1 bd3d 669e 90bc b375 bc3c 7668 883c
00000200: f6a6 d2bd 18fa aebc e059 f83c 3c93 b63d
00000210: c8ed af3d 9e3c 07be c5a5 323e 80fa fbbc
00000220: bb63 2abd b380 1ebd 327f 64bc 8960 5d3d
00000230: 6f72 abbd 5c32 f6bd 1951 da3c 6bc8 87bd
00000240: aa8e b33d 6c4e 0d3d 0e0c 5a3d aa28 2fbc
00000250: 151a 6abc e232 313d 098c b33d d6a5 49bb
00000260: e751 1e3c 16f9 10bc a9ec 0fba 0cbb a43c
00000270: f17e 97bd 556e ff3c 15c3 883d 26af 82bd
00000280: 7126 eebb d5ad 5b3c 1dd3 af3d 1025 963c
00000290: 56de bdbc 9952 5a3d 9e84 c13c 33ac 57bb
000002a0: 0fc5 18bd 40c3 023e 5a6e a63c 2604 923d
000002b0: 2cfb 213d 177f bf3c e86c 963c 076d ef3d
000002c0: abc9 d83d 9596 5d3b 7a5d b5bc 81a6 8bbc
000002d0: 9c36 ed39 f7b3 3c3d bf22 423d 6440 a5bb
000002e0: d0d1 85bc 6f0b 57bc 5d0d 61bd b87c 52bd
000002f0: 539e 553e 2eec b0bc 40c0 f0bd 87dc fcbc
00000300: af11 3abd ebaf 223d 9365 0c3d 29c6 a33d
00000310: e5c1 71bd f518 11be e735 063d f0ac bd3d
00000320: f3ca 44bc b964 2d3d cdb2 2bbd c4c0 5dbb
00000330: 9766 543c d3aa 29bd 57b1 4ebd afe9 a03c
00000340: 89f7 063d b408 9cbd f848 70bd 641d af3b
00000350: df6f 4c3e 0e6f 05bd 75bb 823d 3e0e ebbc
00000360: 166f a93c 8fcb a1bd 0778 bdbd d225 c13d
00000370: c033 10bd dff4 a83c f425 60bc a3df 08bd
00000380: 1b64 73bd ef7c 88bc bcda 933b dd1d 883d
00000390: e0c8 9e3c 6395 cebb afd2 703d 20cc 833d
000003a0: cbd5 fb3d cfc1 593d 16c0 b43c 0095 993d
000003b0: daf4 753d 75cd 843c 2b0a 9bbc 4259 95bb
000003c0: 096c b8bc 864a 9b3c a31a 983d 16ed 3cbd
000003d0: 6181 6dbc 1449 80bd 5c4a 923c ebb7 933d
000003e0: 37fb ecbc a083 703c 878f 8f3c 7790 8e3c
000003f0: 55d3 3bbd 147d 95bb a2c8 91bc 1634 593d
-0.08428251 -0.0026262742 -0.014809618 0.099775225 -0.019601626 -0.039828435 0.32151926 -0.092280895
0.032275286 -0.07583862 0.051723503 0.012955935 -0.012882811 0.058703225 -0.045632645 0.022072297
0.019573918 0.052015956 -0.00759802 0.009391061 0.02265117 -0.068224326 0.09990033 0.027240604
-0.028044276 0.015357354 -0.0474522 0.055609114 -0.051479645 0.04465345 -0.0083131315 0.049472276
-0.037316363 0.012992596 0.0060649384 -0.0370292 -0.062113434 -0.08496372 -0.0015298253 -0.0019614813
-0.041867927 0.09404939 -0.0631068 -0.074376345 0.0140587045 0.03118559 0.059952326 0.043494277
0.027086336 0.030082272 -0.120176256 0.0055793156 -0.021761335 -0.07164064 -0.049302228 -0.017380975
-0.13136725 0.06746042 0.022088895 0.14375025 -0.08683637 -0.08654006 0.0088735875 -0.09849566
0.029322492 0.06830026 -0.014767046 -0.011428091 -0.08079006 -0.07437142 0.056861345 -0.07148907
-0.058759708 0.025676304 0.032423437 -0.01128639 0.018832296 0.060229883 0.022096083 0.06342346
-0.11033685 0.0069958535 -0.05267715 -0.07279553 0.19070461 -0.006775618 0.056551747 -0.0050603473
-0.020198675 -0.077702865 -0.06501257 0.015543087 -0.060474716 0.0016252354 -0.04161977 -0.028486172
-0.00683544 -0.02099092 0.006593026 0.0064374073 -0.03925617 0.009560657 -0.004416171 -0.023526538
-0.17998657 0.043882765 -0.04287164 -0.022569122 0.04691776 -0.10479375 -0.09092462 -0.0061934474
-0.05343574 -0.05805323 0.11117812 -0.05952634 -0.031075852 -0.016580874 0.028250674 -0.042258684
0.033848494 0.075699136 -0.04997289 -0.060728982 0.09259236 -0.017653655 0.023005342 0.016651373
-0.102857515 -0.021359488 0.030316293 0.089148015 0.08590275 -0.13206717 0.17446049 -0.030759096
-0.041599017 -0.038696956 -0.013946341 0.05404714 -0.08371436 -0.12021324 0.026649999 -0.066300236
0.087674454 0.034498617 0.053234152 -0.010690847 -0.014288445 0.043261416 0.08766944 -0.0030769012
0.009663082 -0.008848449 -0.0005490282 0.020108722 -0.07397259 0.03118054 0.06677834 -0.06381063
-0.007267766 0.013408144 0.085851885 0.01832822 -0.023177307 0.053301428 0.023622807 -0.0032909035
-0.037297305 0.12769794 0.020316292 0.071296975 0.039546177 0.02337603 0.018362477 0.11690717
0.1058534 0.0033811678 -0.0221393 -0.017047169 0.0004524485 0.046070065 0.047396418 -0.0050430764
-0.016335398 -0.013125285 -0.054944385 -0.051388472 0.20861177 -0.021596994 -0.11755419 -0.030866874
-0.04542702 0.03971855 0.034276556 0.079967804 -0.059022803 -0.14169677 0.03276625 0.09261501
-0.0120112775 0.042332385 -0.041918565 -0.003383682 0.012963912 -0.041422676 -0.050462093 0.019642679
0.03295091 -0.076188475 -0.05866334 0.00534408 0.1996455 -0.032576613 0.06383411 -0.028693315
0.020682853 -0.07900154 -0.09251409 0.09431042 -0.035205603 0.020624576 -0.013680924 -0.0334164
-0.05942164 -0.016661135 0.004512159 0.06646321 0.019382894 -0.0063044294 0.058794674 0.06435418
0.12296637 0.053163346 0.02206425 0.074991226 0.06004796 0.01621125 -0.018925747 -0.0045577595
-0.022512453 0.018956434 0.074269556 -0.04612454 -0.014496178 -0.062639385 0.017857723 0.07212814
-0.028928382 0.014679819 0.017524494 0.01740287 -0.04585584 -0.0045620296 -0.017795864 0.05302819

layers.6.bias f4 [16]
00000000: 301d 903d 6ad6 c63d a824 b03d f49e b33d
00000010: 7a3b 7d3d 4294 9b3d f1df cc3d 9564 9a3d
00000020: 6e92 bc3d 1d8d c03d bcc1 7e3d fd48 6d3d
00000030: 3683 a23d 4102 ad3d e7db b73d 1699 943d
0.07036817 0.09708865 0.086007416 0.08770552 0.0618243 0.07596637 0.10003651 0.07538716
0.09207617 0.09401915 0.06219648 0.057930935 0.07935183 0.084476955 0.0897749 0.07255761
