DRL/RDWS-main/result/dqn_model.pth (torch, 281999 bytes, 8 tensors)

layers.0.weight f4 [128, 24]
0	0x3dedc1ae	0.11609207
1	0xbf821d98	-1.0165281
2	0x3d7011d3	0.05861075
3	0xbd6a95d1	-0.057271782
4	0x3e929bb0	0.28634405
5	0xbe2a9a4d	-0.16660424
6	0x3e6583e0	0.22413588
7	0x3dd3ca46	0.10341315
8	0x3ebc69d8	0.36799502
9	0xbe43e3e1	-0.19129898
10	0x3ece4c1e	0.40292448
11	0x3be6971a	0.0070370557
12	0xbf3c3b79	-0.7352825
13	0xbeafa330	-0.3430419
14	0xbf236c13	-0.63836783
15	0xbdfd4bc9	-0.123679705
16	0xbf4cf96e	-0.800681
17	0xbeb5c265	-0.35499874
18	0xbebee682	-0.37285239
19	0x3e545854	0.2073682
20	0x3d2515c7	0.04030397
21	0xbe9da27e	-0.30788034
22	0x3d354c95	0.044262487
23	0x3e72469c	0.23659748
24	0x3d25a900	0.040444374
25	0x3e9a4d56	0.30137128
26	0x3e76aaee	0.24088642
27	0x3d85ab76	0.06526844
28	0x3e735da0	0.23766184
29	0x3dcb2ca6	0.099206254
30	0x3dbbf95c	0.09178421
31	0x3dbd5c16	0.092460796
32	0xbf7b1c78	-0.98090315
33	0xbe9e8003	-0.3095704
34	0x3e4d7abc	0.2006635
35	0xbdfae25c	-0.12250206
36	0x3ce7818a	0.028260011
37	0x3e1849d0	0.14871907
38	0xbe90712f	-0.28211352
39	0xbe0438fd	-0.12912364
40	0xbe207cd4	-0.15672618
41	0x3e799909	0.24374785
42	0xbc8ee437	-0.017442806
43	0x3d1b55e3	0.037923705
44	0x3e3101cf	0.17285846
45	0x3d9633e2	0.073341146
46	0xbeaacf4a	-0.33361274
47	0xbdb9c9e0	-0.09071708
48	0x3c5ef8e7	0.013609148
49	0xbf051a66	-0.51993406
50	0x3db4c1f9	0.0882606
51	0x3eaa8127	0.3330166
52	0xbdf46660	-0.11933589
53	0xbe07dfeb	-0.13269012
54	0x3eb60178	0.35547996
55	0x3ecaba09	0.3959506
56	0xbef9c2ab	-0.48781332
57	0x3e8c2f05	0.27379623
58	0xbe87b0dc	-0.2650212
59	0x3e23e693	0.16005926
60	0x3e0dfbe9	0.13865627
61	0x3e4f7b45	0.20261867
62	0x3e45e7cd	0.19326706
63	0xbdef24fe	-0.116769776
64	0xbe130c04	-0.14360052
65	0x3c82c5ac	0.015963398
66	0xbd32173a	-0.04347918
67	0xbe827af5	-0.25484434
68	0x3df48c68	0.11940843
69	0x3d817088	0.06320292
70	0xbe99dfe1	-0.3005362
71	0x3dd286ef	0.10279643
72	0xbe31b8df	-0.17355679
73	0xbed9c63f	-0.42534062
74	0xbe7d12f3	-0.2471426
75	0x3b8cb347	0.0042938325
76	0xbe2bcb64	-0.16776806
77	0x3deee260	0.11664271
78	0x3e07518b	0.132147
79	0x3e402f50	0.18768048
80	0xbe0f3b80	-0.13987541
81	0xbe979a0e	-0.29609722
82	0x3d615119	0.05500898
83	0x3f4c4c9d	0.798044
84	0x3e224cbd	0.15849586
85	0xbcb1f352	-0.02172247
86	0x3ea96c9c	0.33090675
87	0xbe3bb94d	-0.18332405
88	0xbea51161	-0.32239822
89	0x3f130db0	0.5744276
90	0x3e673534	0.22578889
91	0xbe95a575	-0.29227796
92	0x3e252166	0.16126022
93	0x3e3a6774	0.18203527
94	0xbc5d6de3	-0.013514969
95	0xbe6bceef	-0.23028158
96	0xbb90355c	-0.004400892
97	0xbf74a718	-0.95567465
98	0x3d38ebd3	0.045146775
99	0x3e2d5583	0.16927151
100	0x3c634d10	0.013873354
101	0xbdcdc445	-0.10047201
102	0xbe3a381c	-0.18185467
103	0x3ea9a946	0.33136958
104	0x3c850ff3	0.016242957
105	0x3ea4817d	0.32130042
106	0xbeb4a516	-0.352822
107	0x3e02a0f1	0.12756707
108	0xbf184f5d	-0.594961
109	0xbe0f3350	-0.13984418
110	0xbe7a9730	-0.24471736
111	0xbcd7ec38	-0.026357755
112	0xbd4b6640	-0.04965806
113	0xbecda394	-0.40163863
114	0x3d3f915a	0.046769477
115	0xbe8dc00f	-0.27685592
116	0xbe58cca8	-0.2117182
117	0xbe8180ea	-0.25293666
118	0xbdcdd777	-0.10050862
119	0x3c0b2f43	0.008495155
120	0x3e942434	0.2893387
121	0x3e19f64f	0.15035366
122	0x3e0f2a10	0.1398089
123	0xbcd14d82	-0.025549654
124	0x3da2261e	0.079174265
125	0xbe3d1fcb	-0.1846916
126	0x3ed5475d	0.41656008
127	0xbf00070c	-0.5001075
128	0xbee33e0e	-0.4438328
129	0xbe8c9680	-0.27458572
130	0xbe6ecd82	-0.23320583
131	0x3e157f02	0.14599231
132	0x3e6e6a31	0.23282696
133	0xbcb3d1b3	-0.021950578
134	0xbe5139e6	-0.20432243
135	0xbe7ab1a4	-0.24481827
136	0xbdebcc29	-0.1151355
137	0x3eaf1840	0.3419819
138	0xbe1693da	-0.14704838
139	0x3eae1ac3	0.34004793
140	0x3e3df73b	0.18551342
141	0xbe2955d6	-0.1653665
142	0xbe3803cb	-0.17970197
143	0x3c4070b3	0.01174562
144	0x3dbece8c	0.093167394
145	0x3f2255d7	0.6341223
146	0xbe56f6d9	-0.20992602
147	0xbe9c056f	-0.30472896
148	0xbcafad2f	-0.021444885
149	0xbdf61c34	-0.12017098
150	0xbd8bfa99	-0.06834907
151	0x3c4a433e	0.012345133
152	0xbd0cd8d9	-0.03438649
153	0xbe087384	-0.13325316
154	0xbf63d2c5	-0.88993484
155	0x3e79074d	0.24319191
156	0x3e3cc8a6	0.18435916
157	0x3db0aeb0	0.08627069
158	0xbe992197	-0.2990844
159	0x3e1875e0	0.14888716
160	0xbefa49b7	-0.48884365
161	0x3e299eb9	0.16564454
162	0xbccadfbf	-0.024764894
163	0x3e6c1166	0.23053512
164	0x3da08ed8	0.07839745
165	0xbe88c3ea	-0.2671197
166	0x3e98fc1c	0.29879844
167	0xbe877856	-0.26458997
168	0xbdf6c111	-0.12048543
169	0x3fa9fd34	1.3280396
170	0xbd7f3fd8	-0.062316746
171	0xbe95f229	-0.29286316
172	0x3de87254	0.11349931
173	0x3dc73bdb	0.097282134
174	0xbe7d100b	-0.24713151
175	0x3e9a3df3	0.30125389
176	0x3d1f95ac	0.038961098
177	0xbd454b84	-0.04816772
178	0xbea9ef99	-0.3319061
179	0x3cb45980	0.022015333
180	0xbe93bfa4	-0.28857148
181	0xbe87b3da	-0.26504403
182	0xbe6e63a3	-0.23280196
183	0xbe468d9d	-0.19389959
184	0xbee02e04	-0.43785107
185	0xbedd00de	-0.43164724
186	0xbe37aeb7	-0.17937742
187	0xbe56f0f4	-0.20990354
188	0xbe55279a	-0.20815888
189	0x3e30ef22	0.17278722
190	0x3e82ac25	0.2552196
191	0xbd3d5696	-0.046225153
192	0x3e93552a	0.28775913
193	0xbebd6ea4	-0.36998475
194	0xbcbce782	-0.02305961
195	0x3e43657c	0.19081682
196	0x3dc84389	0.09778506
197	0xbe5d648e	-0.2162039
198	0x3eb71fac	0.3576635
199	0xbea61715	-0.32439485
200	0x3ee569d3	0.448073
201	0x3e4124c4	0.18861681
202	0xbed16c5a	-0.40902978
203	0x3d8ff054	0.07028261
204	0xbe2a1de2	-0.16612962
205	0x3e485909	0.19565214
206	0x3dc25eda	0.09490748
207	0x3ea0ceea	0.31407863
208	0xbdf76a56	-0.12080829
209	0xbe9ce5a9	-0.30643967
210	0xbdc90f92	-0.09817423
211	0x3e2450ff	0.16046523
212	0xbdc428d4	-0.095781
213	0xbe91eb5c	-0.28499877
214	0xbded09d4	-0.1157414
215	0xbe243497	-0.16035686
216	0xbea446d5	-0.3208529
217	0xbc9c64c4	-0.019091018
218	0xbefb03ec	-0.4902643
219	0xbf049d17	-0.518022
220	0x3dad41fc	0.08459851
221	0x3cb1ebf7	0.021718962
222	0x3ce2a71f	0.02766758
223	0x3e5863e6	0.21131858
224	0xbe25aa10	-0.16178155
225	0xbe36cea3	-0.17852263
226	0x3ed1a85b	0.40948758
227	0xbda77987	-0.081774764
228	0x3cca055f	0.024660764
229	0x3e6651fb	0.2249221
230	0xbd2cdaac	-0.04220073
231	0xbdad3ea8	-0.08459216
232	0x3e8bdbc3	0.27316102
233	0x3ea7dd13	0.32785854
234	0x3e8d9eeb	0.27660307
235	0xbe9fb688	-0.31193948
236	0xbe0adc9c	-0.13560718
237	0x3eb89eec	0.36058748
238	0x3e0995fb	0.1343612
239	0xbdf9bd80	-0.121943474
240	0x3e58fac3	0.21189408
241	0x3e8015ce	0.25016636
242	0xbe9a810c	-0.3017658
243	0xbecc6328	-0.399194
244	0xbea9e3ca	-0.33181602
245	0xbea11503	-0.31461343
246	0x3ef97d30	0.48728323
247	0xbea37edb	-0.3193272
248	0xbe8ac49a	-0.2710312
249	0xbdab6d13	-0.08370414
250	0x3e9ade34	0.30247653
251	0x3f2bfcb7	0.6718249
252	0xbc055433	-0.00813775
253	0xbd8f00e2	-0.0698259
254	0x3e8bec70	0.27328825
255	0xbda46eaf	-0.08028924

layers.0.bias f4 [128]
0	0xbe2b879a	-0.16750947
1	0xbdf78474	-0.1208581
2	0x3e465c62	0.19371179
3	0x3e02c244	0.12769419
4	0x3e36f18b	0.17865579
5	0xbd62bbbd	-0.055354822
6	0x3d887b51	0.06664146
7	0x3e338998	0.17532957
8	0x3e2c753a	0.16841593
9	0xbbbd98cf	-0.0057860385
10	0x3e34a3b9	0.1764058
11	0xbe37b9ab	-0.1794192
12	0xbe33da0b	-0.17563646
13	0xbdc4d56b	-0.09611019
14	0xbc03a1d3	-0.008034187
15	0xbe962915	-0.29328218
16	0xbd4c13f8	-0.04982373
17	0x3e3009c9	0.17191233
18	0xbb515938	-0.0031944048
19	0xbdbe7a41	-0.09300662
20	0x3de50331	0.11182249
21	0x3e77ebbc	0.2421102
22	0x3d812a5e	0.06306909
23	0xbe1e2b36	-0.15446171
24	0x3e4dd1e6	0.20099601
25	0xbd29030a	-0.041262664
26	0x3e1ca7ff	0.1529846
27	0x3e612a7f	0.21988867
28	0x3e1f0aed	0.15531512
29	0xbde17ef5	-0.11010543
30	0x3e0b852f	0.13625024
31	0xbe2c0e07	-0.16802226
32	0x3e8a20eb	0.2697824
33	0xbe1ee4a2	-0.15516904
34	0xbe4d95b1	-0.20076634
35	0xbe746cc1	-0.23869611
36	0x3d7b4aef	0.06135076
37	0x3e634932	0.2219589
38	0xbe50b859	-0.20382823
39	0x3e1a3387	0.15058719
40	0x3e52a430	0.20570445
41	0x3e0cf5a6	0.13765582
42	0x3e5dbdff	0.21654509
43	0x3d9d7809	0.076889105
44	0xbe6985ae	-0.22804901
45	0xbe10bc97	-0.14134441
46	0xbd0011d5	-0.031267006
47	0x3af3dd21	0.001860533
48	0xbd1db234	-0.038500026
49	0x3dab1ddb	0.08355304
50	0xbde79d12	-0.11309256
51	0x3e343d16	0.17601427
52	0x3c94a277	0.018143876
53	0x3d88acf9	0.06673617
54	0xbd8f51cf	-0.069980256
55	0xbc0e6fd8	-0.008693658
56	0xbe1f4724	-0.15554482
57	0x3d1c5ce0	0.03817451
58	0xbd3ed8d2	-0.046593495
59	0x3e283238	0.16425407
60	0x3d19fc1e	0.037593953
61	0x3e30784a	0.17233387
62	0x3d3ef0a0	0.046616197
63	0x3d99aa92	0.07503237
64	0xbdd98f5f	-0.10623049
65	0x3dbf0396	0.09326856
66	0x3d45a289	0.04825071
67	0xbbf5d479	-0.0075021354
68	0xbe03a125	-0.1285444
69	0xbde329ef	-0.110919826
70	0x3d557173	0.052110147
71	0x3e62e2ff	0.22156905
72	0x3db98734	0.09058991
73	0x3df996b0	0.121869445
74	0x3d092c87	0.03348973
75	0xbd36c24c	-0.04461889
76	0xbe0b5411	-0.13606288
77	0xbe19882a	-0.14993349
78	0xbe72453f	-0.23659228
79	0x3e4acda0	0.19805002
80	0x3db141a4	0.08655098
81	0x3c55f098	0.01305785
82	0xbdb912fc	-0.09036824
83	0xbe635396	-0.22199854
84	0x3ec02cfb	0.37534317
85	0x3c562052	0.013069229
86	0xbe0c62c9	-0.13709559
87	0x3eb9320e	0.36171
88	0x3e2a85dd	0.16652627
89	0xbe47467e	-0.19460484
90	0xbe12f546	-0.14351377
91	0x3c906d33	0.017630195
92	0xbe99662a	-0.29960757
93	0x3bc62f3c	0.0060481112
94	0x3dae8375	0.08521167
95	0x3d153a24	0.0364324
96	0xbe3e0fc4	-0.18560702
97	0xbdf8b4a1	-0.12143827
98	0x3dfc7f39	0.12328953
99	0x3ed1bc62	0.40964037
100	0xbe39ff4a	-0.18163791
101	0x3e261d6b	0.1622216
102	0x3e08934a	0.13337436
103	0xb9c7f340	-0.00038137473
104	0xbe541668	-0.20711672
105	0x3d54bc1c	0.051937208
106	0x3e7d5534	0.24739534
107	0xbe03d849	-0.12875475
108	0x3e0aaa52	0.13541535
109	0xbd95b125	-0.07309178
110	0xbd7d9490	-0.06190926
111	0x3e64bff8	0.22338855
112	0x3e35ed80	0.1776638
113	0x3bc4241f	0.0059857513
114	0xbc34ed89	-0.011042961
115	0xbcd7e244	-0.026353009
116	0xbe5e6246	-0.21717176
117	0xbd84a401	-0.06476594
118	0xbd953df7	-0.072872095
119	0xbdb03c21	-0.08605219
120	0x3d4ab9b7	0.049493518
121	0x3da979ff	0.08275222
122	0x3b79732d	0.0038063035
123	0x3d7904e6	0.060795687
124	0xbe3f31f6	-0.18671402
125	0x3e201446	0.15632734
126	0x3b84a27a	0.004047689
127	0xbbe07991	-0.0068504293

layers.2.weight f4 [256, 128]
0	0xbeba6bb0	-0.36410284
1	0xbe81beb3	-0.25340804
2	0x3dd53ecc	0.10412368
3	0x3d8a82a7	0.06763201
4	0x3e1102e6	0.14161262
5	0xbdb97556	-0.09055583
6	0x3f2d601f	0.67724794
7	0x3ef35421	0.47525123
8	0x3db70baa	0.089377716
9	0x3df19621	0.11796213
10	0xbe1dd027	-0.15411435
11	0x3e68617c	0.22693437
12	0xbd78ca7a	-0.06073997
13	0xbe0faef3	-0.14031582
14	0x3e4a444e	0.19752619
15	0x3d3b4fca	0.04573039
16	0xbed5c0ac	-0.4174856
17	0x3d0c3a84	0.034235492
18	0x3d160cbb	0.036633234
19	0xbec0fa79	-0.37691095
20	0x3db4dabb	0.08830782
21	0xbc9b6a1f	-0.0189715
22	0xbe5fa2ff	-0.21839522
23	0x3b935c19	0.004497063
24	0x3dc3f0b4	0.09567395
25	0x3e4235fa	0.18965903
26	0xbe9e68fb	-0.3093947
27	0xbe996660	-0.29960918
28	0xbe476c25	-0.19474848
29	0x3f0b6bb9	0.54461247
30	0xbbfcf2f3	-0.0077193915
31	0xbe3dab97	-0.18522488
32	0x3d78d8fe	0.060753815
33	0xbd7e5fc6	-0.062103055
34	0x3e4a52fb	0.19758217
35	0x3e2cf323	0.16889624
36	0x3e323d94	0.17406303
37	0xbd3643b5	-0.044498164
38	0x3e7eef58	0.2489599
39	0xbe806e05	-0.25083938
40	0x3de2ba7d	0.11070726
41	0xbdb7baee	-0.08971201
42	0x3daf8b00	0.08571434
43	0xbe81b445	-0.25332847
44	0x3e38381d	0.17990156
45	0x3f717785	0.94323
46	0x3ed6e5c6	0.41972178
47	0xbe1735d5	-0.14766629
48	0xbdd1c5d9	-0.102428146
49	0x3ed760d0	0.4206605
50	0x3e0a0cb0	0.13481402
51	0xbe5dc032	-0.21655348
52	0xbe8d22b8	-0.2756555
53	0xbe0d2c56	-0.13786444
54	0xbd040248	-0.032228738
55	0xbe087ed5	-0.13329633
56	0x3e9f6aec	0.31136262
57	0x3c89ac5a	0.016805816
58	0xbdbfb892	-0.09361376
59	0x3d2c098a	0.042001285
60	0x3e7f6243	0.24939828
61	0xbd7b6211	-0.06137282
62	0xbdceca50	-0.10097182
63	0xbdfc3899	-0.12315483
64	0xbe50fdf5	-0.20409377
65	0x3e77545e	0.24153277
66	0xbe88ed5b	-0.26743588
67	0xbc1d526d	-0.009602171
68	0xbd90bbd2	-0.07067074
69	0xbd2ed937	-0.04268762
70	0xbe03f584	-0.12886626
71	0x3e06ccf2	0.13164118
72	0x3c96dfa8	0.018417194
73	0x3f120ea7	0.5705361
74	0x3dfd63d2	0.12372555
75	0x3dd212fd	0.10257528
76	0xbcc6d516	-0.02427153
77	0x3e4b1545	0.19832332
78	0xbdbf52d4	-0.0934197
79	0xbe041021	-0.12896778
80	0xbe298e5b	-0.1655821
81	0xbd5ea0cd	-0.05435257
82	0x3ee17021	0.4403086
83	0xbeec4a92	-0.46150643
84	0x3d7d76d4	0.0618809
85	0x3e64d3d9	0.22346438
86	0x3e2fcb90	0.17167497
87	0x3e48ab28	0.19596541
88	0xbe1a439b	-0.15064852
89	0x3ddd55ae	0.10807358
90	0x3e3e33b2	0.18574408
91	0x3decdf32	0.115660086
92	0xbd89fc4a	-0.067375734
93	0x3e27a028	0.16369689
94	0x3d95a192	0.07306208
95	0x3efa2407	0.48855612
96	0xbe25e363	-0.16200022
97	0x3dad9c8a	0.08477123
98	0x3df4a455	0.11945406
99	0x3d7c92a1	0.061663274
100	0x3f0e1438	0.554996
101	0x3d2f7f6b	0.042846125
102	0x3d5fa5f5	0.05460163
103	0xbd67c235	-0.056581695
104	0x3df783a8	0.12085658
105	0x3dfc17f9	0.1230926
106	0x3dbb2c6a	0.09139331
107	0x3ea0daf8	0.3141706
108	0xbda4937e	-0.080359444
109	0x3e723e5b	0.23656599
110	0xbdb288f8	-0.08717531
111	0xbfb36d63	-1.4017757
112	0xbeb95279	-0.36195734
113	0xbdc22da6	-0.09481363
114	0xbe88b297	-0.26698753
115	0x3ecc1ad9	0.39864233
116	0x3e11049f	0.14161919
117	0x3e89ac6a	0.26889354
118	0xbe796493	-0.24354772
119	0xbe6a4dd1	-0.22881247
120	0xbe930a6c	-0.2871889
121	0x3db363bf	0.087592594
122	0xbe1a3d35	-0.15062411
123	0xbe774c5c	-0.24150223
124	0xbdddbc6a	-0.10826953
125	0xbcb43d71	-0.022001954
126	0x3e691e75	0.22765525
127	0x3e0934c7	0.13399039
128	0xbee68b30	-0.45028067
129	0xbd9d847d	-0.07691286
130	0xbebda119	-0.3703697
131	0xbecc6824	-0.39923203
132	0x3d08b6d3	0.03337748
133	0xbde1baa1	-0.11021925
134	0x3f348adf	0.705244
135	0x3f180123	0.59376734
136	0x3e826fbe	0.25475878
137	0xbeaf6ff6	-0.34265107
138	0xbed96bd9	-0.42465094
139	0x3ebc6b3d	0.36800566
140	0x3dbf67b1	0.093459494
141	0xbe55d2fe	-0.20881268
142	0xbe260297	-0.16211925
143	0x3be8f851	0.0071096797
144	0xbde85037	-0.11343425
145	0xbda0dcaa	-0.07854588
146	0xbec8d8ca	-0.39227897
147	0xbe615158	-0.22003686
148	0x3e79f018	0.24407995
149	0xbde826f5	-0.113355555
150	0xbebcc9a0	-0.36872578
151	0xbe7c384b	-0.24630849
152	0x3f0fce50	0.5617418
153	0xbef90617	-0.4863746
154	0xbe0f4494	-0.13991004
155	0x3ea51831	0.3224502
156	0xbec7ad71	-0.38999513
157	0x3e5930a8	0.21209967
158	0xbea242b1	-0.31691507
159	0xbf16697b	-0.587547
160	0x3e5d27c2	0.21597198
161	0xbba58f4c	-0.0050524827
162	0xbca9e22a	-0.020737726
163	0xbec594f6	-0.3859021
164	0xbedc341e	-0.43008512
165	0x3de8330a	0.1133786
166	0x3e0c5b6e	0.13706753
167	0xbee6d7ac	-0.4508642
168	0x3e7e79ba	0.24851122
169	0xbc4c36b1	-0.012464211
170	0xbecca05f	-0.39966103
171	0x3d56fb79	0.052485917
172	0x3f25f3b8	0.6482501
173	0x3f155d7e	0.5834578
174	0x3bbac808	0.005700115
175	0xbe8a6e1b	-0.2703713
176	0xbe7d7f17	-0.24755512
177	0x3f65203c	0.8950231
178	0xbe8d5f52	-0.27611786
179	0x3e89045e	0.26761144
180	0xbe866e14	-0.26255858
181	0xbe8ecc5d	-0.27890292
182	0xbe1bd8c6	-0.15219411
183	0x3ea3e8ce	0.32013553
184	0xbca48417	-0.020082517
185	0x3d2e4b5c	0.042552337
186	0x3d7b7175	0.061387498
187	0x3d8a52c1	0.06754065
188	0x3d99d84e	0.0751196
189	0x3e053d30	0.13011622
190	0x3e036313	0.12830763
191	0xbd9e3425	-0.077247895
192	0xbe5fce54	-0.21856052
193	0xbd220a93	-0.039560866
194	0xbd7e6f2c	-0.06211774
195	0xbdfe66de	-0.12421964
196	0xbd8d4ae0	-0.06899047
197	0xbdf32890	-0.11872971
198	0x3f06b6db	0.52622765
199	0x3b8410a1	0.0040303026
200	0xbefa1bc2	-0.48849303
201	0xbd25382b	-0.04033677
202	0xbda747e8	-0.08168012
203	0xbcbb94b9	-0.022898065
204	0x3e9b4784	0.30328
205	0x3d70e252	0.058809586
206	0x3da7a65a	0.08186026
207	0xbed52590	-0.4163022
208	0xbe86db72	-0.26339298
209	0x3db4c224	0.08826092
210	0x3e4e0177	0.20117746
211	0x3da73626	0.08164625
212	0xba83c2eb	-0.0010052597
213	0x3f224c2f	0.63397497
214	0x3e6921db	0.22766821
215	0xbddc0e19	-0.107448764
216	0x3e88ede5	0.26744
217	0xbcb64fe6	-0.022254895
218	0xbeba3c8b	-0.36374316
219	0xbed74342	-0.420435
220	0xbe87316b	-0.2640489
221	0xbcb1927e	-0.021676298
222	0x3e5a40f1	0.21313836
223	0x3dc4f645	0.09617285
224	0xbe0f3fc2	-0.13989165
225	0xbe49e5a2	-0.19716504
226	0xbeeb3b7a	-0.45943815
227	0xbddef49b	-0.108864985
228	0x3e79615f	0.2435355
229	0xbdae9fe7	-0.08526593
230	0xbd05afb0	-0.03263825
231	0x3e518b66	0.20463333
232	0x3dcde3df	0.100532286
233	0x3ddf7566	0.10911064
234	0xbe09649b	-0.13417284
235	0x3dd45e98	0.10369605
236	0x3f17207d	0.5903395
237	0x3ee2bec3	0.44286165
238	0x3e922c16	0.2854926
239	0xbf1385ad	-0.5762585
240	0xbe191369	-0.1494881
241	0x3b16fd5a	0.0023039193
242	0xbdb89af4	-0.0901393
243	0xbe1d364e	-0.15352747
244	0xbda66d21	-0.081262834
245	0x3cb7b888	0.022426859
246	0xbdc37a12	-0.095447674
247	0x3e143813	0.14474516
248	0x3d4c782d	0.049919296
249	0xbe316584	-0.17323881
250	0xbddaae3f	-0.10677766
251	0xbf0f0e34	-0.5588105
252	0x3ec00493	0.3750349
253	0xbe170660	-0.14748526
254	0xbdf1225f	-0.11774134
255	0x3e0cf727	0.13766156

layers.2.bias f4 [256]
0	0xbe778ce6	-0.24174842
1	0x3d40f31a	0.04710684
2	0x3c665809	0.014059075
3	0xbe13c692	-0.14431217
4	0x3d955c65	0.072930135
5	0x3e4ea9d2	0.20181969
6	0x3d5803c0	0.05273795
7	0xbd3e9c76	-0.04653593
8	0xbd834ded	-0.064113475
9	0x3e0b6cac	0.13615674
10	0xb8b16ff6	-8.460872e-05
11	0xbe37607e	-0.17907903
12	0x3d49c9d1	0.049264733
13	0x3e138550	0.14406323
14	0x3d0cb743	0.03435446
15	0xbc5b7a85	-0.01339591
16	0xbd90e2b6	-0.07074492
17	0xbe545171	-0.20734192
18	0xbdd8b168	-0.105807126
19	0x3ea49c0a	0.32150298
20	0xbe7bb84b	-0.24582021
21	0xbe357559	-0.17720546
22	0xbe013a94	-0.12620002
23	0x3d87b1a0	0.06625676
24	0x3c90cd62	0.01767606
25	0xbd9f577f	-0.077803604
26	0xbdf0f91b	-0.11766263
27	0xbdef2ac0	-0.11678076
28	0x3dba9275	0.09109966
29	0x3e118b69	0.14213337
30	0x3c27e658	0.010247789
31	0xbe29676a	-0.16543356
32	0x3e4a97aa	0.19784418
33	0x3c3df62e	0.011594338
34	0x3e585cd7	0.21129166
35	0xbd9e7201	-0.07736588
36	0x3e1e4327	0.15455304
37	0xbdb39943	-0.08769467
38	0xbdfe1bbf	-0.12407636
39	0x3c2ea776	0.010660043
40	0x3db2db49	0.087332316
41	0x3eb2b56c	0.3490404
42	0x3e80ade9	0.25132683
43	0xbe7df2d5	-0.24799664
44	0x3ed9857e	0.4248466
45	0xbd01cee9	-0.031691466
46	0xbece5573	-0.40299568
47	0xbd99eafb	-0.07515522
48	0x3da97f78	0.08276266
49	0x3e1df874	0.15426809
50	0xbd9b984e	-0.07597409
51	0xbe2f6cd5	-0.1713136
52	0xbe365192	-0.17804554
53	0xbdb28a33	-0.08717766
54	0x3e314cba	0.17314425
55	0xbdeed10c	-0.11660966
56	0x3d3ef383	0.04661895
57	0xbe4f2cba	-0.20231906
58	0xbc8dc36d	-0.0173051
59	0xbde5481f	-0.11195397
60	0xbd99a2d0	-0.07501757
61	0xbd65d89b	-0.056114774
62	0x3dd5c193	0.10437312
63	0x3d16c734	0.03681107
64	0x3d544a00	0.051828384
65	0x3bb1757f	0.005415618
66	0xbdd735da	-0.10508318
67	0x3d7849ff	0.060617443
68	0x3e713f79	0.23559369
69	0xbe10e3f5	-0.14149459
70	0x3e1f1f66	0.15539321
71	0xbdd6b624	-0.10483959
72	0x3e7fc23e	0.24976441
73	0x3e271e6f	0.16320203
74	0x3cda206e	0.026626792
75	0xbe073bd3	-0.13206415
76	0x3d4f57ac	0.05062072
77	0x3dd36fdb	0.10324069
78	0xbdec18ba	-0.11528154
79	0xbd8f2e5c	-0.06991264
80	0xbd9043c7	-0.070441775
81	0xbead6ca4	-0.3387195
82	0x3bd0cf0a	0.006372337
83	0xbca9d777	-0.020732624
84	0x3d646afb	0.055766087
85	0xbd1113f2	-0.035419412
86	0x3d93993e	0.07206963
87	0x3d642f1d	0.055708993
88	0xbe51973b	-0.20467846
89	0x3d61c5a6	0.055120133
90	0x3d3bf0af	0.04588383
91	0xbc670184	-0.014099482
92	0x3c4b1223	0.012394461
93	0x3e02e04e	0.12780878
94	0xbd893f2a	-0.06701501
95	0x3d0998f0	0.03359312
96	0xbe19f4db	-0.15034811
97	0xbdc0399d	-0.09385989
98	0xbcf17167	-0.02947302
99	0x3e01112f	0.12604211
100	0xbd7fd4f8	-0.062458962
101	0xbe4a5d0e	-0.1976206
102	0xbc125731	-0.008931921
103	0x3d290eae	0.041273765
104	0x3cc8ac30	0.024496168
105	0x3eb1865b	0.34672818
106	0x3d46b22c	0.04850976
107	0x3b1fb5c5	0.0024369818
108	0x3d640869	0.055672083
109	0xbdcf79d1	-0.101306565
110	0xbd20ae29	-0.039228592
111	0xbee3ea76	-0.44514817
112	0xbe00ff3f	-0.12597369
113	0x3e846b15	0.25862947
114	0xbe7af5c7	-0.24507819
115	0x3da6e2c6	0.08148722
116	0x3e227b2a	0.15867296
117	0xbd9cb764	-0.076521665
118	0xbdbbbc61	-0.0916679
119	0xbbbaf1fb	-0.005705116
120	0x3dd1937c	0.102332085
121	0xbd1bd177	-0.038041558
122	0xbd3244a3	-0.04352249
123	0x3dae8edf	0.08523344
124	0xbc9db140	-0.019249558
125	0xbcca6f01	-0.024711134
126	0x3dd168ce	0.10225068
127	0xbde6fb8a	-0.11278446
128	0x3e73e563	0.23817973
129	0x3d43510d	0.047684718
130	0xbe8d4998	-0.2759521
131	0xbab49f7c	-0.001378044
132	0x3df9ddff	0.122005455
133	0x3e15fe28	0.14647734
134	0x3ea677fb	0.32513413
135	0x3e715cf5	0.23570617
136	0xbd465b48	-0.048426896
137	0xbdf10caf	-0.11769997
138	0x3e4e41e1	0.20142318
139	0x3e3c01c0	0.18360043
140	0xbe249ba8	-0.16075003
141	0x3e18e0c8	0.14929497
142	0x3e5615ef	0.20906805
143	0x3c43199d	0.011907962
144	0xbd21ecc0	-0.039532423
145	0x3ccc6b91	0.024953635
146	0xbd5357a6	-0.05159726
147	0x3d9005d5	0.07032362
148	0x3d2dcfbb	0.042434435
149	0x3e0571d9	0.1303171
150	0xbdd25b54	-0.10271326
151	0x3d5fcffa	0.0546417
152	0x3dc7e252	0.09759964
153	0xbec9e36a	-0.39431316
154	0xbda59056	-0.080841705
155	0x3e0e97b6	0.1392506
156	0x3e16f052	0.14740112
157	0x3e4a1efe	0.19738385
158	0xbd9981aa	-0.074954346
159	0x3c2ae25d	0.010429946
160	0x3e8a16a8	0.2697041
161	0x3d8ed207	0.06973653
162	0x3d6dbda0	0.05804217
163	0x3d0e1016	0.03468331
164	0x3d9cfa49	0.076649256
165	0x3ee6a669	0.45048836
166	0x3eaf2f36	0.34215707
167	0xbdb88a32	-0.09010734
168	0x3e17164f	0.14754604
169	0xbe5b84b2	-0.21437338
170	0x3e35a8f2	0.17740229
171	0x3decf989	0.115710326
172	0x3dd19145	0.10232786
173	0xbc9433f1	-0.018091174
174	0x3cf96f36	0.030448537
175	0x3d4a786e	0.049431257
176	0xbc9bbaaa	-0.019009907
177	0x3d77cf77	0.06050059
178	0x3e4d970b	0.2007715
179	0xb8650db1	-5.4610606e-05
180	0xbe526907	-0.20547877
181	0xbd441065	-0.047867198
182	0x3d71a5fe	0.058996193
183	0x3e3aaa68	0.18229067
184	0xbe530ca7	-0.20610295
185	0x3c0de9b4	0.008661676
186	0x3b1a125a	0.0023509474
187	0xbdc9ed38	-0.09859699
188	0x3e412022	0.18859914
189	0x3df82fef	0.121185176
190	0x3e31489c	0.17312855
191	0xbd98ba90	-0.07457459
192	0xbd99fe17	-0.07519167
193	0x3e42dff5	0.19030745
194	0xbe50edcf	-0.20403217
195	0xbe2296c6	-0.15877828
196	0xbde75a39	-0.112965055
197	0x3d0f6c23	0.035015237
198	0xbe5947bc	-0.2121877
199	0xbde25194	-0.11050716
200	0xbdca5320	-0.09879136
201	0xbc125ae7	-0.008932806
202	0xbc525097	-0.012836597
203	0x3cdef7ee	0.027217831
204	0xbe8602a9	-0.26173905
205	0xbe7083b5	-0.23487742
206	0x3db65169	0.089022465
207	0xbd1433bc	-0.03618215
208	0x3cddd2c8	0.027078047
209	0x3dfe33e4	0.12412241
210	0x3ddbd8bb	0.107346974
211	0xbd9480a8	-0.07251102
212	0x3dc1762d	0.09446368
213	0xbbb625df	-0.005558714
214	0x3e0fa904	0.14029318
215	0x3dae6859	0.085159965
216	0xbcd7abdb	-0.026327064
217	0xbe4ae622	-0.19814351
218	0x3e6f329b	0.23359148
219	0xbe02b428	-0.12764037
220	0x3e3a9837	0.18222128
221	0xbdaee75d	-0.08540223
222	0xbd5e7a4e	-0.054315858
223	0x3d1b1a02	0.0378666
224	0xbc9ae384	-0.018907316
225	0x3d2d4e30	0.042310894
226	0x3e63eaa8	0.22257483
227	0xbc52bac2	-0.012861909
228	0xbbdb2378	-0.006687578
229	0xbe46dd50	-0.19420362
230	0x3dbf2b0d	0.09334383
231	0x3d94fede	0.072751746
232	0xbb949240	-0.004534036
233	0xbdc314c7	-0.09525447
234	0xbdda6967	-0.10664635
235	0xbd270b82	-0.04078246
236	0xbd8d62a5	-0.069035806
237	0x3d8ee990	0.06978142
238	0xbe32283b	-0.17398159
239	0xbe50b9b2	-0.20383337
240	0x3e90ded0	0.28294992
241	0xbe2a3801	-0.16622926
242	0x3ce886da	0.028384615
243	0x3daaa145	0.08331541
244	0x3d9d5b12	0.07683386
245	0xbcb3a52c	-0.021929346
246	0xbe35e492	-0.17762974
247	0xbe058de3	-0.13042407
248	0xbe2c9954	-0.16855365
249	0x3d2fb0d9	0.042893264
250	0xbe91c9f0	-0.2847438
251	0x3e1dbc99	0.15403976
252	0x3e27ccb0	0.16386676
253	0xbd53052d	-0.051518608
254	0x3e2b7352	0.1674321
255	0x3ce982d8	0.028504774

layers.4.weight f4 [128, 256]
0	0xbeb55ef4	-0.35424006
1	0xbf20ae8c	-0.6276634
2	0xbd5df09b	-0.054184537
3	0x3f13a62b	0.5767543
4	0xbe4c1870	-0.19931197
5	0xbe26ac65	-0.16276701
6	0xbe034970	-0.12820983
7	0x3ecfccab	0.40585837
8	0x3dd7cced	0.10537133
9	0x3c77129a	0.015080119
10	0xbe0a3006	-0.13494882
11	0x3de0a5bd	0.10969112
12	0xbd84eeb8	-0.064908445
13	0xbe95739d	-0.29189768
14	0x3eb559ea	0.3542016
15	0x3d764c14	0.060131148
16	0xbdf8d858	-0.12150639
17	0xbe6f1468	-0.23347628
18	0x3eaa2d1e	0.33237547
19	0xbe8a41c3	-0.27003297
20	0xbc4a8cd7	-0.01236268
21	0x3e805d6d	0.25071278
22	0x3e07832d	0.13233633
23	0x3eb557c6	0.35418528
24	0x3dc6cb7f	0.097067825
25	0x3eb20587	0.34769842
26	0x3d60f9c6	0.054925703
27	0x3e16d41a	0.14729348
28	0xbd8b0499	-0.06787986
29	0xbeda632e	-0.42653793
30	0x3e0b2da8	0.13591635
31	0xbebfa4a8	-0.3743031
32	0x3d05223a	0.032503344
33	0xbf288e04	-0.658417
34	0xbc863c19	-0.016386079
35	0x3d865087	0.06558328
36	0x3df8fee1	0.12157989
37	0xbd451ce2	-0.048123248
38	0xbed4cea7	-0.41563913
39	0x3e856420	0.26052952
40	0xbd43cbab	-0.047801655
41	0x3dc42ee9	0.0957926
42	0xbdf76a68	-0.12080842
43	0xbe0b739b	-0.13618319
44	0x3daaf0da	0.0834672
45	0xbedd7bb0	-0.4325843
46	0x3b55c910	0.0032621063
47	0x3d9b00e9	0.07568533
48	0x3da26856	0.07930057
49	0x3c95a627	0.018267704
50	0x3dba0508	0.09082991
51	0xbe7616f3	-0.24032192
52	0x3e272e3e	0.16326234
53	0xbec1fd05	-0.3788835
54	0x3e064295	0.13111337
55	0xbda37687	-0.07981592
56	0xbe993fcf	-0.29931495
57	0xbe0341af	-0.12818025
58	0xbc528417	-0.0128488755
59	0xbe5c4132	-0.21509245
60	0x3d080f8e	0.03321796
61	0x3dc87d49	0.09789521
62	0x3e51cc0f	0.20487998
63	0xbe6db6f6	-0.23214325
64	0xbe65da52	-0.22446564
65	0x3cc4b364	0.024011321
66	0xbd9f3ffc	-0.07775876
67	0xbda43571	-0.08018006
68	0x3d6cd1d3	0.05781729
69	0x3df9e278	0.122013986
70	0x3d48d51e	0.04903137
71	0x3d3e8521	0.04651368
72	0x3f086bf7	0.5328974
73	0x3e1a4711	0.15066172
74	0xbe185ede	-0.14879939
75	0xbe1a6867	-0.15078889
76	0x3d1453c1	0.036212686
77	0xbc817383	-0.01580215
78	0xbecb3b99	-0.39693907
79	0xbccaf868	-0.024776652
80	0x3d61895f	0.055062648
81	0xbe801040	-0.25012398
82	0x3e1d204b	0.1534435
83	0x3de807b8	0.11329597
84	0x3e36d190	0.17853379
85	0xbe9e5eb7	-0.30931637
86	0xbe51f53d	-0.20503707
87	0x3e6ef3eb	0.23335235
88	0xbdf61034	-0.12014809
89	0x3e07b35b	0.13252012
90	0xbdb8c01e	-0.090210184
91	0x3cae4383	0.021272426
92	0xbe0e5c0d	-0.13902302
93	0xbe1ac666	-0.15114745
94	0xbde7a029	-0.11309845
95	0xbf27047f	-0.65241235
96	0x3ce9d06c	0.028541766
97	0x3ec0f387	0.37685797
98	0x3d873303	0.066015266
99	0xbcbaf3d8	-0.022821352
100	0xbe4a5d0d	-0.19762059
101	0xbe93ce89	-0.2886851
102	0xbe98b6ef	-0.29827067
103	0x3ec9a5d9	0.39384344
104	0x3dd999b2	0.10625018
105	0x3e6d7586	0.23189363
106	0xbd9710cb	-0.0737625
107	0xbea2167d	-0.31657782
108	0x3e84fe2a	0.25975162
109	0x3e9cc70f	0.3062062
110	0x3d9f20d6	0.07769935
111	0xbe676eaa	-0.22600809
112	0x3e0da4e5	0.13832434
113	0x3ebd7005	0.36999527
114	0x3ea36ad6	0.31917447
115	0xbeb72c33	-0.3577591
116	0x3e98043d	0.29690734
117	0x3b605e30	0.0034235828
118	0xbd389537	-0.045064177
119	0x3de4070f	0.11134159
120	0x3e6538d7	0.22384964
121	0x3dcbf0d4	0.09958044
122	0x3e1a3ae2	0.15061525
123	0x3dbda29d	0.09259532
124	0x3ec832ae	0.39101166
125	0xbd68ee7c	-0.05686806
126	0xbf36e9d9	-0.71450573
127	0xbe60a8a4	-0.21939331
128	0xbe72a846	-0.23697004
129	0x3d9a6e3b	0.07540556
130	0x3b08bf2f	0.0020865907
131	0xbeaa32c0	-0.33241844
132	0x3dc44f4d	0.09585438
133	0x3e1a43ff	0.15065001
134	0x3d2b7f39	0.041869376
135	0x3cb7c48b	0.022432586
136	0xbe9af014	-0.3026129
137	0xbe8ae8f4	-0.27130854
138	0x3e8280d0	0.254889
139	0x3d72d17f	0.059281822
140	0xbe69ce46	-0.22832593
141	0xbd89174e	-0.06693898
142	0xbe91b983	-0.28461847
143	0x3b38d29e	0.002820171
144	0xbeb15fe0	-0.3464346
145	0xbe1797f8	-0.14804065
146	0xbd555a3b	-0.052088004
147	0x3d446093	0.047943663
148	0xbedb1eaa	-0.42796832
149	0xbd4e9506	-0.05043509
150	0xbf3e9554	-0.74446607
151	0x3e3277e5	0.17428549
152	0x3c888529	0.016665058
153	0xbe7e568d	-0.24837704
154	0x3e93dd77	0.28879902
155	0x3db5423b	0.08850523
156	0x3dce32f1	0.1006831
157	0x3e9497b2	0.29021984
158	0x3ec0ab5d	0.3763074
159	0x3d21d7d3	0.039512467
160	0x3ec2a5b9	0.3801706
161	0x3e2df282	0.1698704
162	0x3dd5a394	0.10431591
163	0xbdcbde7c	-0.09954545
164	0x3d3ed441	0.04658914
165	0xbe48f37a	-0.19624129
166	0xbd6ddbda	-0.058070995
167	0x3e9ace55	0.30235544
168	0x3e05b2bc	0.13056463
169	0xbc9168be	-0.01775014
170	0xbe88b4ae	-0.26700348
171	0x3d17832a	0.036990322
172	0xbe037f30	-0.12841487
173	0xbd502ddc	-0.050824985
174	0x3e4a8097	0.19775616
175	0xbe50fd11	-0.20409037
176	0xbe79c1d5	-0.24390347
177	0x3ea68064	0.3251983
178	0xbe7c42c8	-0.2463485
179	0xbe9e3425	-0.30899158
180	0x3e04a8e8	0.12955058
181	0x3e2b5ea9	0.16735329
182	0x3d63b041	0.05558801
183	0x3dfc5253	0.123203896
184	0x3d40c5a4	0.047063485
185	0x3e831e43	0.25609025
186	0x3dbc739f	0.092017405
187	0xbf225ad1	-0.63419825
188	0xbd091fae	-0.033477478
189	0x3d42ced9	0.047560547
190	0xbe85dc68	-0.2614472
191	0xbe0fcd43	-0.14043145
192	0xbedc3d9d	-0.43015757
193	0xbe96bab3	-0.29439315
194	0xbcb5a0c2	-0.022171382
195	0x3c9de23b	0.019272914
196	0x3d4ab104	0.04948522
197	0xbe7d8ae0	-0.24760008
198	0x3e1b7582	0.15181544
199	0xbd521e92	-0.051298685
200	0x3e4a9255	0.19782384
201	0xbda58252	-0.08081497
202	0xbf242c6a	-0.6413027
203	0x3ce04cbc	0.02738034
204	0x3e2cc9e4	0.1687389
205	0xbe9f939b	-0.31167302
206	0x3d0a98af	0.033837017
207	0xbe5b724c	-0.2143032
208	0xbd8f6c99	-0.07003135
209	0x3e55c009	0.20874037
210	0x3dd8ecce	0.10592042
211	0x3e5bdd2f	0.21471094
212	0x3e3f68e2	0.18692353
213	0x3d162cb0	0.03666371
214	0x3d4b4d2f	0.049634155
215	0xbe1aa0ab	-0.15100352
216	0xbe318b16	-0.17338213
217	0x3c4d7466	0.012539959
218	0x3dde9593	0.10868373
219	0xbdd8e678	-0.105908334
220	0x3e9cba26	0.3061077
221	0x3e84f1ea	0.25965816
222	0xbdea0c09	-0.11428077
223	0xbda5342c	-0.080665916
224	0x3d6fb635	0.058523376
225	0x3dd483ed	0.10376725
226	0x3e2bc75e	0.16775271
227	0x3dd3e73f	0.10346841
228	0x3e7af81b	0.24508707
229	0xbd9ad492	-0.07560076
230	0x3d58828c	0.052858874
231	0xbe63f71a	-0.2226223
232	0x3c7d1cd8	0.015448771
233	0x3cdb0c86	0.02673937
234	0xbedb4497	-0.42825767
235	0x3e0e866f	0.1391847
236	0xbe0c7631	-0.13716961
237	0x3e7b1bd7	0.24522339
238	0xbddc09ef	-0.10744082
239	0xbdb9203a	-0.0903935
240	0x3e71768e	0.23580381
241	0xbc7bbe9d	-0.01536527
242	0x3ee32a6a	0.44368297
243	0xbd8fc331	-0.07019652
244	0x3e8718d0	0.26386118
245	0x3e7677ae	0.24069092
246	0xbebeceff	-0.372673
247	0x3da0f757	0.07859676
248	0x3ea6aaf0	0.3255229
249	0xbed3be79	-0.41356257
250	0xbe732782	-0.2374554
251	0xba1761c8	-0.00057747634
252	0xbe905dde	-0.28196615
253	0xbd020be5	-0.031749625
254	0x3efd407d	0.49463263
255	0x3e0be7c6	0.13662633

layers.4.bias f4 [128]
0	0x3da63c62	0.08116986
1	0xbd944231	-0.072391875
2	0xbd12cf17	-0.035842028
3	0xbea83321	-0.32851508
4	0xbd848bb7	-0.06471961
5	0xbeaf9c2e	-0.34298843
6	0x3e67ee62	0.2264953
7	0x3d9219d3	0.07133832
8	0xbd9b8b44	-0.07594922
9	0xbccef80c	-0.025264762
10	0xbd02c4f1	-0.0319261
11	0xbdb6aeb0	-0.08920038
12	0xbe00a97d	-0.12564655
13	0x3e9a7d22	0.30173594
14	0xbc80bf3b	-0.015716186
15	0xbd3416cf	-0.043967064
16	0x3ca93ff8	0.020660385
17	0x3e422d95	0.189627
18	0xbe7d6be5	-0.2474819
19	0xbe1f3636	-0.15548024
20	0xbb68f5eb	-0.003554697
21	0x3e010b7c	0.12602037
22	0x3d84e5c3	0.06489136
23	0x3d4d7c3f	0.05016732
24	0x3e2f826c	0.17139596
25	0x3dfc846c	0.12329945
26	0xbd521719	-0.05129156
27	0xbc80ef18	-0.015739009
28	0xbe8107c2	-0.2520123
29	0x3de67b97	0.11254042
30	0xbd922b94	-0.07137218
31	0x3dcf4c9a	0.101220325
32	0xbd7bd868	-0.061485678
33	0xbe9ee4f0	-0.3103404
34	0x3c245571	0.010030136
35	0x3e0c2655	0.13686498
36	0x3dcfb627	0.10142165
37	0x3e1954a8	0.149737
38	0xbe95ab0e	-0.29232067
39	0xbe8ad35d	-0.27114382
40	0xbccf4474	-0.025301196
41	0x3d81ebd7	0.06343811
42	0x3e8a1995	0.26972643
43	0xbe16c4c7	-0.14723502
44	0x3d51743f	0.05113625
45	0xbda3b9c5	-0.07994417
46	0xbb926671	-0.0044677784
47	0x3cb7684d	0.022388602
48	0x3e062491	0.13099886
49	0xbe134df3	-0.14385204
50	0x3d37749b	0.044788938
51	0x3cf41f66	0.029800128
52	0xbd985389	-0.07437808
53	0x3e5470d8	0.20746171
54	0x3e2d7ea8	0.16942847
55	0xbe409303	-0.1880608
56	0x3d72479e	0.05915033
57	0xbe5ef052	-0.21771362
58	0x3da44c74	0.08022395
59	0x3cc4cfd0	0.024024874
60	0x3e2b1252	0.16706207
61	0x3d82bf35	0.06384126
62	0xbe99af9f	-0.300168
63	0xbe86770b	-0.26262698
64	0xbdeb2626	-0.114818856
65	0x3e47b634	0.19503099
66	0x3c8c571c	0.01713138
67	0xbd6c5658	-0.05769953
68	0x3c840ca0	0.016119301
69	0x3d19b81c	0.037529096
70	0xbe2b1fee	-0.16711399
71	0x3c91ab7f	0.017781971
72	0xbc5f6bc8	-0.013636537
73	0x3d856265	0.06512908
74	0x3e9da590	0.30790377
75	0x3e2747d5	0.16335995
76	0xbe8491a0	-0.25892353
77	0x3bae7a6a	0.0053246515
78	0x3d141d57	0.036160793
79	0x3e38d9d2	0.18051842
80	0xba121bd7	-0.00055736065
81	0xbcd858b6	-0.026409488
82	0xbde3e6f1	-0.11128033
83	0xbda0b755	-0.07847468
84	0xbdc0082c	-0.09376559
85	0x3de48dcd	0.11159859
86	0x3e6a2ef0	0.22869468
87	0xbcf9f953	-0.030514395
88	0x3cd623da	0.026140142
89	0x3c992cde	0.018698152
90	0x3c5e83d6	0.013581237
91	0xbd5e7fbe	-0.054321043
92	0x3b0069ba	0.0019594268
93	0x3e9af120	0.3026209
94	0x3ae2a2cd	0.001729095
95	0xbe8109f1	-0.25202897
96	0x3e1af86d	0.1513383
97	0xbe2004ed	-0.15626879
98	0xbd0ed77e	-0.034873478
99	0xbdce284c	-0.1006628
100	0xbe0f691c	-0.1400494
101	0xbd801ee1	-0.0625589
102	0xbd8c6a3b	-0.06856199
103	0x3e9ea1ae	0.30982727
104	0x3e44f297	0.19233166
105	0x3dc6f7e9	0.09715254
106	0x3de6ffed	0.11279283
107	0x3d8ceb9b	0.06880876
108	0x3e22a433	0.1588295
109	0xbe2d131c	-0.16901821
110	0xbd876854	-0.06611696
111	0x3e582d5b	0.21111052
112	0x3e05ff8e	0.13085768
113	0xbe54b4ea	-0.20772138
114	0xbe2b6d2b	-0.16740863
115	0x3de39faa	0.11114438
116	0x3d9272d7	0.0715081
117	0xbe254e85	-0.16143234
118	0x3d423eee	0.047423296
119	0x3c65e91d	0.014032629
120	0xbc189ed4	-0.009315211
121	0xbd99c020	-0.07507348
122	0xbce675b3	-0.028132295
123	0xbe3673e6	-0.17817649
124	0x3c9638c7	0.01833762
125	0x3dbf7d70	0.09350097
126	0xbd5371f0	-0.05162233
127	0x3e9e55a7	0.30924723

layers.6.weight f4 [6, 128]
0	0x3d19c419	0.03754053
1	0xbbfabc60	-0.0076518506
2	0xbd0f6d64	-0.035016432
3	0x3d8f0077	0.069825105
4	0xbce661b0	-0.028122753
5	0x3ca6148d	0.020273471
6	0xbd08ffe9	-0.03344718
7	0xbd17e196	-0.03708037
8	0xbc83b4e1	-0.01607746
9	0xba9bf376	-0.0011898119
10	0x3c8b43e4	0.017000146
11	0x3bd482da	0.0064853253
12	0x3d1fcad0	0.039011776
13	0xbcd4a0ba	-0.025955547
14	0x3c625056	0.013813099
15	0xbc79d874	-0.01524936
16	0x3bedcdc1	0.007257194
17	0xbca145a6	-0.019686531
18	0x3c3e86c0	0.011628807
19	0xbd348d9e	-0.04408037
20	0x3d1741d1	0.036928
21	0xbc8c7fff	-0.017150877
22	0xbd2f9796	-0.042869173
23	0xbc8158c3	-0.015789395
24	0xbe6dffc1	-0.23242094
25	0x3c3a5eb4	0.011375118
26	0xbbb394c5	-0.005480381
27	0x3a2a7950	0.00065030623
28	0xbcf74b01	-0.030187132
29	0xbd495a63	-0.049158465
30	0xbcbadcce	-0.022810366
31	0x3d35df29	0.044402275
32	0xbc190230	-0.0093389
33	0x3d589b4f	0.05288249
34	0x3bbb1c32	0.0057101483
35	0xbd147ffa	-0.03625486
36	0x3c9986cb	0.018741032
37	0x3d25ade5	0.040449042
38	0xbcf4fcf0	-0.029905766
39	0x3d8fa255	0.07013384
40	0x3c2195e2	0.009862395
41	0xbddf3bdc	-0.10900089
42	0x3d82fe54	0.063961655
43	0x3dcb113d	0.09915397
44	0x3d625f4b	0.05526666
45	0xbc94be3c	-0.018157117
46	0xbde80c38	-0.113304555
47	0xbd2fdd81	-0.042935852
48	0x3d83e5f1	0.06440342
49	0x3d0a1560	0.03371179
50	0x3c90ae42	0.017661218
51	0x3d03c442	0.032169588
52	0x3c324ca1	0.010882528
53	0x3d6fb20c	0.058519408
54	0x3ca007e4	0.019535013
55	0xbcc8a914	-0.024494685
56	0x3c580005	0.013183598
57	0xbcf9dc82	-0.030500654
58	0xbcf3b084	-0.029747255
59	0x3b0e1bde	0.002168409
60	0x3d43b8f3	0.047783803
61	0xbc822e31	-0.015891166
62	0x3d4e876b	0.050422113
63	0xbce5eae9	-0.028066115
64	0x3c1fb2be	0.009747205
65	0x3a5460ca	0.0008101581
66	0xbc0d330c	-0.008618128
67	0xbcca81f4	-0.02472017
68	0x3d235bb0	0.039882362
69	0xbd22c59f	-0.039739247
70	0x3c9d9085	0.019233951
71	0xbd611427	-0.05495086
72	0xbd396c27	-0.045269158
73	0x3c0fcbc0	0.008776605
74	0x3d74c20a	0.059755363
75	0x3c915307	0.017739786
76	0xbc0f0050	-0.008728102
77	0xbce4e127	-0.027939392
78	0xb8310dfe	-4.221312e-05
79	0xbd0218e6	-0.031762026
80	0xbcdcd0f2	-0.026955102
81	0xbb454c80	-0.0030105412
82	0xbca20153	-0.019776022
83	0x3d225952	0.039635964
84	0x3dbcc427	0.092171006
85	0xbc5fe980	-0.013666511
86	0xbd11c591	-0.035588805
87	0x3ca19d92	0.019728456
88	0x3c17edcf	0.009273007
89	0xbcc373e5	-0.023858974
90	0xbc4431a1	-0.011974723
91	0x3cd5c548	0.026095048
92	0xbc88bcb1	-0.016691538
93	0xbc4ccf07	-0.012500531
94	0x3d50e04d	0.05099516
95	0x3c0c93f7	0.008580199
96	0x3c8f96b9	0.017527925
97	0x3d765ee2	0.06014908
98	0x3c79f2ac	0.015255611
99	0xbd20d415	-0.039264757
100	0xbc7cf45e	-0.015439121
101	0x3ca08f50	0.019599587
102	0x3c3af19f	0.011410146
103	0x3d09d707	0.03365233
104	0xbbe3c8bd	-0.00695142
105	0x3d1d07c0	0.03833747
106	0x3d82c77d	0.063857056
107	0x3ab86ccd	0.0014070511
108	0x3dbf6d4d	0.09347019
109	0x3c568867	0.013094044
110	0x3d3e4ac6	0.04645803
111	0x3e0173df	0.12641858
112	0xbd2cf18d	-0.04222255
113	0xbdc219bd	-0.094775654
114	0xbd2dd927	-0.04244342
115	0x3cd07b27	0.025449349
116	0xbca87339	-0.020562755
117	0xbb519da5	-0.0031984833
118	0xbd3679d1	-0.044549767
119	0x3d008b96	0.03138312
120	0xbd0004fe	-0.03125476
121	0xbd0bcbc4	-0.034129873
122	0xbcdf3a7b	-0.027249565
123	0xbd06a6e4	-0.032874003
124	0x3c838dbe	0.016058799
125	0x3be04c5d	0.0068450407
126	0xbca0215d	-0.019547159
127	0x3c1cf2b0	0.009579346
128	0x3b560269	0.0032655245
129	0xbd4c892f	-0.049935516
130	0x3ce7527b	0.028237572
131	0xbdd5a8cb	-0.10432585
132	0xbc816bef	-0.015798537
133	0xbd42f583	-0.04759742
134	0xbb9f9898	-0.0048704855
135	0xbd581364	-0.052752867
136	0x3c5567fc	0.01302528
137	0x3bde4da5	0.0067841583
138	0xbd13da1f	-0.03609669
139	0x3d1a0782	0.037604816
140	0xbcd52b40	-0.0260216
141	0xbc9d55b0	-0.019205898
142	0xbdca4008	-0.09875494
143	0x3cbcd416	0.02305035
144	0x3ca6f7a2	0.020381752
145	0xbce40651	-0.027835043
146	0x3d684372	0.056704946
147	0xbd1d8dde	-0.038465373
148	0xbc805694	-0.015666284
149	0xbd9b86b6	-0.075940534
150	0xbd19e3d7	-0.0375708
151	0x3ce438f2	0.027859185
152	0xbc3f3b3e	-0.011671839
153	0xbe58aba3	-0.21159224
154	0x3c82e334	0.01597748
155	0xbd889af5	-0.06670181
156	0x3c10b1be	0.00883144
157	0x3d8b045e	0.06787942
158	0xbd0229c2	-0.031778105
159	0x3cc65232	0.024209116
160	0xbd4a58c5	-0.049401063
161	0xbca978da	-0.02068751
162	0xbd2035b1	-0.039113704
163	0xbc2acdc0	-0.010425031
164	0x3ca82fca	0.0205306
165	0x3cd423c2	0.025895957
166	0x3c5efaca	0.013609597
167	0x3d4d9ffd	0.050201405
168	0x3ca74325	0.02041776
169	0x3c85774c	0.016292237
170	0x3cabb228	0.020958975
171	0x3ba23234	0.0049498323
172	0x3d18ca16	0.0373021
173	0xbd16e761	-0.036841754
174	0xbcd4b124	-0.025963373
175	0x3d2b9069	0.041885767
176	0x3d9eacc1	0.07747794
177	0x3d03934f	0.032122906
178	0xbb7b9126	-0.0038386076
179	0xbcaa20c9	-0.020767586
180	0x3d98211c	0.0742819
181	0x3d0df4d0	0.0346573
182	0xbcfa25d9	-0.030535625
183	0x3c8ede22	0.017439906
184	0x3c8ea976	0.01741479
185	0xbca5773e	-0.02019846
186	0x3c2c5952	0.0105193425
187	0x3c9f5fac	0.0194548
188	0x3c118b9b	0.008883382
189	0xbd5825a4	-0.052770272
190	0xbc46e293	-0.01213898
191	0xbb2df661	-0.0026544558
192	0xbc5be082	-0.013420226
193	0x3b8e47c5	0.0043420517
194	0xbd096602	-0.033544548
195	0xbd2d3f51	-0.04229671
196	0x3c24373d	0.010022935
197	0xbc48d14a	-0.01225693
198	0xbd01a994	-0.031655863
199	0x3ca091f9	0.019600855
200	0xbba2b0c4	-0.0049649198
201	0xbcb24d7f	-0.021765469
202	0x3c92aa12	0.017903361
203	0xbc3fc5c5	-0.011704867
204	0x3d03015c	0.03198372
205	0x3b7b7dea	0.0038374611
206	0xbc865397	-0.01639728
207	0xbd730d7b	-0.059339028
208	0xbba7062b	-0.005097171
209	0x3cab516d	0.02091285
210	0xbcabb45c	-0.020960025
211	0x3d70c0fb	0.05877779
212	0x3c227a64	0.0099168755
213	0x3d0dc8b9	0.034615252
214	0x3d9287c5	0.07154802
215	0x3c302114	0.010750074
216	0x3d9f9caf	0.07793557
217	0x3a9e6313	0.001208397
218	0x3cbef4c2	0.023310069
219	0xbda37dbc	-0.07982966
220	0xbcf1253f	-0.029436706
221	0x3cc32ffb	0.02382659
222	0xbd3b5a7b	-0.045740586
223	0xbcfbe4b3	-0.0307487
224	0xbc772577	-0.015084616
225	0x3d473f18	0.048644155
226	0x3bce967f	0.0063045616
227	0xbc8841f6	-0.016633015
228	0xbd5e23c9	-0.054233346
229	0xbc444f0a	-0.011981735
230	0xba80aaf4	-0.0009816573
231	0x3dcc3b69	0.09972269
232	0xbd064884	-0.032784
233	0x3c865312	0.016397033
234	0x3c9963c5	0.018724332
235	0xbbed6827	-0.007245082
236	0x3dbb72c1	0.09152747
237	0x3cecd916	0.028912108
238	0xbd216129	-0.0393993
239	0x3d010bd8	0.031505436
240	0x3d6f066e	0.05835574
241	0xbd3002c8	-0.042971402
242	0x3c82226b	0.015885552
243	0xbd494c30	-0.049144924
244	0xbc9f5bc2	-0.019452933
245	0xbd47f47c	-0.048817143
246	0xbd455c42	-0.048183687
247	0xba2c8126	-0.0006580524
248	0x3d77fe69	0.06054536
249	0x3c88239a	0.016618539
250	0xbd25e339	-0.0404999
251	0x3bbdd5b0	0.005793296
252	0x3c912d26	0.017721724
253	0x3ce6cb7c	0.0281732
254	0x3d21e3ea	0.039523996
255	0xbd0fdc64	-0.03512229

layers.6.bias f4 [6]
0	0x3d6fc810	0.058540404
1	0x3dae8455	0.08521334
2	0x3b83f41c	0.004026903
3	0x3d1bb9b3	0.038018893
4	0x3d7f909e	0.062393777
5	0xbd2ba942	-0.041909464
