DRL/RDWS-main/result/dqn_model_50.pth (torch, 281999 bytes, 8 tensors)

layers.0.weight f4 [128, 24]
00000000: dc23 9dbb 1557 933c 531d 99bc 24ca 5d3a
00000010: 6e8e 333d d1ab b13b c76c fd3c 98a5 6fbd
00000020: 6194 b1bc 306f 96bc 1cb2 36bd 527d da3c
00000030: 66d7 7f3d bef8 8a3c d8a6 bf3c 8d17 de3c
00000040: f2d6 abbc 75cc 37bb 030b 2fbb 1de8 ab3a
00000050: c3b4 0c3b 39b8 f93a a322 c03c 9e1b 83bb
00000060: bc48 3dbd 720a 823d b321 163d ff27 73bb
00000070: 4cc6 843c 8a3d 47bc 39b0 0bbd 1add 463d
00000080: 406f d8bc ba4e 4dbe 2b61 3c3c 8477 373d
00000090: c89a f43b 694e 943b b81a 90bc 5f59 153c
000000a0: 211d 8cbc d5ba 503d 4396 32bc 3c04 263d
000000b0: 0e8a b9ba 9351 5fbd d55e 98bc 3d14 57bd
000000c0: e015 91be 4cdc edbd d88d e0bc e84f c5bc
000000d0: f578 56bd b20d 61bd d836 22be 9762 3ebe
000000e0: a57e a23d 9822 5c3e 09b3 c43e 8f81 8e3d
000000f0: a6d7 94bd 0256 6d3d 000f 4a3e 757c 333e
00000100: 5321 073e fafe b23d 22a8 2d3c 62eb abbc
00000110: 71c4 d9bd 5897 00bd 93ef efbd 4a57 9cbd
00000120: ac47 2cbd 30f6 c83d b87e 0f3d a358 36bb
00000130: 9cf2 523c 64e7 b6bc b20d 6dbc 0edc f53c
00000140: bf48 a83b 5582 66be 314d bb3c 3796 1e3d
00000150: 1846 9bba 662f 1c3c b01b 96bc ec98 673b
00000160: d2b9 06ba f4e5 e63c 0931 0abc da3e 9c3c
00000170: d9d8 5bbb 9cea 6dbd 0bed 11bd ed26 6dbd
00000180: 2412 f4bd f90d 6bbd 4a49 4ebd 00b4 46bd
00000190: 74bd 5ebd 0ea4 1c3d 85b7 8c3e 8350 2c3e
000001a0: c68a 843e 205f b8bd 6310 ed3d d405 06bf
000001b0: 1218 783d 2f4a 40bb e8da b83c 2d4d 93bc
000001c0: b79b 8d3c b40a 4fbe ae74 c1bd a724 96bd
000001d0: 00b8 b2bd a31f 11bd c7f4 17be 8cfc e23d
000001e0: 59bd 213c 302d a2bd 8476 923c a3a0 213a
000001f0: 3294 883c 8d91 933c 1121 a1bd fc95 87bd
00000200: c37a 793c 4723 61bd 5310 a9ba 36c3 3d3d
00000210: bf94 673c f5c6 693c 32fd 093d affd 1c3d
00000220: 66ae 913b 351e 013d 4467 913c 0889 aeba
00000230: 3fd6 943c 6b79 d53c a67b 973c 7e28 f5bc
00000240: 54b4 d43a 4782 883d 232a 0fbd 6395 e23b
00000250: 8d2d b63b 5fb0 f1bc bfe4 8e3b 19a6 b5bd
00000260: 696f a43d 67c2 983d 3be2 27bc fdf3 89bc
00000270: e0af 19bd ccbe 0f3d 8637 97b9 b333 3f3b
00000280: a855 3d3d d049 9cbd 2373 b23c f876 88bd
00000290: 1e84 823c 6326 91bc 29eb 06bc 7967 cc3c
000002a0: 3416 8c3d 675e 8d3c 4452 073d 3e2c 163c
000002b0: e095 5a3b 7e0f 80bc ef13 4bbd 1ac1 c13c
000002c0: c731 f6bc c67c 03be 0318 83bd b3e5 103e
000002d0: d39b a9bc a0be 61bb d7ae 2abd 9470 dbba
000002e0: 2875 cabc 25d0 9b3d 9d6d 89bc 84c8 8b3c
000002f0: 3855 62bc 80a3 cfbc 2e58 a43c 95f7 6bbd
00000300: 0ca8 06bd 6c44 213e 6152 523c ed7b edbb
00000310: 2d41 8fbc 93ef 22bd 34b5 023d 8ddb c1bc
00000320: f4b6 0c3d 7848 26be 3845 4b3d 4fc9 493d
00000330: f4e8 30bc 02b4 96bb 2c27 2abd 42a8 e9bb
00000340: 037c e73c 1cd5 c1ba 0963 9c3b 0ae9 1ebc
00000350: f76f aa3b ea43 4ebd 9b50 0bbd 946a 2fbd
00000360: 57dc aebb 7b88 983d bf24 f7bc 399b b83a
00000370: ae60 f739 1b5c dbbc 8de9 d13c 8591 da39
00000380: 1d25 96bd 6b4d 103e c9f4 9dbc af62 a6bc
00000390: 7c97 fb3b 2dfc 1739 2a0b cb3b ba13 0abb
000003a0: a4c4 24bc 1626 51bc bcd0 d83a 3a8c c5bb
000003b0: 88d6 42bb ecb7 dc3b ea6f 013d 60ee 393d
000003c0: 8653 4f3e 39ee a13d 92f7 b4bb cd4c 64bc
000003d0: 3f68 74bb f0ea edbc bc84 153e 2670 34bd
000003e0: 5680 65be 6d3a 063e 763e 2bbe bb03 c53d
000003f0: 5760 c83c 0ed0 8ebd d40a b2bd 8aec 123d
-0.0047955345 0.01798586 -0.01869074 0.0008460602 0.043837003 0.0054220934 0.030935658 -0.058507532
-0.021677198 -0.018363565 -0.044603452 0.026671086 0.06246128 0.016964313 0.023394987 0.02711084
-0.020976517 -0.002804545 -0.0026709444 0.001311544 0.0021470047 0.0019052095 0.023454016 -0.004001095
-0.046211943 0.063496485 0.03665323 -0.0037102697 0.016207837 -0.012160668 -0.034103606 0.048550703
-0.026420236 -0.20049563 0.011497776 0.044791713 0.0074647404 0.004525949 -0.017590865 0.009115546
-0.017103733 0.050959427 -0.010900083 0.040531382 -0.0014155523 -0.054521155 -0.018599907 -0.052509535
-0.28337002 -0.11614284 -0.027411386 -0.024085954 -0.052361447 -0.0549447 -0.15841234 -0.18592297
0.07934312 0.21497571 0.38417843 0.06958305 -0.07267694 0.05794335 0.19732285 0.17527945
0.13196306 0.08740039 0.010599168 -0.020986263 -0.10633171 -0.031394333 -0.11715617 -0.076338366
-0.04206054 0.098125815 0.035032958 -0.0027823828 0.012875225 -0.022327133 -0.014468597 0.030012157
0.005135625 -0.22510655 0.022863956 0.038717475 -0.0011846451 0.009532785 -0.01832375 0.0035338951
-0.0005139384 0.028185822 -0.008434542 0.019072939 -0.0033546 -0.05808507 -0.035626452 -0.05789845
-0.119175225 -0.057386372 -0.050362863 -0.048511505 -0.054379895 0.038242392 0.27483764 0.16827588
0.25887126 -0.09002519 0.11575391 -0.52352643 0.06056983 -0.0029341092 0.02256532 -0.017981136
0.017286165 -0.20218927 -0.09446083 -0.0733121 -0.087265015 -0.03543056 -0.14839469 0.11083326
0.009871804 -0.07918775 0.017878778 0.00061655993 0.016672228 0.01801374 -0.07867635 -0.06620404
0.015227023 -0.054965284 -0.0012898542 0.046328746 0.014134585 0.014268626 0.03368873 0.03832787
0.0044458387 0.03152295 0.017749436 -0.0013315985 0.018168567 0.026058873 0.018491577 -0.029926535
0.0016228058 0.066654734 -0.034952294 0.006914781 0.0055596293 -0.029503046 0.0043607648 -0.08869571
0.08029062 0.07458954 -0.010246809 -0.016839975 -0.037521243 0.035094067 -0.00028842333 0.0029175102
0.046224266 -0.07631266 0.021783417 -0.066633165 0.015932139 -0.0177185 -0.0082347775 0.024951683
0.068401724 0.017256929 0.03303744 0.009165822 0.0033353493 -0.015632387 -0.049579557 0.023651648
-0.030053033 -0.12840566 -0.06401064 0.14150123 -0.020704186 -0.0034445897 -0.041670647 -0.0016741925
-0.024714068 0.0760806 -0.0167759 0.017063387 -0.013814263 -0.025346518 0.020061579 -0.05760916
-0.032875106 0.15748757 0.0128370235 -0.007247439 -0.017487133 -0.039779257 0.03191109 -0.02366426
0.034354165 -0.16238582 0.04962656 0.04926425 -0.010797728 -0.0045990953 -0.041541263 -0.0071306536
0.028257376 -0.0014788243 0.004772548 -0.0096991155 0.0052013355 -0.050357737 -0.03401242 -0.04282625
-0.005336325 0.074479066 -0.03016889 0.0014084346 0.00047183543 -0.026777318 0.025624061 0.0004168862
-0.073312975 0.14092033 -0.019281762 -0.020310728 0.0076779705 0.00014494425 0.006196399 -0.0021068887
-0.010056648 -0.012765428 0.00165417 -0.006028679 -0.0029729921 0.0067357924 0.03160087 0.045393348
0.20246705 0.079067655 -0.0055226767 -0.013934326 -0.003729358 -0.029042691 0.14601415 -0.044052266
-0.22412238 0.13108225 -0.16723046 0.09619852 0.02446 -0.06973277 -0.086934716 0.035870112

layers.0.bias f4 [128]
00000000: 92bc c2bc 589a 2b3d eb1f ddbc 6dbf 163d
00000010: 4289 2abd 4f8a 84ba f6e3 ccbc 548e ab3c
00000020: 3ecc 943c ffbe 4dbc 40e0 273b 1f71 753c
00000030: a68a be3c b391 ac3d e2d4 db3c 8be7 463c
00000040: 5ae4 0b3d ded1 8d3c 2e26 9d3d ba04 693c
00000050: 9a29 8e3c 7ec3 70bc 7e6b 8bbc d818 01bc
00000060: a2ef 8ebb ffdf cdbc 5ef3 7ebc 305e 593d
00000070: 994d 913c 9001 19bc 4896 57bc 27d3 833c
00000080: 0438 c13b eff6 ef3c 07f0 0e3d 5a03 28bc
00000090: a117 05bc b087 9cbc 58e6 073e 1703 16bd
000000a0: 610c c63a 8a80 0dbb fb69 e43c e9fe 523b
000000b0: a00c ed3d d969 53bc c241 2c3c 8c45 54bc
000000c0: e936 10bc 42e7 23bd aff1 e83a 7582 233c
000000d0: 729a ecbb b8fd ca3b 6ac4 1c3c 0a88 acbc
000000e0: 1c79 053c 3de9 20bd fc00 d2ba c750 aebc
000000f0: 4f0a e43c f2b9 e4bc cfba 2fbc f09f f7bb
00000100: c92e 0dbc f600 fb3a 407a 75bc 7d37 74bc
00000110: 85c5 c53b b8a5 b6bb cbe5 273c 0b49 fe3b
00000120: 294b 8dbb f71e bcbb 48b6 8c3c 692a 98bc
00000130: ebda 12bd 2c25 49bc 4032 cf3b 01cf 913c
00000140: 481c 8c3c 702c 0bbd 9451 6b3c b692 8e3c
00000150: c34c 9338 3eed 09bd 9886 b63c 1c03 333a
00000160: 6cc7 be3c d0eb ab3b 373f d8ba 5f3a f3bc
00000170: fce6 6abb e5a7 04bd 1496 64bc 58eb 89bb
00000180: 810b 80bc 8aa1 9cbb f4aa f7bb ddd8 e23c
00000190: 442c c5bc 184e 45bc 8173 fc3c 8547 40bc
000001a0: 1727 003c 8930 ddbc fb56 fc3a 279e a83b
000001b0: 90aa fdbb a4c7 12bd bbcc 57bb dfa4 eeb9
000001c0: bbef a5bc f444 ac3c 5925 93bc 8eb3 58bc
000001d0: 5a41 16bc 7d17 8cbd 3e38 d5ba a203 1ebd
000001e0: 5416 a6bc 667c 5d3c 7bb5 133c 0f09 1cbc
000001f0: b044 6e3c c798 e23a 3bcb 69bc 232a 3b3c
-0.023771558 0.04189524 -0.026992759 0.03680365 -0.041634806 -0.001011202 -0.025011044 0.02094189
0.018163797 -0.012557744 0.002561584 0.014980583 0.023259472 0.084262274 0.026834909 0.012140165
0.03415332 0.017311987 0.07673298 0.014222318 0.017353822 -0.0146950465 -0.01701903 -0.007879458
-0.0043620626 -0.025131224 -0.015560953 0.05306834 0.017737197 -0.009338751 -0.013158388 0.016091896
0.00589657 0.029292552 0.034896877 -0.010254705 -0.008123309 -0.01910767 0.13271463 -0.03662404
0.001510989 -0.0021591508 0.027882567 0.0032195395 0.11574674 -0.012903654 0.010513725 -0.012956034
-0.008802154 -0.040015467 0.0017772223 0.009979834 -0.0072205598 0.0061947964 0.009568313 -0.021060962
0.0081465505 -0.039284933 -0.0016022022 -0.021278752 0.027836947 -0.027920697 -0.010725691 -0.007556908
-0.0086171115 0.0019150067 -0.01498276 -0.014905808 0.006035509 -0.0055739544 0.010247658 0.0077601722
-0.0043119383 -0.005740996 0.017176762 -0.01857491 -0.035853308 -0.012276929 0.006323129 0.017798902
0.01710333 -0.033977926 0.014362711 0.017403942 7.023804e-05 -0.033673517 0.022280976 0.00068287714
0.023288451 0.005246617 -0.0016498332 -0.02969092 -0.0035843244 -0.03238668 -0.013951797 -0.0042089634
-0.015630485 -0.004779999 -0.007558221 0.0276913 -0.024068959 -0.012042545 0.030816795 -0.011735802
0.00782182 -0.027000682 0.0019251996 0.0051458064 -0.00774128 -0.035834923 -0.0032928425 -0.00045517736
-0.020255914 0.021028973 -0.017962145 -0.013226403 -0.009170854 -0.068404175 -0.0016267372 -0.038577683
-0.020274319 0.013518428 0.009015436 -0.009523644 0.014542744 0.0017287963 -0.014269645 0.01142362

layers.2.weight f4 [256, 128]
00000000: 9d92 1e3c 08fc f13b 8be1 49bc 51d0 2e3b
00000010: 8238 c5bd 6a93 0d3c 7a15 1ebc 4b95 973c
00000020: 8c6c d3bb 8a53 133c 2a96 953c b880 093c
00000030: 85e8 043d 8745 36bd 9396 583c a946 abbb
00000040: 04a4 9a3a d228 8abc 24fe 2fbb 7d41 d73b
00000050: f44e 5e3c 5c87 393b b949 d83c 0d76 133b
00000060: 5a68 28bb 7845 59bb e33d 973b c6b7 863c
00000070: 0902 7b3b e105 e3bb da46 efbb 336c 7ebc
00000080: c45c e7b9 4153 cbbc e2b0 603b b117 f63a
00000090: a2b1 b83c 8a69 3abc 97a3 003d 1954 243c
000000a0: dad5 61bc c470 31bc aa07 07bb c8b1 c7b9
000000b0: 25a4 1bbc 1705 21bb 5da0 6a3b 981c 113c
000000c0: c8d4 083c 7b21 a33b 5648 2cbb 65b2 fbbb
000000d0: b56d c63b 3ce5 07bc 2237 723b 21bd 643b
000000e0: b662 30bb a102 123b 834a e9bb db9d 93ba
000000f0: af1f f7bc b4ec e637 480e c93b e984 643c
00000100: c7f9 443c e1c1 703c 1acc c0bb 817d ce3b
00000110: f926 823b 25ff 5ebc ebdf 6d3c 6478 c3bc
00000120: 4c79 683c 54f2 6e3c 5811 0a3c 410d 2b3c
00000130: 4d62 05bc b8de 8fbc 9727 c83a 0d51 40ba
00000140: 610a 013c 95fa 2ebb 8b3b 43bb 07a5 e73b
00000150: 7fb2 3ebb 541a eb3b 11ec 7f3c 4c45 54bc
00000160: f758 88bb 1e27 2a3b 8e2a 0aba 285f 41bc
00000170: 5b20 493c b065 993b d711 55bb 216e 623c
00000180: 5747 4d3c df99 31bc c262 27bd c195 a53c
00000190: 2926 c93b a7e2 883c e76b 3f3b cffd 8cbb
000001a0: 4490 873c d783 ab3a 8efb fbbb 7f2b 883b
000001b0: 05c5 cfbb f06e 90bc 9a7a 1e3c 919f a93b
000001c0: bed2 673c eba8 19bc e0c7 2f3c f16d aebc
000001d0: 783d 0cbc 4f2b d33c 3fc4 383c c5c8 77ba
000001e0: 950b afbb 4ed3 27bc 410c 5dbc 06c2 3d3c
000001f0: 2a46 ac3b 5872 7dbc b338 bd3b 52c5 623b
00000200: 9eb7 37b7 836f 003a 7703 7fb8 70f8 e439
00000210: 3006 4039 b2e1 4f39 6968 8cb8 0e5f 4cb9
00000220: 498b 8c38 ddb6 b4b9 ac47 ccb9 890b 68b9
00000230: 352e e0b9 a141 66b9 efe5 98b9 2413 0bb9
00000240: b7bb 1a3a a2b9 eeb8 4fbe 39ba 6c85 d739
00000250: af72 94b9 4a67 d338 0074 0aba 437b 9ab8
00000260: 7c81 0cb9 e5fe c1b9 b2b4 bc38 a6d6 93b8
00000270: 49a7 093a 9ba1 f3b9 5dc9 09ba c94f 143a
00000280: 36a2 efb8 ad35 d439 5c1c c539 fb71 5938
00000290: 2d9f a3b8 133f ceb9 2fa3 4fb7 280b 54b9
000002a0: f8da 20b9 9cec 8338 619f 1339 d3b9 8739
000002b0: de09 883a 0b64 19b9 12a5 0738 cbf6 c3b9
000002c0: 0a4e dd38 d3a6 66b9 f4de c639 112c 17b9
000002d0: 1bb6 96b9 e855 83b9 14a6 ef37 f4d0 12ba
000002e0: f24a c6b9 3f55 43ba ebc7 b7b9 d93e bfb9
000002f0: 4f92 81b8 08d1 29b9 69c9 1239 8228 1cb9
00000300: dc59 85b9 a609 d539 3e96 04b8 1993 d0b8
00000310: 66de 7db9 1a69 69b9 0544 e137 0afd 7fb9
00000320: a9f0 1838 fb47 0739 9618 143a fbd3 96b8
00000330: f5aa 26ba 1d55 9f39 e70e 15b8 52e2 5d39
00000340: 1f1b 293a d2a8 78b9 0e6e e0b8 e5e3 183a
00000350: d15e b739 56bc 16b8 9af6 58b7 7807 09ba
00000360: 303d 8939 e3a8 8038 065c 4037 68a2 b9b8
00000370: bbe4 cc39 4255 13ba 5e2b 01ba a24a 74b8
00000380: aaff 4db9 fcdf 4439 f56b cd39 c8a4 ecb8
00000390: 63e1 9bb9 7be2 1c38 8088 bc38 459c 3c39
000003a0: 6682 66b9 4954 2db9 13c2 8239 d758 3039
000003b0: 8fd0 ceb9 dd86 9639 5d1d da39 deda b6b8
000003c0: 5c12 64b9 788e f0b8 3a29 a1b9 ae26 8739
000003d0: c93e 1b39 d38e 0c39 9405 bdb8 c95b 17ba
000003e0: 1c6f 96b8 5f09 7f39 7754 0eb9 f3e3 a8b9
000003f0: d30e 3d39 1869 1d38 6848 b939 b7ba b3b8
0.00967851 0.007384781 -0.01232184 0.002667446 -0.09629919 0.008641103 -0.009648675 0.018503806
-0.006452149 0.008992085 0.01826008 0.008392505 0.03244831 -0.0444999 0.013219493 -0.005226929
0.0011798148 -0.016865168 -0.002685436 0.006569086 0.013568629 0.002830944 0.026402341 0.0022500784
-0.0025696964 -0.003315298 0.004615532 0.016445052 0.0038300774 -0.006928191 -0.0073021473 -0.015528726
-0.0004412887 -0.024819972 0.0034285118 0.0018775371 0.02254564 -0.011377702 0.03140601 0.010029816
-0.013783896 -0.010830108 -0.0020603933 -0.00038088695 -0.009499584 -0.0024569684 0.003580115 0.008856915
0.008351512 0.0049783564 -0.0026288233 -0.0076811784 0.0060555586 -0.0082944 0.0036959131 0.0034902769
-0.0026914305 0.00222794 -0.007119478 -0.0011262255 -0.030166475 2.752836e-05 0.0061357357 0.013947704
0.012022442 0.014694662 -0.005883706 0.0063015823 0.003971931 -0.013610636 0.014518718 -0.023861118
0.014189076 0.014584143 0.008426987 0.010440172 -0.0081411125 -0.017562255 0.0015270588 -0.0007336296
0.00787601 -0.0026699651 -0.002979013 0.0070692333 -0.0029098091 0.0071747694 0.015620247 -0.012955975
-0.004160996 0.0025963257 -0.00052706234 -0.011802472 0.012275781 0.0046813115 -0.0032511854 0.013820202
0.012529216 -0.010839908 -0.040865667 0.02021301 0.0061385822 0.016709639 0.0029208602 -0.0043027173
0.016548283 0.0013085556 -0.0076898998 0.0041555758 -0.006340625 -0.017631024 0.009672785 0.0051764925
0.014149366 -0.009378652 0.010728806 -0.021292659 -0.008559577 0.025777487 0.011277257 -0.0009452219
-0.005341957 -0.01024325 -0.013491691 0.011581903 0.0052573876 -0.015469156 0.0057745813 0.0034602475
-1.0950402e-05 0.0004899429 -6.0799965e-05 0.0004367265 0.00018312852 0.00019825136 -6.695168e-05 -0.00019490367
6.701664e-05 -0.0003446852 -0.00038963312 -0.00022129541 -0.00042759036 -0.00021958958 -0.00029163013 -0.00013263203
0.00059026055 -0.00011383301 -0.0007085548 0.00041107403 -0.00028314206 0.00010080503 -0.00052815676 -7.3662515e-05
-0.00013399677 -0.0003700174 8.998196e-05 -7.0494876e-05 0.00052510627 -0.00046468977 -0.0005256141 0.0005657641
-0.00011426622 0.00040475783 0.00037595897 5.1842984e-05 -7.8020945e-05 -0.00039338376 -1.2376156e-05 -0.00020222052
-0.00015340361 6.290639e-05 0.00014078386 0.00025887656 0.0010378917 -0.00014628486 3.2340242e-05 -0.00037377173
0.00010552637 -0.00021996656 0.00037931616 -0.00014416898 -0.0002874591 -0.00025050272 2.8568356e-05 -0.00056005944
-0.00037821342 -0.00074513623 -0.0003505343 -0.00036477184 -6.1784514e-05 -0.00016194966 0.00013998676 -0.0001489241
-0.00025434687 0.00040633715 -3.1611176e-05 -9.945612e-05 -0.0002421081 -0.00022259765 2.6853764e-05 -0.0002441296
3.6463756e-05 0.00012901418 0.00056494155 -7.192042e-05 -0.0006357872 0.00030390258 -3.5538247e-05 0.00021160513
0.000645088 -0.00023714014 -0.000107016516 0.0005832299 0.00034975124 -3.593819e-05 -1.293202e-05 -0.0005227248
0.00026176265 6.134973e-05 1.1465518e-05 -8.851738e-05 0.0003908033 -0.00056203094 -0.00049274217 -5.824364e-05
-0.00019645566 0.00018775457 0.0003918108 -0.0001128405 -0.0002973183 3.7404225e-05 8.989964e-05 0.00017987292
-0.00021983086 -0.00016529964 0.0002494013 0.00016817763 -0.0003944677 0.0002871071 0.00041602078 -8.7192035e-05
-0.00021750614 -0.00011470629 -0.0003073903 0.00025778025 0.00014805341 0.00013404647 -9.013261e-05 -0.000577387
-7.173253e-05 0.00024322186 -0.00013573641 -0.00032213292 0.00018029967 3.7529593e-05 0.00035339897 -8.5701635e-05

layers.2.bias f4 [256]
00000000: c18e 3e3c f380 f239 f5cf b439 3c04 813a
00000010: 600e 9db8 139a 09ba 3302 b139 4e4d a4ba
00000020: 2f1a 1cba 6bf0 8939 9582 2cbe 66cb d33a
00000030: f752 7d38 8ba8 0e3a 02bf 52ba 1460 3f3a
00000040: d059 5b3a 3e8b fc3a 01f5 3139 754b 833a
00000050: 9a8f b33a 1785 ba39 3276 083a 8ac6 69ba
00000060: 380a 10bb ab64 6039 5181 833a 47f4 9d38
00000070: f272 063a f2c5 663a d32b f0ba e908 8438
00000080: c79d 913a 89f1 81bc 454c 353a 6ca8 dc3a
00000090: 7e26 b2bb d5c0 e9bc 00cf 903c 6329 193d
000000a0: 80f3 063d 73c2 abba aac3 0db9 24cd 293b
000000b0: 3430 45bd 1ddd de39 42e2 7cbc 7e68 f53a
000000c0: 885e 92b9 8ec7 0239 6c89 ca3a c5bf 023b
000000d0: 3800 27b9 91f0 47ba 696e c4bc 97fc 7639
000000e0: c4d9 df3a 7297 4fbd 069b cbba 0e84 103b
000000f0: 9a93 c63a 99dc a8ba fa5c a03a 35de 153c
00000100: 763f 313c 2474 0cba 6588 64bd 2887 923a
00000110: f92b 5c3a ae72 d7b9 2110 8a3a 09fe b7bd
00000120: ae83 ad38 79bd 833d 9077 e0b9 64e8 d3ba
00000130: cc4d abba 5376 a538 887d b8b9 efbe a0ba
00000140: 06e5 ed39 7224 fb39 38ae c23a 3fe4 f93a
00000150: 8b57 c739 da60 92ba f004 743c df37 aa3a
00000160: cba1 233c 9651 a3ba bbfb 2bba 8299 303b
00000170: f045 ac3a 0ea7 c7b9 3126 13ba 3f29 83ba
00000180: 507a bc3a 4adc cdba dbec 25ba 729c d0ba
00000190: e3cc ee39 5de7 6c3a 9edd 93b9 733f 24ba
000001a0: 4d6e 2fba d718 e23d 2569 0d3a 3b7c c43c
000001b0: 576d 2e3a dfeb 0b3a 1190 fbba c139 3eba
000001c0: bfaf 6ab8 2e2b c73a 0852 373a d18e fcba
000001d0: e874 353a 8a11 f33a 9020 eeba d231 5e3d
000001e0: fad9 143d 21aa 05ba 519b 4aba cfc6 0d3a
000001f0: 5eac 11ba 9079 fb3a 77d7 4c3a 5ff7 b13a
00000200: 588f f5ba cd11 98ba a49c 0cbc 4d80 6aba
00000210: 94b3 5dbc 9e16 bb3a 3a38 3139 3915 02ba
00000220: 7a98 133a ac1e 093b 8edb cb3b 55e6 bd3a
00000230: 4435 95b9 e056 f53a 55f7 943a cf51 50bd
00000240: 060f ddb7 30c2 1c3a 0fc4 5639 4744 d1b8
00000250: c1e2 4e39 77b9 c039 1c80 22bd 76ad 1a3b
00000260: 35bf b4ba 9a5e 9f3a 42c9 cf3a 0643 b23a
00000270: 2715 9dba 2bf6 1c3b e373 443d 4485 95ba
00000280: a780 853a ebbc 11ba 5cb1 84ba 0a29 6a39
00000290: 55a9 f33a 4c32 8db9 b4f9 d739 2587 1539
000002a0: f219 5339 aa71 a43a ad1f d53a 95b2 d7bd
000002b0: 5549 0cbb 3b82 2239 90fd 313b 0623 003b
000002c0: cec6 c6ba 7dc7 75ba d7b9 6abc 711e c03a
000002d0: 2fa3 3e3c 6967 9bb9 9d47 30ba 841b 9539
000002e0: 3236 9b3a 28e6 96ba 22d7 10bb 27f9 133a
000002f0: a668 15bb 6e8e ab3a ed56 013b b2e9 da3a
00000300: e3ef dfba 6da4 86b9 9c4d ecb9 9de9 adb9
00000310: 1b57 a939 1a47 003a 2cab 9d3a e9b2 9539
00000320: f2e0 78ba 287f adba beec 0dba 4e1e 15bc
00000330: 18e5 003a ef62 c73a 7540 c1bc ceb1 bdba
00000340: eccf bf38 a96e 963a 5f88 943a f74f aeba
00000350: 34fd e23a 4c94 baba 4223 0cbb 5d93 4abe
00000360: 0984 1e3c 61b3 b9ba 00bb c1ba 2583 f53a
00000370: 3dd2 5c3a 3782 6f38 fc7b 47b9 a8f7 be39
00000380: cbd9 d0ba 7243 09bb 55d7 8a3a bd0c 2639
00000390: 4604 3b3b af88 0c3e f2eb 183b 7888 c6b9
000003a0: 6d32 22bd 6e18 fcba 1bdd 60b9 0bd5 94ba
000003b0: 6055 70be 0a7c ebbc c1c9 333a da98 e9ba
000003c0: 9781 10bb 57fa 753a 95f2 923a fc16 af3a
000003d0: 19d8 03ba 60a4 76ba 4b7d 2eba a677 8aba
000003e0: e316 9839 6e29 3cba 54e7 2a3b 31e8 0cbd
000003f0: 80cf a7ba 739b b0ba b1f4 e4ba d178 b3b8
0.011630715 0.00046253912 0.00034487215 0.0009843181 -7.489021e-05 -0.0005249094 0.0003376171 -0.0012535246
-0.00059548294 0.00026309802 -0.16846688 0.001615864 6.0397168e-05 0.0005441985 -0.00080393266 0.00073003885
0.000836757 0.0019267572 0.00016971306 0.0010016995 0.0013699413 0.00035575844 0.0005205601 -0.0008917829
-0.0021978747 0.00021399806 0.0010033046 7.5318436e-05 0.00051288225 0.00088033 -0.0018323608 6.29591e-05
0.0011109643 -0.015862243 0.0006915967 0.0016834862 -0.0054367175 -0.028534332 0.01767683 0.037392985
0.032947063 -0.0013104215 -0.00013519698 0.0025909627 -0.048141673 0.00042507882 -0.015434803 0.0018723158
-0.0002791772 0.00012472106 0.0015452332 0.001995073 -0.00015926443 -0.0007627095 -0.023978429 0.00023554485
0.0017078449 -0.05068154 -0.0015533871 0.0022051367 0.001515019 -0.0012883126 0.001223474 0.009147217
0.010818353 -0.00053578825 -0.05579414 0.0011179196 0.00083988864 -0.0004109344 0.0010533371 -0.08984
8.27381e-05 0.064326234 -0.0004281369 -0.001616728 -0.001306945 7.889853e-05 -0.00035188743 -0.0012263934
0.00045374798 0.00047901605 0.0014852947 0.0019065215 0.00038021462 -0.001116778 0.014893755 0.0012986622
0.009987305 -0.0012460228 -0.0006560643 0.0026946967 0.0013143402 -0.00038080703 -0.0005613296 -0.0010006799
0.0014379714 -0.001570591 -0.00063295447 -0.0015915765 0.0004554755 0.00090371614 -0.00028203143 -0.0006265558
-0.00066921563 0.11039894 0.0005394391 0.023985019 0.0006653866 0.0005337577 -0.0019192715 -0.0007256531
-5.5953624e-05 0.0015195364 0.00069931196 -0.0019268637 0.00069220224 0.0018544656 -0.0018167663 0.05424673
0.03634069 -0.00050988985 -0.00077288324 0.0005408348 -0.0005556996 0.0019186009 0.0007814089 0.0013577751
-0.0018734736 -0.0011601985 -0.008582268 -0.000894551 -0.013531584 0.0014273708 0.00016900981 -0.0004962269
0.0005630326 0.0020922823 0.0062212413 0.00144882 -0.0002845918 0.0018717907 0.0011365215 -0.05085927
-2.6352249e-05 0.0005979864 0.00020481668 -9.978614e-05 0.00019730163 0.00036759276 -0.039672956 0.0023601926
-0.0013789894 0.0012158931 0.0015852826 0.0013600297 -0.0011984453 0.0023950438 0.04796208 -0.0011407514
0.0010185436 -0.0005559462 -0.0010123658 0.00022331267 0.0018589894 -0.0002693109 0.0004119404 0.00014260093
0.00020132193 0.0012546082 0.001626005 -0.10532109 -0.0021406014 0.00015498039 0.0027159192 0.0019552126
-0.001516545 -0.00093757344 -0.014326534 0.001465751 0.011635586 -0.0002964095 -0.00067245384 0.00028439995
0.0011841713 -0.0011512684 -0.0022100885 0.00056447316 -0.002279797 0.0013088712 0.001973565 0.0016701727
-0.0017085042 -0.00025680978 -0.0004507125 -0.00033171187 0.0003229909 0.00048934075 0.0012029163 0.00028552793
-0.00094939687 -0.0013236748 -0.00054140005 -0.0091014635 0.000491695 0.001521198 -0.023590306 -0.0014472546
9.146318e-05 0.0011477071 0.0011332146 -0.0013298978 0.0017317892 -0.001423487 -0.002138332 -0.19782777
0.009675034 -0.0014167839 -0.0014780462 0.0018731101 0.0008423662 5.7103312e-05 -0.00019024307 0.00036424142
-0.0015934048 -0.0020944742 0.0010592738 0.00015835739 0.0028536483 0.13724016 0.0023333994 -0.0003786718
-0.03959887 -0.0019233355 -0.00021444673 -0.0011354996 -0.23470068 -0.02874567 0.0006858372 -0.0017822043
-0.0022049898 0.0009383312 0.0011211211 0.001335829 -0.00050294545 -0.0009408649 -0.00066562433 -0.0010564222
0.0002900875 -0.00071778044 0.0026077824 -0.034401122 -0.0012802929 -0.0013474062 -0.0017467943 -8.557889e-05

layers.4.weight f4 [128, 256]
00000000: d75f 1d3a 0af2 0839 1396 2cb9 433d 983a
00000010: ebad a339 0476 1c3a 5986 7b3a 585a 1739
00000020: 24a5 82ba 2983 3e3a 45e2 fbb9 c5de 40b9
00000030: 34a7 f139 70eb 9637 d7f8 a6ba 72af 973a
00000040: a932 86b9 3c44 0f3a 57c4 843a 7497 adb9
00000050: a87b 83b9 48f9 d239 77a2 c3b9 71fb df39
00000060: 995f 92b9 56d3 733a 4e55 f5b8 e57c 06ba
00000070: d3d1 b3b9 8b9b e0b9 efde dc38 ea52 8d3a
00000080: 44e7 d0b7 3b7d b539 1312 9cb9 68d2 5639
00000090: 5c58 bbb9 b4e5 b739 96fc 99b9 3fa4 0dba
000000a0: ff03 3238 0a8f 7db9 9b88 aeba d1a5 c139
000000b0: e4bf 31bb dca9 a0b9 420a a63a 1192 e239
000000c0: 4063 9539 f751 c738 cdc8 d6b8 90d5 8a38
000000d0: 935e 2739 c977 15ba def2 8739 de80 0d3a
000000e0: 27fb 9d37 9087 3f39 82b9 d0b7 7cc7 3a39
000000f0: bd61 9639 8d20 8138 eab0 04b8 8e2c 74ba
00000100: 555d b0ba bf12 4bba 761c 2639 f637 a539
00000110: 88f4 3fb9 929e a539 08b4 8739 517f 663b
00000120: b7b4 b1b9 9607 91ba a568 26ba f2d0 7eb9
00000130: 9a76 8639 c491 d839 cf27 9739 d778 efb9
00000140: c9b5 beb7 bf46 b33a 442d 59b9 fd22 a139
00000150: bd37 da39 3ac9 9139 f2e0 87b9 8502 013a
00000160: bfad 94ba 3c82 1339 9e4c 0039 0737 0d38
00000170: 684f 98b6 9ba3 9039 0b90 88b9 d71e 90b9
00000180: db94 5039 0335 3239 2c68 8c39 f570 36b9
00000190: c748 2e3a f64e 81b9 6fd3 e0b9 a03b 423a
000001a0: 4adb e938 2887 e8ba 40bf 8c3a a91c c9ba
000001b0: d172 22ba cc72 fcb9 b202 8ab9 8e7a 56b9
000001c0: eed1 41b9 d090 1139 41bb 6d39 2ea9 e3b9
000001d0: 0716 fa39 3dd9 11b9 f01e 7fb9 0024 ddba
000001e0: f7e9 87b9 5910 34b9 f184 1e39 c72b 75b9
000001f0: a8ae f439 6a75 f039 d722 b5b7 60e1 57b9
00000200: cff7 b1b9 aa99 09ba 2a6a 3f3a 8d4e 7739
00000210: 87b9 ca39 a315 f5b8 3ab0 a939 0ff3 a5b9
00000220: 009f d237 654b 9439 ecc4 e5ba 1fdc 1138
00000230: c8ab feb9 2fac 9739 ae79 74b9 331a 91ba
00000240: 7c63 25ba 9e77 a7b9 feaa a938 7ab6 10ba
00000250: ebd7 073a 4658 50b9 0f55 73ba 4874 ea39
00000260: 2d62 d438 20b4 3cb9 e5c1 3f39 13bb df38
00000270: 08d7 a039 5a39 4738 5b26 dc3a 590a 6ab7
00000280: 3c27 9db8 700c 163a b4b1 8a39 8ab4 9e37
00000290: 4907 c739 d4f1 48b9 8028 04ba 0b07 363a
000002a0: d215 80b9 5ded 9d37 b74c 49b9 223f 23bb
000002b0: 1b04 8738 dd0a 1e3a f166 7339 5df2 48b9
000002c0: 158d e038 8101 6739 4878 4839 a986 5eb8
000002d0: e3dd d93a d5dc 11ba a9d8 c739 56c5 7838
000002e0: c991 5bb9 b565 9a39 9047 beb9 9128 aeb9
000002f0: e48f a9b9 6d6e 3ab8 fcd8 ad39 6e37 4339
00000300: b216 e8b7 fbbc c438 22d3 2cba e32e 9539
00000310: 030f 503a 2d7c e6b9 ad0d 8ab9 1ece d3b9
00000320: 80fa d638 31ba f1b9 9962 f939 8a01 48ba
00000330: aa6f d5b9 df89 4439 517a c53a 57d2 a3b9
00000340: 49b7 87ba 8f96 91b9 aeea 11b9 4279 c2b9
00000350: 6025 9539 3109 4cba 2039 bab9 bbd6 f0b9
00000360: 83a2 87ba e312 2838 69cf 0fb8 00f5 c339
00000370: f55d d2b9 823c ab39 04b9 6839 6218 0738
00000380: 7300 b2b8 9628 a8b9 e40c 81b8 5755 71b9
00000390: 0861 003a 111e 0e3b a79b ef39 789e 8dba
000003a0: 1988 74ba 9ebb 1439 952d 56ba 3b52 1c39
000003b0: 4442 83bb 3315 bc3a faa5 e2b9 403f 9bb9
000003c0: a1a6 8b38 60e4 5db9 f463 70b9 335c 3037
000003d0: 4bfe b0ba a8e3 4539 f2ca 4cba bff0 3d39
000003e0: bc4c d739 8a2c 16b9 fdc7 d239 beb2 90b9
000003f0: 22bb bf37 30cd 8638 4ab8 d338 d8b8 a339
0.0006003356 0.00013060137 -0.00016459105 0.0011614937 0.00031219362 0.00059685134 0.00095949095 0.00014434138
-0.0009967429 0.0007267469 -0.00048043035 -0.00018393535 0.00046091678 1.7991028e-05 -0.0012738955 0.0011572673
-0.00025596216 0.0005465185 0.0010129315 -0.00033109973 -0.00025078398 0.0004024005 -0.00037314344 0.00042721213
-0.00027918516 0.0009301206 -0.000116983996 -0.0005130305 -0.00034297872 -0.00042840498 0.00010531942 0.0010782157
-2.4903224e-05 0.00034616314 -0.00029768105 0.00020487013 -0.00035733252 0.00035075622 -0.00029370625 -0.0005403198
4.244223e-05 -0.00024181246 -0.0013315858 0.00036935371 -0.0027122432 -0.00030644133 0.0012667852 0.00043214907
0.00028493442 9.5043266e-05 -0.00010241717 6.620132e-05 0.00015961593 -0.00057017483 0.00025930157 0.0005397926
1.883281e-05 0.0001826568 -2.4881916e-05 0.00017812656 0.0002868305 6.1572624e-05 -3.1636017e-05 -0.00093145005
-0.001345555 -0.0007746629 0.00015841596 0.00031512947 -0.00018306274 0.00031589397 0.0002588334 0.0035171101
-0.00033894714 -0.0011064883 -0.0006347991 -0.00024301166 0.00025646837 0.00041307334 0.00028830624 -0.00045675665
-2.2734415e-05 0.00136777 -0.00020711595 0.0003073438 0.00041621728 0.0002780648 -0.00025916804 0.0004921335
-0.0011343284 0.00014067529 0.00012235573 3.3668268e-05 -4.539197e-06 0.00027587716 -0.00026047262 -0.00027488798
0.00019891879 0.00016995151 0.00026780495 -0.00017398952 0.0006648418 -0.00024663628 -0.0004288214 0.00074093975
0.000111511516 -0.0017740475 0.0010738149 -0.0015343624 -0.00061969185 -0.00048150716 -0.0002632342 -0.00020454286
-0.00018484119 0.00013882224 0.00022671839 -0.00043422863 0.00047700127 -0.00013909205 -0.0002433022 -0.0016871691
-0.00025923524 -0.00017172228 0.00015117579 -0.00023381329 0.00046669436 0.00045863847 -2.1593105e-05 -0.00020587957
-0.00033944703 -0.0005249033 0.00073018915 0.00023585018 0.0003866667 -0.000116865405 0.0003236549 -0.00031652345
2.5107991e-05 0.00028284933 -0.0017530001 3.4775698e-05 -0.00048574642 0.0002892925 -0.00023314983 -0.001107043
-0.0006309075 -0.00031941844 8.090398e-05 -0.0005520355 0.00051820156 -0.0001986931 -0.0009282389 0.00044718594
0.000101272344 -0.00017996179 0.00018287411 0.00010668314 0.0003067779 4.749871e-05 0.0016796099 -1.3949896e-05
-7.493651e-05 0.0005723899 0.0002645381 1.8919138e-05 0.00037961666 -0.00019163574 -0.00050414354 0.00069437985
-0.0002443032 1.882639e-05 -0.00019197432 -0.0024909456 6.438066e-05 0.00060288404 0.00023212635 -0.00019163774
0.00010707431 0.00022030437 0.00019118295 -5.3054337e-05 0.0016621914 -0.00055642176 0.00038117662 5.931159e-05
-0.00020939777 0.00029448947 -0.00036292942 -0.0003321809 -0.000323414 -4.4448698e-05 0.00033158797 0.00018617298
-2.7667124e-05 9.381209e-05 -0.00065927405 0.00028454428 0.0007936807 -0.00043961537 -0.000263316 -0.00040398625
0.000102509744 -0.00046105825 0.00047566442 -0.0007629624 -0.00040709722 0.00018743378 0.001506636 -0.00031246498
-0.0010354306 -0.0002776873 -0.00013915703 -0.00037092908 0.0002844734 -0.0007783352 -0.00035519246 -0.00045936354
-0.0010348115 4.007191e-05 -3.4287023e-05 0.00037375838 -0.00040124325 0.00032660743 0.00022194168 3.2209216e-05
-8.487785e-05 -0.00032073696 -6.1536004e-05 -0.00023015343 0.0004897271 0.0021685401 0.00045701602 -0.0010804674
-0.00093281415 0.00014184273 -0.00081702444 0.00014907953 -0.004005702 0.001434958 -0.0004322974 -0.0002961103
6.6590736e-05 -0.00021161279 -0.00022925419 1.0511884e-05 -0.001350352 0.00018872193 -0.00078122236 0.0001811413
0.00041065167 -0.00014321707 0.00040203324 -0.00027598994 2.2856115e-05 6.427837e-05 0.000100955906 0.00031227502

layers.4.bias f4 [128]
00000000: b699 053b 5091 21bc d4be 41b6 c560 e2b9
00000010: a42f 753b 8d96 fe39 6d3d 76bc cf5b 4ebc
00000020: 071f dbbc 712d 793b c16d 673a f9e3 8539
00000030: e029 6038 1ec3 b8ba adbd a0b9 e2aa 6fbc
00000040: f91a 833c 7f2d b0b9 a0f5 88bc cca4 6e3c
00000050: b6fe a7bb 49c9 8cbb 4481 f9bc eed5 7a39
00000060: 1317 35ba f721 633d ce4f 59bc 7964 18ba
00000070: 1294 503c 395e 7abd c737 3dbd 556a acbc
00000080: 5914 85ba ad4c 5cb9 6dba b13b d066 eb3c
00000090: be9c 7fb8 56ba 293a a971 133c 54dd b03b
000000a0: e6d1 353a efc0 4cbc 56c5 3dbc c051 0abc
000000b0: d364 0abb a1d9 b6ba 43d1 7d3d fb32 7c3b
000000c0: 1e10 2cb9 5783 b2bc 0bde 33bc c52f 453a
000000d0: a68b 353b e9ea 193b 86c1 783c 4767 973b
000000e0: ac07 4439 28ce 13bc 4de8 8e3c f6f1 343a
000000f0: 1597 42bc b9a7 7a3c 7cff 7eb9 f270 f83a
00000100: 0cd7 7e39 a15f e7b9 b190 67bc 8e2e bebc
00000110: 4549 79b9 f675 56bb 2f4f acbc 0fb1 5d3c
00000120: 2de1 9d3b f518 8cbe da63 6a3c 4175 3cbb
00000130: e3c0 7f3a 0ac9 b63b ba5b d5bc dce7 41bc
00000140: 69ed f939 2ee0 ee3a bf25 58b9 fb0f e93b
00000150: 7361 fab8 b6ba a5ba 26a9 83bc 514a 903c
00000160: ef3f 963c 8f44 e23b 5db7 c6b9 c3ae 8f39
00000170: a038 d3bc 9e03 c6bc 1185 ec3a a221 6e3c
00000180: 84ca cfb9 187b babc 128f 673c ed2e f3b9
00000190: 0cf8 aebb 7213 753c a6e8 553b 881e 4a3c
000001a0: a5d5 f338 2c8b 65bb 56c1 15bb 50cb 8abb
000001b0: ce78 d93b 11c6 11ba fb2e 093a 80d4 68bb
000001c0: 06a7 7a3c 0752 d23a e23d e8bb 001a f7ba
000001d0: 5828 823c c5bb 8c3a 4b81 61bd e1a6 34bb
000001e0: 412a 9f3c b390 b9bb 277c 923a ef33 0f3a
000001f0: c4a9 f1bb 391c d73b baee afba 112c 7335
0.0020385808 -0.009861305 -2.8870318e-06 -0.00043178178 0.003741243 0.00048558824 -0.0150292935 -0.012595131
-0.026748193 0.003802147 0.0008828305 0.0002553759 5.344476e-05 -0.0014096235 -0.00030658898 -0.014628144
0.016004073 -0.00033603233 -0.016718686 0.014565658 -0.0051267995 -0.004296456 -0.030457146 0.00023921553
-0.00069080404 0.055452313 -0.013263656 -0.00058133114 0.012730615 -0.061125014 -0.04619577 -0.021046797
-0.0010153159 -0.00021009399 0.005423835 0.028735548 -6.0942715e-05 0.00064746046 0.008999267 0.005397478
0.00069358794 -0.012497171 -0.011582693 -0.008442342 -0.0021117225 -0.0013950357 0.061967146 0.0038482535
-0.00016409202 -0.021791143 -0.010978232 0.0007522072 0.0027701645 0.0023485965 0.015182858 0.004620466
0.00018694875 -0.009021319 0.017444754 0.000690251 -0.011876841 0.015298777 -0.00024318503 0.0018954559
0.00024303439 -0.00044131003 -0.014133618 -0.023215558 -0.00023773786 -0.0032724119 -0.021033851 0.013530984
0.004818103 -0.2736279 0.014306033 -0.0028756412 0.00097562204 0.005578165 -0.026044715 -0.011835065
0.00047669865 0.001822477 -0.00020613427 0.0071125007 -0.0001193908 -0.0012644145 -0.016071867 0.017613562
0.018341033 0.0069051455 -0.0003790212 0.00027405293 -0.025783837 -0.024171647 0.0018045028 0.014534386
-0.00039633003 -0.022763774 0.014133232 -0.00046383534 -0.005339628 0.014958249 0.003263989 0.012336381
0.00011626937 -0.003502558 -0.0022850833 -0.0042356625 0.0066367155 -0.0005560825 0.0005233136 -0.003552705
0.015298611 0.0016046175 -0.007087455 -0.0018852353 0.015888378 0.0010737112 -0.055054944 -0.0027565288
0.019429328 -0.0056630014 0.0011175916 0.0005462756 -0.007374974 0.0065646437 -0.0013422586 9.058868e-07

layers.6.weight f4 [6, 128]
00000000: 5710 0139 a793 803d 9162 6537 7369 903a
00000010: 1c91 8bbb bf3e 24ba 8f66 143d 48ab a1bc
00000020: 1189 48be d622 523d b42f 1bbd c574 f138
00000030: 5423 f8b9 63b2 21b9 2c24 ea39 003a 6e3d
00000040: e4ee 30bd 7ba8 9539 3231 a43d 4514 a4bc
00000050: 91d3 563c cb81 8d3b ce90 7abd 8922 3838
00000060: e1ce 25ba f0e1 90bf fc87 a23c 8341 033a
00000070: d764 a8bb 3852 cc3d 2995 9dbe ca9b b23d
00000080: b538 4a3d 54a0 a039 2f85 4f3c 58bc 85bd
00000090: bc7d 2238 987f 46ba 20a6 66bd 4fcf 4fbd
000000a0: 94ae 1db9 d571 253d 4007 7c3c 7dfe 633d
000000b0: cb84 82b9 4181 8139 7a44 c6bc a7e7 7cba
000000c0: a0b5 8138 123e a93d 9143 4a3d 639b 24b9
000000d0: eafc 7fbb 7ed3 cb39 f9ec fcbc fabe f8ba
000000e0: 6faa b537 6c11 023c 8a0d b7bd b29c f3b9
000000f0: d5a5 683d 494b 5fbd 61c5 78b8 1142 3abd
00000100: 334b 2ab9 07a4 8339 338f 303d fa80 a93d
00000110: 4e9c d738 0521 503a 055b a23d 8795 6fbd
00000120: ff30 16bb 996a 00bf be12 d8b8 ebde 353b
00000130: c450 0cb9 362d 46bb 5ec7 563d a497 2d3c
00000140: a140 e8b9 1cb4 5ab9 d304 d439 6d9b b5bb
00000150: 888c 2d3a 7df8 8439 d6a9 bd3c b809 bcbd
00000160: d690 88bd eeab 80bd b9eb c239 4371 5039
00000170: 6fcc 41be a2d2 ad3d b965 a6ba b709 163b
00000180: 493b d439 72f2 983d c023 31bd 6b98 02bd
00000190: a1ca 063d 8083 26bd c6c2 2a3d 8d19 063c
000001a0: cb02 8a37 47a1 483a 9e30 f7b8 aaf8 0d3c
000001b0: c659 87bd 3557 063a 884c 0f39 1329 873d
000001c0: f696 42bd bb49 1239 059d 873c 20c5 0837
000001d0: 2c44 0abd bae9 4ab9 8440 3c3d e1b3 153c
000001e0: 7011 183e b1c7 c93c 380b 5cba 714b 3bb9
000001f0: f553 1e3d 9b82 9abd a2b6 063a f7b7 30b9
00000200: cc50 b83a 962c 603d 9839 3fb6 d5b5 f5ba
00000210: 8e2c 033a 0f67 3a3a 2953 903a a5ca 373c
00000220: ac6c 6ebe 9015 843d 2a16 12bd 3444 03ba
00000230: 69b4 1e3a e496 d2ba 23ce c6b8 9a48 413c
00000240: 24c2 973b 682d 24ba 76dd 6bba d38a 013b
00000250: 5394 d63c 4135 c0bc d34b 8d3f ec3e 06ba
00000260: 2cb5 c5ba 2aef 3cbd e8ba 203c 7297 caba
00000270: 4629 94b9 f149 10bd 2ad7 a8be e690 7a3d
00000280: 493e b93d 253c 2039 9b63 a93b b3a8 8f3d
00000290: 6bd3 79b8 db12 e53a c268 a5bc 4607 dfbc
000002a0: 19cb cfb9 2372 adbb d9a1 643c ff90 fa3b
000002b0: cb5f f03a d30d 6c3a ce73 073d f926 d539
000002c0: ad0b 19b9 bcb6 bdbc c534 3f3c ab48 94b9
000002d0: c158 c339 2ead 023d f366 1cbc 4bef e5bb
000002e0: d0d4 83b9 2a86 a93b 0c88 ff3b 229c 143b
000002f0: f61b 873c 44f4 bfbc 4c23 53ba 5627 6fbd
00000300: 033c 3338 582e b0ba a1c7 b9bc c92d e8bc
00000310: c05d a538 2ec6 a0ba e40d 93bc 7dab 843c
00000320: b6c3 74bb 9c23 c5be 4607 d6bc 8ec5 e2b9
00000330: 833c 03ba 6685 77bb 1d36 96bd aefc 9b3c
00000340: a37d 303a 68e3 903a 15d5 49b8 798f 90bb
00000350: dd86 2a3a 89b9 273a 43ec a0bc cace 353c
00000360: 8d60 103c c015 f6bc 3308 afb8 f7ed fcb9
00000370: 3dc6 66be 66c0 babd 2713 923a 93d4 bfbc
00000380: 6e99 1839 68b0 90bc 2701 c63c 0249 fcbb
00000390: fbf1 313d 3894 85bc 760b 2b3d 43f1 01bc
000003a0: ed69 63b9 e2c1 f6ba 4080 eeba 7c18 35bd
000003b0: 059e 83bd 839f 6dba b495 4dba c55b 8a3d
000003c0: 435b 91bc 902e c23a d487 f6bc 5920 d3ba
000003d0: eed3 9abb 9f94 fdb9 e221 c43c 867b c6bb
000003e0: b6d2 363e c389 82bc 9eb1 0e3b d6f2 a139
000003f0: 629c 173c 8de1 07bd 7ebe c1ba 9d82 c639
0.00012308486 0.062781624 1.3672413e-05 0.0011017754 -0.0042592417 -0.00062654534 0.03623062 -0.019734994
-0.19583537 0.051302753 -0.03788729 0.000115135255 -0.00047328568 -0.0001542061 0.00044658908 0.05816078
-0.043196574 0.00028545022 0.08017196 -0.020029197 0.013111965 0.004318451 -0.061173253 4.3901182e-05
-0.0006325078 -1.1318951 0.019840233 0.00050070154 -0.005138974 0.099766195 -0.30777863 0.08721121
0.049370486 0.00030637032 0.012666031 -0.06530064 3.874091e-05 -0.00075721135 -0.056310773 -0.050734814
-0.00015037722 0.04039176 0.015382588 0.05566262 -0.0002489447 0.000247011 -0.024202574 -0.0009647556
6.1850296e-05 0.08263792 0.049380843 -0.00015698145 -0.003906066 0.0003887675 -0.030874716 -0.0018977814
2.1656246e-05 0.007938724 -0.08938129 -0.0004646532 0.056798775 -0.054515157 -5.931163e-05 -0.045473162
-0.00016240477 0.00025108477 0.043105315 0.082765535 0.00010281113 0.00079394906 0.07927517 -0.05849221
-0.0022917388 -0.50162655 -0.000103031736 0.0027751278 -0.00013381528 -0.003023935 0.052436225 0.010595236
-0.0004429864 -0.00020857196 0.00040439385 -0.00554221 0.0006620367 0.0002536214 0.023152273 -0.09181541
-0.0666825 -0.06282793 0.0003717819 0.00019878619 -0.18925641 0.08487441 -0.0012695111 0.0022893974
0.00040479962 0.07468118 -0.043246984 -0.03188364 0.032908086 -0.040652752 0.041689657 0.008184803
1.6452183e-05 0.0007653427 -0.000117869335 0.008665243 -0.0660892 0.0005124689 0.00013666053 0.06599631
-0.04750725 0.00013951112 0.016554365 8.152128e-06 -0.03375642 -0.00019351291 0.045959964 0.009137125
0.14850402 0.024631353 -0.00083940057 -0.00017861814 0.038654286 -0.07544442 0.0005138909 -0.000168532
0.0014062165 0.05473002 -2.8494742e-06 -0.0018746207 0.00050038926 0.0007110694 0.0011011112 0.011217748
-0.23283643 0.06449425 -0.03566567 -0.00050074165 0.0006054105 -0.0016066697 -9.479772e-05 0.011797095
0.0046312977 -0.00062628696 -0.0008997539 0.0019766584 0.026193773 -0.023462893 1.1038765 -0.00051210704
-0.0015083901 -0.046126522 0.009810187 -0.0015456511 -0.0002825951 -0.035226766 -0.32976657 0.061173342
0.09045083 0.00015281195 0.0051693446 0.07014599 -5.9563125e-05 0.0017476933 -0.020191554 -0.027225148
-0.00039633436 -0.005293147 0.013954603 0.0076466794 0.0018339095 0.00090047455 0.033069424 0.00040655563
-0.00014595567 -0.023158424 0.011670296 -0.00028282902 0.00037259425 0.03190344 -0.009546029 -0.0070170513
-0.00025144825 0.0051734643 0.0077982005 0.002267607 0.016492825 -0.023431905 -0.0008054271 -0.058387123
4.2732816e-05 -0.0013441546 -0.022678198 -0.028342145 7.8852754e-05 -0.0012266093 -0.01795096 0.016195053
-0.0037348098 -0.3850373 -0.026126515 -0.0004325327 -0.00050062704 -0.003776872 -0.0733454 0.019041386
0.00067325885 0.00110541 -4.8120583e-05 -0.0044116345 0.00065050815 0.00063981913 -0.019643908 0.011096666
0.008812082 -0.030039668 -8.3461775e-05 -0.00048242483 -0.2253656 -0.09118728 0.0011144624 -0.023416793
0.00014553007 -0.017662242 0.024170471 -0.007699133 0.04344366 -0.016306028 0.041758977 -0.007931056
-0.00021687867 -0.0018826092 -0.001819618 -0.044212803 -0.06426624 -0.00090646016 -0.0007842437 0.06755785
-0.017743712 0.0014814902 -0.030094065 -0.0016107663 -0.004724971 -0.00048366652 0.023941938 -0.0060572056
0.17853817 -0.01593483 0.0021773349 0.0003088924 0.009253593 -0.033174086 -0.0014781503 0.00037862817

layers.6.bias f4 [6]
00000000: 8daf 263d 5e6b 403d 7d91 ff3b bd5d 083c
00000010: 41df 8d3d 5f92 d23d
0.040694762 0.046977393 0.007799326 0.00832313 0.06927348 0.10281824
